Shock_interface_Bubble_PINN_ver1/IC_Only.pt (torch, 27802 bytes, 52 tensors)

hidden_layer1_u1.weight f4 [10, 3]
000000 1e 8c c8 be e9 8a 00 bf 20 13 c5 3d 18 3e e5 3d
       -0.391694 -0.5021196 0.096227884 0.11193484
000010 89 6a 02 bc 56 06 31 be 45 e5 d9 bd b1 15 ba 3e
       -0.00795997 -0.17287573 -0.10639433 0.36344674
000020 c2 2d e5 be ed 50 be 3e bb 98 f1 be a5 7e 8a be
       -0.44761473 0.37171116 -0.47186837 -0.27049747
000030 e2 c9 1d 3f 4c d7 b9 3d 84 d4 b9 3e bf d1 05 bf
       0.61636174 0.09074268 0.3629495 -0.5227317
000040 18 4c db be bc b6 64 3e 3a b6 e0 bd 59 bf 4f 3e
       -0.42831492 0.22335333 -0.10972257 0.20287837
000050 d0 b6 c9 be 26 48 ec be 2d 0d ba be ac f6 67 be
       -0.39397287 -0.46148795 -0.36338177 -0.22652692
000060 4e 71 3a 3e 39 87 40 be 86 58 86 3e 82 45 ec be
       0.18207285 -0.18801583 0.26239413 -0.4614678
000070 24 e1 a8 3e 84 f5 46 be
       0.3298427 -0.19429594

hidden_layer1_u1.bias f4 [10]
000000 8c 7a 4e 3e d5 4b cc be f4 e0 f8 be 47 3b 37 3d
       0.20163935 -0.39901605 -0.48609126 0.044734266
000010 12 0f 78 3d 8c 41 48 3d 4e f5 37 3e 4b e6 07 3f
       0.060561247 0.048890635 0.1796467 0.53085774
000020 40 21 61 3d e8 fe f3 bd
       0.05496335 -0.11913854

hidden_layer1_u1N.weight f4 [10]
000000 a5 c2 82 3f c8 27 79 3f c6 d8 88 3f 60 3b 7d 3f
       1.0215651 0.97326326 1.0691154 0.98918724
000010 e7 f7 76 3f 68 dd 82 3f 27 75 84 3f 57 1c 7d 3f
       0.9647202 1.0223818 1.0348252 0.9887137
000020 db 86 88 3f 36 8f 82 3f
       1.0666155 1.0199955

hidden_layer1_u1N.bias f4 [10]
000000 06 5a ae bd 8e e2 82 3d 40 67 81 3d bf fe 09 bd
       -0.08513264 0.06390868 0.063185215 -0.03369021
000010 17 1e 67 3d 84 f3 00 3c aa 75 c1 bd 58 fc 9c bc
       0.05642518 0.007870559 -0.09446271 -0.019163296
000020 47 65 a7 bc 39 1e 80 3d
       -0.020434035 0.062557645

hidden_layer1_u1N.running_mean f4 [10]
000000 38 d8 c3 3e 4f a6 d3 3e 7a e9 e8 3e cc 3d e3 3e
       0.382509 0.4133782 0.45490628 0.44383085
000010 e2 d2 1c 3f 27 97 b2 3e a6 71 14 3f 33 6b f8 3e
       0.6125928 0.34880945 0.57985914 0.48519287
000020 b9 37 fb 3e c9 58 fc 3e
       0.4906595 0.49286488

hidden_layer1_u1N.running_var f4 [10]
000000 01 49 ae 3b c8 4f 84 38 e0 66 35 3b a9 42 a8 3b
       0.0053187613 6.309111e-05 0.0027679726 0.0051348996
000010 1c c4 fd 3a f4 70 8c 3b c4 ec 66 3a fb e2 79 3b
       0.0019360813 0.004285926 0.00088090845 0.0038129676
000020 7c e5 6f 3a 46 2b 5b 3b
       0.00091513223 0.003344254

hidden_layer2_u1.weight f4 [10, 10]
000000 a4 70 bb 3c ca 3d 14 be bb 86 06 be fd 22 a1 bd
       0.02288086 -0.14476696 -0.13137333 -0.078680016
000010 97 93 43 bb 46 cd 76 bd c1 e1 89 be 22 8a a1 3e
       -0.002984261 -0.060254358 -0.2693005 0.315507
000020 13 a3 94 3e da 05 8c be f5 be 9e be 74 f2 51 be
       0.29030666 -0.27348214 -0.31005064 -0.20502645
000030 98 40 e8 bd e4 20 97 3e ef 1e b4 3d 15 b9 f8 3d
       -0.11340445 0.2951728 0.087949626 0.121446766
000040 45 39 74 bd 66 d6 81 3e 98 8b 81 3e 5d 08 ee 3c
       -0.05962493 0.25358886 0.25301814 0.029056722
000050 96 83 16 3e 4f f3 b4 3d 9f 31 a2 bd 70 f0 41 be
       0.14698634 0.0883547 -0.07919621 -0.18939376
000060 e0 74 fa bd b7 4a 43 be 66 a0 8c be 23 57 1b be
       -0.122293234 -0.1907147 -0.27466124 -0.15169959
000070 5c c4 6e 3e b2 4b 2f be c1 56 2c be e3 3f 7d be
       0.23317093 -0.17118719 -0.16829969 -0.24731402
000080 2e 79 e0 bc fa f7 be bd f0 02 8a 3c 31 e7 76 3e
       -0.027401533 -0.093246415 0.016847104 0.2411163
000090 46 bc 97 be b6 95 3e bc 83 cf 2b 3e 8c 0a 78 be
       -0.2963583 -0.011632374 0.16778378 -0.24222773
0000a0 85 16 0f be df fa 7a 3e af 74 1b be d3 a3 63 3e
       -0.13973434 0.24509762 -0.1518123 0.22230463
0000b0 64 a2 cc bc d8 4f bd 3d 68 a0 71 3e 41 6e 9d 3e
       -0.024979778 0.092437446 0.23596346 0.3074818
0000c0 6b 32 09 bd 55 3a 3f 3e a9 01 1f be 46 5f 60 bd
       -0.033495348 0.18674596 -0.15527977 -0.05477836
0000d0 25 a2 4f 3e 57 ed 30 be 06 5c ee 3c 98 20 6e bd
       0.20276697 -0.17278038 0.029096615 -0.058136553
0000e0 ec 8e 93 3e 5e 39 3e be de eb 29 3d 54 76 fe bc
       0.28819978 -0.18576571 0.041484706 -0.031062283
0000f0 c4 53 84 3e 0e 3a 3c 3d e9 d8 9d be 66 a7 46 be
       0.25845158 0.045953803 -0.30829552 -0.19399795
000100 12 de ff 3d f4 aa af 3e cb 37 43 be c5 da 14 be
       0.124935284 0.34310114 -0.19064252 -0.14536579
000110 2f 9f 5d 3e 4a 15 3a 3e 80 ab 53 be d9 9c 0f 3d
       0.21642755 0.18172184 -0.20670891 0.03506169
000120 1e 01 13 3e c4 28 78 3e a1 54 e9 bd 09 3a 94 3e
       0.14355895 0.24234301 -0.11393095 0.28950527
000130 4e 81 a4 3e 5c 08 f5 bd 7d cd 3f 3d 18 cc ae 3e
       0.32129902 -0.11964485 0.04682683 0.34140086
000140 c2 09 ab be 14 5f a3 bd af b0 11 3e 0a 96 fc 3d
       -0.33405882 -0.07977119 0.14227556 0.12333305
000150 b5 e5 33 be 60 c5 f2 bd b4 f5 14 bd 4d e0 3e be
       -0.17568095 -0.118540525 -0.036367133 -0.18640251
000160 ba 35 43 be b7 d7 3d 3e 01 ed 89 be 74 12 f4 3d
       -0.19063464 0.1853932 -0.26938632 0.11917582
000170 ec 94 21 3e 45 af b7 bd 7b 17 70 3e a1 07 0c 3e
       0.15779465 -0.08968977 0.23446457 0.13674785
000180 fb d1 29 3d 0a 0a b8 bd e2 89 74 3d 43 28 72 3e
       0.04146002 -0.0898629 0.059701808 0.23648171

hidden_layer2_u1.bias f4 [10]
000000 23 ad 85 be 4d 08 52 3e 31 2e 2b 3c 6d 5e 01 3e
       -0.26108655 0.20510979 0.010448025 0.12633677
000010 ef 46 26 be 91 72 50 3d f8 2e 94 3e 17 65 c2 3d
       -0.16237997 0.05089051 0.28942084 0.094919376
000020 bb e4 65 3d b0 2b e6 3e
       0.056126337 0.44955206

hidden_layer2_u1N.weight f4 [10]
000000 74 20 78 3f d7 d9 79 3f c8 64 82 3f 4f 9d 7a 3f
       0.9692452 0.9759802 1.0187006 0.97896284
000010 43 e1 80 3f 1b f3 79 3f d8 6e 7a 3f 8b dd 79 3f
       1.0068744 0.97636575 0.97825384 0.9760367
000020 d1 95 79 3f d9 3f 7b 3f
       0.97494227 0.981443

hidden_layer2_u1N.bias f4 [10]
000000 4f 18 4f 3c e0 36 6d bc ec fe 42 bc cb d1 5c 3c
       0.012640073 -0.014478415 -0.011901598 0.013477753
000010 31 70 49 3c fc 58 73 3c cc 64 78 3c 93 5c 47 bc
       0.012294815 0.0148527585 0.015160751 -0.0121680675
000020 ee 14 40 bc 25 bb 4a 3c
       -0.01172374 0.01237372

hidden_layer2_u1N.running_mean f4 [10]
000000 23 c7 e3 3e 98 e5 0b 3f 29 9c 00 3f c0 25 08 3f
       0.44487867 0.5464721 0.5023828 0.531826
000010 f8 af ea 3e bc db 02 3f 2d 45 10 3f a5 20 06 3f
       0.45837379 0.5111654 0.56355554 0.5239356
000020 37 21 05 3f 8d 14 1d 3f
       0.52003807 0.61359483

hidden_layer2_u1N.running_var f4 [10]
000000 e9 f4 51 3d d6 d5 b9 3c b3 ac 87 3c 4c bd a7 3c
       0.051258955 0.022684973 0.016561842 0.020476006
000010 95 86 11 3b 64 51 3a 3d a9 7b 01 3d 22 b8 95 3c
       0.0022205461 0.045487776 0.031612072 0.018276278
000020 aa 8d 21 3d ed a5 d1 3c
       0.039441742 0.025591815

output_layer_u1.weight f4 [1, 10]
000000 9a 5f 18 bc ee 53 4c 3e 51 6b a7 3d 0b bd 8b bd
       -0.009300137 0.19953892 0.08174766 -0.068231665
000010 80 5d 0d bd 19 47 9a bd e6 55 e9 bd eb 55 e0 3d
       -0.034512997 -0.07533092 -0.11393337 0.109538876
000020 01 c2 7e 3d a4 ad 29 bd
       0.062196735 -0.041425362

hidden_layer1_u2.weight f4 [10, 3]
000000 87 bc de 3e 20 36 0d 3f 76 b5 a9 3e 44 6b fa 3e
       0.4350321 0.55160713 0.33146256 0.48909962
000010 be 2b 06 3f e8 90 9c 3e 97 aa a4 3e 19 09 08 3f
       0.52410495 0.30579305 0.321614 0.5313888
000020 18 b2 ea 3e e8 64 88 bc 72 d5 b3 3e 80 50 77 3e
       0.45839 -0.016649678 0.35123783 0.24151802
000030 6e 2c 06 3f f8 5a e7 bd 7d 18 a1 be 3f 11 91 bd
       0.52411544 -0.11296648 -0.31463996 -0.070833676
000040 a3 05 60 be e0 52 b4 bd 44 9a d5 3e 0e 6e de 3e
       -0.2187715 -0.0880487 0.41719258 0.4344334
000050 c8 6c 9f 3e 51 66 be 3d a5 b0 e6 be f8 68 0d 3f
       0.3113768 0.09296859 -0.45056644 0.55238295
000060 e0 41 58 3e 94 d8 85 be 30 bd 1f 3d 06 f9 f2 3e
       0.2111888 -0.26141798 0.038998783 0.47455615
000070 cc 7c c3 3e 80 bc 00 bd
       0.3818115 -0.031429768

hidden_layer1_u2.bias f4 [10]
000000 01 86 42 be af ee db be 2e 05 78 bd eb 1a e8 be
       -0.18996431 -0.4295554 -0.060551815 -0.45333037
000010 4a a6 43 be 27 3f 95 3e 89 82 e3 be 01 0c 9b bb
       -0.19106403 0.29149744 -0.44435528 -0.0047316556
000020 96 f0 06 3f c0 af 0b bf
       0.52710855 -0.5456505

hidden_layer1_u2N.weight f4 [10]
000000 11 a7 82 3f 2f 8f 7c 3f e2 5a 7a 3f 33 74 82 3f
       1.0207235 0.9865598 0.97794926 1.0191711
000010 d7 0c 81 3f 93 2c 83 3f 2e 81 78 3f df ce 82 3f
       1.0082043 1.0247978 0.9707211 1.0219382
000020 f4 c6 81 3f 36 4f 83 3f
       1.0138841 1.0258548

hidden_layer1_u2N.bias f4 [10]
000000 e7 f2 e1 3a 4e 7d ce bc 24 b2 83 bc 2d 2c c6 3c
       0.0017238528 -0.025206234 -0.016076155 0.024190987
000010 b6 45 b5 bb 48 e9 3a bc d4 4d c7 bc c3 3c 51 bc
       -0.005531992 -0.011408158 -0.024329104 -0.012770834
000020 da 05 64 3c 97 8f 8b 3c
       0.013917411 0.017036242

hidden_layer1_u2N.running_mean f4 [10]
000000 3f bc 22 3f dd 95 14 3f 09 d6 25 3f dd 3c f1 3e
       0.6356849 0.58041173 0.64779717 0.47116747
000010 95 5d fb 3e eb 96 02 3f 49 25 0c 3f aa 42 ce 3e
       0.49094835 0.5101153 0.5474439 0.40285236
000020 e6 b5 17 3f 2c 69 04 3f
       0.5926193 0.5172298

hidden_layer1_u2N.running_var f4 [10]
000000 4b bd c9 3b 88 c8 d3 3b d5 88 ac 3b d5 c9 27 3b
       0.0061565987 0.006463114 0.005265335 0.002560248
000010 a7 f6 dd 3a d3 3c 87 3a 38 ad 99 3b ff a9 80 3b
       0.001693447 0.001031781 0.0046898387 0.003926515
000020 57 80 cb 3a ea ed 87 3b
       0.0015525919 0.0041482346

hidden_layer2_u2.weight f4 [10, 10]
000000 27 fb 80 be b3 4d 63 be 62 10 da 3c 03 f0 88 be
       -0.25191614 -0.22197609 0.02661914 -0.26745614
000010 dd 75 2b 3e cc 46 9c 3e e8 3d 2d 3e 88 9b 46 be
       0.1674418 0.30522764 0.16918147 -0.19395268
000020 92 83 a3 be b8 11 22 be 6f 6b 43 3d 18 ba 53 be
       -0.31936318 -0.15827072 0.04770988 -0.20676458
000030 c6 05 85 3e a9 be 23 be 8a c7 84 be d9 fb 3a be
       0.25980967 -0.159907 -0.25933486 -0.18260135
000040 77 3c d9 bd f4 23 91 bc 7c 2d 2c bd f4 9d 90 3e
       -0.10607236 -0.01771734 -0.042035565 0.2824551
000050 29 91 86 be 0f bc 8d 3d 0b 90 5c 3e 10 22 d9 3c
       -0.26282623 0.06920635 0.21539323 0.0265055
000060 86 c2 6d be ac 46 36 3d 6a 10 63 bd 90 d5 05 3e
       -0.23218736 0.04450099 -0.055435576 0.13069749
000070 4d 2d 24 be e4 a9 83 be ce 4d 3d 3e 6a e4 4e 3e
       -0.16032906 -0.25715554 0.18486711 0.2020432
000080 8d 5b 1a 3e 0c fb 97 be 78 fe 8e 3e 85 a2 29 3e
       0.15073986 -0.2968372 0.2792852 0.16565903
000090 6d ae 66 3e 0f 89 3e 3d 30 da bf bc 86 53 04 bc
       0.22527476 0.046517428 -0.02341947 -0.008076554
0000a0 2c 43 7e bc b1 ad 90 bd 59 f6 8c be a1 3c 4e 3e
       -0.015518945 -0.07064379 -0.27531698 0.20140316
0000b0 68 0a 90 bd f2 ce 3d bd a5 c3 5d be ed 42 33 be
       -0.07033235 -0.046339937 -0.21656664 -0.17505999
0000c0 e7 44 e2 bd f0 8c 99 3d b0 aa 35 be 81 cf e8 bd
       -0.11048298 0.07497585 -0.17740893 -0.11367703
0000d0 36 6f 6c be 4e 31 e2 bd 96 39 97 bd 47 39 22 3e
       -0.23089299 -0.110445604 -0.073840305 0.15842162
0000e0 94 72 99 3d 0e 7e 82 be 6c ad 84 3e 2e 30 86 3e
       0.07492557 -0.25486797 0.2591356 0.26208633
0000f0 66 5e f4 bc 9f f8 46 3e ac a7 65 3d 5f 92 67 be
       -0.029830169 0.19430779 0.056068107 -0.2261443
000100 62 4f c7 bc c9 f1 5d be 58 c9 51 bd ce 5a 0d 3e
       -0.024329845 -0.21674265 -0.051217407 0.1380417
000110 05 9f 57 be 4f be 12 be c3 ed 04 be b9 9c 9f 3e
       -0.21056755 -0.1433041 -0.12981324 0.31174257
000120 22 d9 0b 3d 40 6f 51 3d 80 be 6a 3c 3f 79 81 3e
       0.03414262 0.051131487 0.014327645 0.25287816
000130 ab e3 d6 bd 93 96 08 be 81 57 4e 3e 12 f0 15 be
       -0.10492643 -0.1333869 0.20150568 -0.14642361
000140 83 7a 6c 3e 25 f6 50 bd ce d1 b9 3d 65 01 ac bd
       0.2309361 -0.05101599 0.0907322 -0.083987035
000150 69 03 1c 3e 68 9a 98 be bd 97 22 3d 36 80 50 be
       0.15235676 -0.29805303 0.03969549 -0.20361409
000160 c5 3c 8e be 6b a7 0c 3e 9d 19 25 3b 61 e3 84 be
       -0.27780738 0.1373574 0.0025192269 -0.25954726
000170 8d 32 17 3e 93 c2 6c be cb f5 77 3e 53 a3 96 be
       0.14765377 -0.23121099 0.24214856 -0.29421481
000180 a4 e2 7f 3e cc f5 7c be df 8a 61 be fb 81 39 be
       0.249888 -0.24703139 -0.22025631 -0.1811599

hidden_layer2_u2.bias f4 [10]
000000 18 c9 65 3e 8c 19 56 be 62 74 61 3c 54 f0 6e be
       0.22439992 -0.20908183 0.013760658 -0.23333865
000010 c7 07 96 be 49 e9 02 3e 25 40 c9 3d d4 49 89 be
       -0.2930281 0.12784304 0.09826688 -0.2681414
000020 00 1e 7c 3e 47 19 1f be
       0.24620819 -0.15536986

hidden_layer2_u2N.weight f4 [10]
000000 0b 61 7a 3f 33 e3 78 3f f3 9e 80 3f e4 9b 7b 3f
       0.97804326 0.9722168 1.0048507 0.98284745
000010 b3 9e 7c 3f e8 07 83 3f 9e eb 7b 3f ae 20 83 3f
       0.98679656 1.0236788 0.984064 1.0244348
000020 10 f9 81 3f fa 7e 82 3f
       1.0154133 1.0195

hidden_layer2_u2N.bias f4 [10]
000000 e5 4a 8a 3c cb 7e 8a bc 7e 2d 8b bc bd fb 84 bc
       0.016881416 -0.016906163 -0.016989466 -0.01623332
000010 99 fa 86 3c 08 4e 81 bc 5f 52 69 3c 0c 87 73 bc
       0.016476916 -0.015784279 0.01424083 -0.014863741
000020 cd 69 80 3c 19 10 5a 3c
       0.01567545 0.013309502

hidden_layer2_u2N.running_mean f4 [10]
000000 aa 38 0c 3f 04 89 e7 3e f8 1e 00 3f 6c 59 e1 3e
       0.5477396 0.45221722 0.50047255 0.44013536
000010 be f1 dd 3e 3f 88 08 3f 07 56 05 3f 02 e5 dd 3e
       0.43348497 0.53332895 0.5208439 0.43338782
000020 a7 b3 0c 3f 11 ee eb 3e
       0.5496163 0.46080068

hidden_layer2_u2N.running_var f4 [10]
000000 75 51 9e 3c 23 5a 41 3c a2 f4 51 3c 67 83 7c 3c
       0.019325951 0.011801275 0.012814673 0.015412188
000010 0a b8 af 3b 16 7f 29 3c 80 89 2c 3a e9 07 a6 3b
       0.0053625153 0.010345241 0.00065817684 0.005066861
000020 da fe 52 3d d2 5a 1e 3c
       0.051512577 0.009665208

output_layer_u2.weight f4 [1, 10]
000000 5d 85 8d 3e 7d e2 8c be 75 e5 9b be 7f 1f 1f be
       0.2764081 -0.27516547 -0.304485 -0.15539359
000010 42 3c 4a 3e 81 c1 fd bd 1b 51 25 3d 02 30 90 bd
       0.19749549 -0.123904236 0.04036055 -0.07040407
000020 07 cf e9 3d 35 4e c7 3c
       0.114164405 0.024329284

hidden_layer1_P.weight f4 [10, 3]
000000 b0 c5 76 3e 86 dd 84 3e 00 af 1f 3c 58 5d 93 bd
       0.2409885 0.2595026 0.009746313 -0.07195538
000010 ec cb 27 3e 3c 7c 2c be 60 81 e6 3e 74 16 0b 3f
       0.16386384 -0.16844267 0.4502058 0.54331136
000020 01 48 96 be 50 0f ff 3e fc 73 a3 3e f0 71 fe 3e
       -0.2935181 0.4981637 0.31924427 0.49696302
000030 d1 74 e6 be 0e 8d 01 bf 64 06 d9 be e6 18 d3 3e
       -0.45011 -0.5060586 -0.42387688 0.41229934
000040 8e b1 d9 be 3a c6 b9 be b0 0c d4 3e 28 eb e5 3e
       -0.42518276 -0.36284047 0.4141593 0.44905972
000050 8c 6f e9 3e 3c 22 fe be 64 dc 08 bf a4 cb be 3e
       0.45592916 -0.49635494 -0.5346129 0.3726474
000060 30 c7 e0 3d 6b 52 a7 be c0 7d dc 3c 98 c9 de 3e
       0.10975492 -0.32680067 0.026915431 0.4351318
000070 05 24 08 bf 34 4f b9 bd
       -0.5317996 -0.0904831

hidden_layer1_P.bias f4 [10]
000000 6c c3 b8 3e 18 c8 bb be b4 a0 01 bf b4 78 53 3e
       0.36086595 -0.36676097 -0.5063584 0.20651513
000010 04 fa 26 3e c0 ec db 3d ce 0d 05 3f 00 8d 5a 3b
       0.16306311 0.10738516 0.5197419 0.0033348203
000020 e4 95 31 be bc 07 91 be
       -0.17342335 -0.28326213

hidden_layer1_PN.weight f4 [10]
000000 00 00 80 3f 00 00 80 3f 00 00 80 3f 00 00 80 3f
       1.0 1.0 1.0 1.0
000010 00 00 80 3f 00 00 80 3f 00 00 80 3f 00 00 80 3f
       1.0 1.0 1.0 1.0
000020 00 00 80 3f 00 00 80 3f
       1.0 1.0

hidden_layer1_PN.bias f4 [10]
000000 00 00 00 00 00 00 00 00 00 00 00 00 00 00 00 00
       0.0 0.0 0.0 0.0
000010 00 00 00 00 00 00 00 00 00 00 00 00 00 00 00 00
       0.0 0.0 0.0 0.0
000020 00 00 00 00 00 00 00 00
       0.0 0.0

hidden_layer1_PN.running_mean f4 [10]
000000 77 ed 2c 3f 06 38 e1 3e e9 d4 0f 3f 1f 94 2e 3f
       0.6754984 0.43988055 0.5618425 0.68194765
000010 82 7a bb 3e 3c 45 f3 3e 2e 6b 42 3f fd f2 a3 3e
       0.36616904 0.4751376 0.75944793 0.32021323
000020 76 30 c9 3e 07 f7 b8 3e
       0.39294785 0.36125967

hidden_layer1_PN.running_var f4 [10]
000000 24 21 ad 3a da fe 16 3a 17 73 df 3b 76 97 28 3b
       0.0013208729 0.0005760022 0.0068191397 0.0025725043
000010 1c 84 b1 3b f2 83 95 3b 02 11 32 3b ce c3 b0 3b
       0.00541736 0.0045628482 0.0027170782 0.0053944355
000020 e9 ab 08 3b e8 1c bb 3b
       0.002085442 0.005710233

hidden_layer2_P.weight f4 [10, 10]
000000 00 36 55 3c 92 57 24 3e 9e 7e 44 be 14 ae 2e 3e
       0.013013363 0.1604903 -0.19188926 0.17058593
000010 3c 24 83 3d 2e 78 43 be a4 a0 9a bd a8 d1 02 3e
       0.064033955 -0.19088814 -0.07550171 0.1277529
000020 d8 0c 00 3e df ad 18 be 98 87 81 be 28 8b c7 3d
       0.125049 -0.14910077 -0.25298762 0.09743339
000030 80 ea 7b bd 38 75 50 3d 00 69 70 bb b8 a3 05 bd
       -0.061502934 0.05089304 -0.0036683679 -0.032626837
000040 aa fa 7d 3e ee 71 77 3e 18 ce 43 bd 5b c9 9a be
       0.24802652 0.24164554 -0.04780397 -0.30231747
000050 70 66 38 bd a6 69 5c be 30 2b ec 3d 0a 40 30 3e
       -0.045019567 -0.21524677 0.11531675 0.17211929
000060 05 05 4e be 40 92 e3 bc a2 10 94 be b8 60 3d 3d
       -0.20119102 -0.027779698 -0.2891894 0.046234816
000070 80 48 99 3b aa ac 53 be 4b ac 81 3e c2 bb 8c be
       0.004677832 -0.20671335 0.25326762 -0.27486998
000080 7a b9 95 be b1 81 81 3e f2 4b 8a be 0c cb 19 be
       -0.2924307 0.2529426 -0.27011067 -0.15018862
000090 e4 e7 aa 3d 44 88 60 be b2 88 61 be a5 72 98 3e
       0.08345011 -0.21926981 -0.22024801 0.29774967
0000a0 56 d3 90 bd 79 8a 87 be 34 bc a6 3d 44 cf 19 3e
       -0.07071559 -0.26472834 0.08141366 0.15020472
0000b0 58 2e 44 be 34 04 36 3e 68 d2 05 3e 31 ac 85 3e
       -0.19158304 0.17775041 0.13068545 0.26107934
0000c0 7f 3b 22 be 58 6c f4 bd 60 e8 d7 bc 80 c8 20 bc
       -0.15843008 -0.119347274 -0.026355922 -0.009813428
0000d0 68 be 7c 3d 33 0f 88 be 41 f8 9a 3e 24 b8 a0 be
       0.061705023 -0.26574096 0.30267528 -0.31390488
0000e0 06 fc 3f 3e df 9d 83 be 1e 6a 35 be 4a e9 66 3e
       0.18748483 -0.25706384 -0.17716262 0.2254993
0000f0 74 46 96 bd e8 81 3b bd 20 05 81 bd 4e 92 6e be
       -0.073376566 -0.045778185 -0.06299806 -0.23297998
000100 07 5e 8d 3e 38 9d 83 be d3 9c 96 3e a3 f2 29 be
       0.276108 -0.25705886 0.29416522 -0.16596465
000110 a2 0a 13 3e 8d 77 27 be 5b ea 19 be 08 9c 36 3d
       0.14359525 -0.16354199 -0.15030806 0.044582397
000120 70 47 ef 3c 20 e8 84 be 28 ef 5c be 88 82 1e 3e
       0.029208869 -0.25958347 -0.21575606 0.15479481
000130 e0 74 50 bc 0e 2b 5b be d6 f1 5b 3e e0 db 0f 3c
       -0.012723178 -0.21403143 0.21478972 0.00878045
000140 42 07 1d be 8a 4e 76 be e8 69 31 be c8 8f b0 3d
       -0.153348 -0.24053398 -0.17325556 0.08621174
000150 ae 40 10 3e b6 21 7b 3e 08 19 27 3e 19 11 8c 3e
       0.14087173 0.24524578 0.16318142 0.27356794
000160 fe d6 30 3e ec 31 1a be 78 eb 5f 3d 20 a8 86 bd
       0.17269513 -0.15058106 0.05466792 -0.06575036
000170 4b f5 0f be 7a 21 1d 3e 5d 95 84 be f6 5a 34 3e
       -0.14058416 0.15344802 -0.25895205 0.17612824
000180 e0 f6 3f 3c c8 12 cf 3d c2 8b 54 be 11 0f 9a be
       0.011716574 0.10111004 -0.20756438 -0.3008962

hidden_layer2_P.bias f4 [10]
000000 e2 8c 93 be 90 7a b7 3c 17 48 9e be 4a bf 60 3e
       -0.28818423 0.02239731 -0.30914375 0.21947971
000010 0c 15 2c be 02 a3 4f 3e 17 29 0c be 8c f7 88 be
       -0.16804904 0.20277026 -0.1368755 -0.26751363
000020 51 a2 18 be 16 38 fe bd
       -0.14905669 -0.12413041

hidden_layer2_PN.weight f4 [10]
000000 00 00 80 3f 00 00 80 3f 00 00 80 3f 00 00 80 3f
       1.0 1.0 1.0 1.0
000010 00 00 80 3f 00 00 80 3f 00 00 80 3f 00 00 80 3f
       1.0 1.0 1.0 1.0
000020 00 00 80 3f 00 00 80 3f
       1.0 1.0

hidden_layer2_PN.bias f4 [10]
000000 00 00 00 00 00 00 00 00 00 00 00 00 00 00 00 00
       0.0 0.0 0.0 0.0
000010 00 00 00 00 00 00 00 00 00 00 00 00 00 00 00 00
       0.0 0.0 0.0 0.0
000020 00 00 00 00 00 00 00 00
       0.0 0.0

hidden_layer2_PN.running_mean f4 [10]
000000 32 df db 3e 73 6b 01 3f 8e d1 d8 3e 31 15 0d 3f
       0.42943722 0.5055458 0.42347378 0.5511046
000010 ae b8 ea 3e ff ba 0c 3f a4 cd ee 3e fc 80 de 3e
       0.45844024 0.54972833 0.46641266 0.43457782
000020 4c 33 f0 3e 44 08 f1 3e
       0.46914136 0.4707662

hidden_layer2_PN.running_var f4 [10]
000000 0b 59 58 3b a7 b5 d5 3b 17 12 ff 39 bb d8 c1 3c
       0.0033012058 0.006521899 0.00048650868 0.023662915
000010 b4 b2 04 3b cf b3 75 3b 0e e2 87 3b 07 5f 7e 3b
       0.0020248117 0.0037491207 0.004146821 0.0038813965
000020 86 e0 33 3d e7 93 4b 3c
       0.043915294 0.012425399

output_layer_P.weight f4 [1, 10]
000000 10 2f 1b 3e a4 7b 87 be 08 4d fa 3d 90 78 1f 3d
       0.15154672 -0.26461518 0.12221724 0.038933337
000010 f3 e0 8c 3e 60 f5 20 3d 38 84 28 bd 54 ba 46 be
       0.27515373 0.039296508 -0.04114172 -0.19407016
000020 80 69 ba 3d 16 79 3c 3e
       0.09102154 0.18405566

hidden_layer1_rho.weight f4 [10, 3]
000000 e1 d8 de 3c c8 e5 5c bf c7 5e cc be 89 0c df 3d
       0.027203025 -0.8628812 -0.3991606 0.10891063
000010 2a 1f 59 3f 00 2a f9 3b 89 20 e1 3e ec a6 35 3e
       0.8481318 0.0076038837 0.43970135 0.17739457
000020 3c 82 ec be a6 0d e8 3e 05 7e 0c bb ac e4 a3 3e
       -0.4619311 0.45322913 -0.0021437418 0.320104
000030 72 20 0f 3f 86 cb 4c bf 18 9e 70 be 2c aa 87 3e
       0.5590888 -0.7999805 -0.23497808 0.26497018
000040 51 26 cc be 0c b8 28 3e 98 82 ff bd b2 65 1c 3f
       -0.39872983 0.16476458 -0.12476081 0.61092675
000050 3e 02 04 bf d6 b6 49 be 45 69 1b 40 20 ef 47 bd
       -0.5156592 -0.19698653 2.4283001 -0.04881203
000060 52 6b 27 3f 1e 31 00 3f 27 89 07 bf 40 c8 c1 3e
       0.6539813 0.50074947 -0.5294365 0.3784809
000070 00 10 95 3d 20 7c 2a 3d
       0.072784424 0.04162228

hidden_layer1_rho.bias f4 [10]
000000 49 43 bd bf 07 cc ca 3f 6a 5c 59 bf ca 1b 99 3f
       -1.4786159 1.5843514 -0.8490664 1.1961606
000010 44 1f c1 3e 04 b4 b5 bf e9 6f d6 3f 99 44 76 bf
       0.37719166 -1.4195561 1.6752902 -0.9619842
000020 57 a5 93 bf ae 9e 67 bf
       -1.1534833 -0.904765

hidden_layer1_rhoN.weight f4 [10]
000000 83 2c 8a 3f ae cb 89 3f 58 66 9d 3f 15 d8 a8 3f
       1.0794834 1.0765283 1.2296858 1.3190943
000010 76 5f 88 3f 5a f3 8b 3f 40 2f a2 3f fb 8d 8f 3f
       1.0654132 1.093364 1.267067 1.1215204
000020 da 76 90 3f c9 65 12 40
       1.1286271 2.2874625

hidden_layer1_rhoN.bias f4 [10]
000000 a5 b0 84 3e 3c 1f 48 3f b8 32 03 3e 56 40 60 bf
       0.2591602 0.7817266 0.12812316 -0.8759817
000010 01 77 01 bf 36 4b 85 3d 1d 83 82 bf d7 3d c3 3f
       -0.5057221 0.06508486 -1.0196263 1.5253247
000020 e9 03 c2 3f 3b 37 fd be
       1.5157443 -0.494562

hidden_layer1_rhoN.running_mean f4 [10]
000000 c3 b4 c9 3d ab 31 6a 3f a1 7a c7 3e 12 1b 4e 3f
       0.09848931 0.9148204 0.38960746 0.80510056
000010 fd ea f0 3e 94 fd 23 3e 55 98 65 3f 5a 9b 37 3f
       0.47054282 0.16014701 0.89685565 0.7172142
000020 77 54 d7 3e e8 d9 b0 3e
       0.4205663 0.3454125

hidden_layer1_rhoN.running_var f4 [10]
000000 2c 39 f3 3a 48 0c b7 3a 68 b3 c4 3a 8b cb dd 39
       0.0018556467 0.0013965452 0.001500708 0.00042304056
000010 d1 01 64 3c 9c a7 8a 3a 7a a5 89 3a 6c 0c 58 3d
       0.013916449 0.0010578516 0.0010501586 0.05274622
000020 b3 0a e0 3b fa fe 37 3a
       0.006837213 0.00070188905

hidden_layer2_rho.weight f4 [10, 10]
000000 fd 78 c5 3f 88 9c 16 c0 82 45 f8 bf 50 1d 89 bf
       1.5427548 -2.353304 -1.9396212 -1.071207
000010 fc a3 a7 3f d9 4a 84 3f 48 ba 73 bf bc 98 1c c0
       1.3096919 1.0335342 -0.9520612 -2.4468222
000020 f5 fd 04 c0 2b 5e 0a c0 a1 7c 5d be dd 89 b0 3d
       -2.0780003 -2.1619976 -0.21629573 0.08620045
000030 1a 67 10 bd 9a c3 19 3e ef 9f 5d 3e cb 06 9a be
       -0.035254575 0.15016022 0.21643041 -0.30083308
000040 fb 38 eb 3d 0d 33 6d be fb ff 66 be ec 3e 9d bb
       0.114854775 -0.23164006 -0.22558586 -0.0047987606
000050 32 d7 ab 3e ff 0b a6 bf 56 a2 0f 3e 88 f5 ba 3f
       0.33562618 -1.2972411 0.1402677 1.460618
000060 52 ac 68 3f 7a 6d 3e 3f 91 0a a5 be 6f b0 9b c0
       0.9088794 0.743858 -0.32234624 -4.8652873
000070 18 1c 9c bf 20 99 43 3f 86 17 5b be d5 8c 3f 3e
       -1.2196074 0.76405525 -0.21395692 0.18706067
000080 2f 0a 0b be 68 79 3e 3e a9 92 18 bd d5 34 0b be
       -0.13578103 0.18601 -0.03724924 -0.13594373
000090 5a 2f 6e 3d ca b5 6a be 12 ab b7 be d4 6d 1e 3e
       0.058150627 -0.2292091 -0.35872704 0.15471584
0000a0 cf 33 b9 be db 39 84 bf d0 64 b8 bf 18 3a 9b bf
       -0.3617234 -1.0330156 -1.4405766 -1.2127104
0000b0 8e 4c a9 3d 6f 3f 41 bf 76 35 41 3f cd 8b a4 bf
       0.08266555 -0.75487417 0.754722 -1.2855164
0000c0 6b bf 01 c0 6d 2a 66 bf 44 a7 fd 3f 4b 46 e7 bf
       -2.0273082 -0.89908487 1.981667 -1.8068327
0000d0 ca 4f 06 3f 4a 34 9c 3f 92 f0 22 40 3d ee 23 40
       0.524655 1.2203457 2.5459332 2.561416
0000e0 86 4d 27 c0 13 4a f6 bf 38 2d 5c bf ba 16 18 3f
       -2.6141067 -1.9241356 -0.860065 0.5940968
0000f0 14 fc 16 be 9b 5a 43 3e 63 3b 88 be d4 51 9a 3e
       -0.14744598 0.19077532 -0.26607808 0.30140555
000100 b8 ec a6 3d 25 d4 03 be 3e bd 4f 3d 2d a5 9d be
       0.08150619 -0.12873895 0.050717585 -0.30790082
000110 03 26 53 be d0 45 48 bc e5 a5 b9 bd aa b2 7c 3e
       -0.20619969 -0.012223676 -0.09064845 0.2467753
000120 1d 9c bb bf b1 4e 68 c0 2a a0 2d be fd 41 0c bf
       -1.4657017 -3.629803 -0.16955629 -0.5478819
000130 97 27 92 be 3b 6a 8c 3f 1f c3 d0 be 9e e8 29 c0
       -0.2854583 1.0969919 -0.40773866 -2.6548228
000140 61 29 40 40 b0 23 4f c0 92 05 15 c0 3e f6 6a bf
       3.0025256 -3.2365532 -2.328465 -0.91781986
000150 cf 8e 52 40 01 d8 17 40 4c e0 12 c0 c5 7f 1b c0
       3.2899663 2.3725588 -2.29494 -2.4296734
000160 55 3d fc bf 40 4f 02 c0 29 98 bd bd 97 b4 8f 3e
       -1.9706217 -2.036087 -0.09257538 0.28067467
000170 b3 5a 68 be 6a fb ba 3e 72 77 64 3e 78 3c 95 bd
       -0.22690849 0.3651994 0.2231119 -0.07286924
000180 cd 95 68 3e 98 1a 97 be a7 e1 25 bd 66 4b 36 bd
       0.22713394 -0.29512477 -0.040498402 -0.0445055

hidden_layer2_rho.bias f4 [10]
000000 68 dc 56 bf ab 45 62 3f 19 89 06 c0 c5 a0 84 3f
       -0.83930063 0.88387555 -2.1021178 1.0361563
000010 8d 80 b0 bf a0 c1 97 3f 29 74 23 3f 85 56 fe 3e
       -1.378923 1.1855965 0.6384912 0.49675384
000020 08 47 45 bf 69 d5 0e 3f
       -0.7706151 0.5579439

hidden_layer2_rhoN.weight f4 [10]
000000 eb 4e 73 40 7e 1a b0 40 fa cc 96 40 92 14 64 40
       3.8016918 5.503234 4.7125216 3.5637555
000010 49 d6 7a 40 0b 16 7c 40 60 10 96 40 ac 7c 81 40
       3.919329 3.9388454 4.689499 4.0464687
000020 9f e2 77 40 a1 f8 84 40
       3.8732069 4.15535

hidden_layer2_rhoN.bias f4 [10]
000000 9c c0 de bf ef 57 f1 bf 01 cf b9 3f 25 ae a6 bf
       -1.740253 -1.885496 1.4516298 -1.3021895
000010 09 9b b6 3f 17 9b c3 bf 92 2c c2 bf 3c d8 a5 bf
       1.4266063 -1.5281705 -1.5169852 -1.2956614
000020 47 e9 d2 bf ad 4b ca bf
       -1.647744 -1.5804344

hidden_layer2_rhoN.running_mean f4 [10]
000000 36 31 b3 3e 66 19 e9 3e a1 48 f5 3d 5a d6 f6 3e
       0.34998482 0.4552719 0.119767435 0.48210412
000010 d9 a2 53 3e 64 5e ce 3e 5f 42 cb 3e fc 35 26 3f
       0.2066759 0.4030639 0.39699075 0.64926124
000020 d8 e8 c4 3e 50 d0 c9 3e
       0.38458896 0.39416742

hidden_layer2_rhoN.running_var f4 [10]
000000 b7 7f 57 3e 07 79 a5 39 30 6e ab 3d 3f a5 2e 3b
       0.21044813 0.00031561425 0.08370626 0.0026648787
000010 d4 ff 05 3e df 73 65 3e e0 42 8f 3b 75 ae 51 3e
       0.13085872 0.22407483 0.004371986 0.20476706
000020 da a0 66 3e a4 77 1b 3b
       0.22522298 0.0023722434

output_layer_rho.weight f4 [1, 10]
000000 cb ba 2b 40 81 c6 1e 40 3b 11 48 c0 9f ce f8 3f
       2.683276 2.4808657 -3.1260517 1.9438056
000010 3e 80 35 c0 f7 c2 34 40 47 82 14 40 fa 17 69 40
       -2.8359523 2.8243997 2.3204515 3.6420884
000020 3e a9 32 40 7f 72 fa 3f
       2.7915797 1.9566191
