Shock_interface_Bubble_PINN_ver1/NNlayers_Bubble_3.pt (torch, 28938 bytes, 52 tensors)

hidden_layer1_u1.weight f4 [10, 3]
00000000: 0574 f3be 57c7 09bf 300d 2fbe 9a06 e63e
00000010: 164e 20be 5efb cc3e 6982 fa3c fedc ecbd
00000020: 8063 e13c 24ad 3e3e ff22 153f d663 efbe
00000030: 7817 98be 72c0 c6bb 0605 063f 9cf5 fb3e
00000040: 2fa2 953e 8a16 b83e 20c0 b53e fe44 b1be
00000050: 3faa e3be 168c 8ebe e9d1 08bf b681 0cbf
00000060: 3beb 023f 1ffc c73e 6e6a 61be d79a 343e
00000070: 3178 aabe 4840 debe
-0.47549453 -0.53819793 -0.17094874 0.44926912 -0.15654787 0.40035528 0.030579763 -0.115655884
0.027513266 0.18620735 0.58256525 -0.46755856 -0.29705405 -0.0060654217 0.52351415 0.49210823
0.292253 0.35954696 0.35498142 -0.3462295 -0.44465825 -0.27841252 -0.534453 -0.54885423
0.51140183 0.3905954 -0.22013256 0.17637192 -0.33294824 -0.43408418

hidden_layer1_u1.bias f4 [10]
00000000: e4fe 18bf 8c8a b6be 40c1 eb3e c86e bf3d
00000010: ae0e fe3e 2a2a 773e f99e d0be d7f2 af3e
00000020: 842c 9ebe ade9 00bf
-0.5976393 -0.35652578 0.46045876 0.09347302 0.49620575 0.24137178 -0.40746287 0.3436496
-0.30893338 -0.5035656

hidden_layer1_u1N.weight f4 [10]
00000000: 962a 843f d9af 843f 36c2 763f e83d 843f
00000010: 8b2c 743f d191 7e3f b6ff 753f 69cc 813f
00000020: 7d28 843f f911 843f
1.0325496 1.0366164 0.9639009 1.0331392 0.9538047 0.9944125 0.9609331 1.0140506
1.0324856 1.0317985

hidden_layer1_u1N.bias f4 [10]
00000000: 7941 433d cfc0 25bc 5bc8 1d3d 6c86 5e3d
00000010: 98b0 ddbd 48c2 943d ec8e a03c 0247 dd3d
00000020: 4b41 4cbb d068 633b
0.04766986 -0.01011677 0.038521152 0.054327413 -0.10824698 0.07263619 0.0195994 0.10804559
-0.0031166847 0.0034699924

hidden_layer1_u1N.running_mean f4 [10]
00000000: d3e9 513e 5e52 dd3e 7ab0 163f 4d11 2d3f
00000010: 4e56 173f 382a 303f ad70 b53e 10a6 d23e
00000020: 5caa 143f 8b00 a23e
0.20499353 0.43226904 0.5886303 0.67604524 0.59116066 0.6881442 0.35437527 0.4114232
0.5807245 0.3164104

hidden_layer1_u1N.running_var f4 [10]
00000000: 9dc3 313b 17ad c23a facb 8339 36fe a13b
00000010: 95ad dc39 78c8 013b e76e 273b 7b12 ad3b
00000020: fc0f 753b 5e7e e73a
0.0027124651 0.001485261 0.00025138241 0.0049436344 0.00042091 0.0019803327 0.002554828 0.005281744
0.003739356 0.0017661562

hidden_layer2_u1.weight f4 [10, 10]
00000000: 8381 97be 1bb1 94be fbea 453e da5e 63be
00000010: 663b 3bbe 74a7 963e b2fb 563e b760 9ebe
00000020: 623f 1dbe f50b 8b3c ec05 e1bd 23bf 283a
00000030: 8639 8a3e c05e 6ebd 6748 7e3e d45e 96be
00000040: 09d3 0b3e 64f1 65be 9f63 433e f5ce 7dbe
00000050: bffa efbd d26a 253e bd80 95be 5b7f 14be
00000060: 5cbc 8bbe 29b8 98be 4e94 4ebd 98d4 093e
00000070: 8395 8d3d 4651 9d3e f846 1a3d 226d b73e
00000080: 99e3 5abe ecf5 26be 5aa2 823e 3997 23be
00000090: cdc2 08be 494b 073e ab7a 32bd 153c 40bc
000000a0: 5361 bcbe 3c20 423e 6cab 1dbe 8980 a1bd
000000b0: 5e92 8f3d a0d2 2e3e 9810 2ebe 274e e83d
000000c0: 5fc9 b43e 2546 5f3d 3cc0 833e 7d60 253e
000000d0: 008d 22be 353d 65bd 1107 4a3e 8370 bebd
000000e0: de12 21bc 8de9 0f3e ea44 923e 4f25 603e
000000f0: 5305 843e d32d 82be d74c fa3d 9dfc 40be
00000100: 7b73 22be f505 40be b14f 3a3e 615e 193d
00000110: eb61 993e 7ab3 6ebd 7784 0dbe d473 99bd
00000120: b942 66be 1536 f5bd 07f3 723e cd63 66bd
00000130: 9cbb 4fbe aa84 02be 5a86 02bd 88da 68be
00000140: 890d 95bd b724 903e acea 6b3e ba23 9b3e
00000150: 8b49 29bd ceb0 bcbc 2df6 b8bd 5293 563e
00000160: b406 b4bb 5786 283e acb6 073e bba4 073e
00000170: 0675 41bd 96dd acbc cee3 8ebd 5cad 7d3e
00000180: aa82 b0bd 3fd5 20bd cf3d 9abe acf2 a83e
-0.29590997 -0.2904137 0.19327919 -0.22204152 -0.18284377 0.29424632 0.20994452 -0.30933163
-0.1535621 0.016973475 -0.10987458 0.0006437173 0.26997012 -0.05819583 0.24832307 -0.29369223
0.13654722 -0.22455364 0.19080971 -0.24785979 -0.11717748 0.1615403 -0.29199782 -0.14501707
-0.27292144 -0.29828003 -0.050434403 0.13460004 0.06913283 0.3072607 0.037665337 0.3582545
-0.21375884 -0.16304749 0.2551449 -0.15975656 -0.1335556 0.13212313 -0.043574017 -0.011733075
-0.36793002 0.18957609 -0.15397424 -0.07885844 0.07010339 0.17072535 -0.16998518 0.113430314
0.35309884 0.054510254 0.257326 0.16150089 -0.158741 -0.055966575 0.19729258 -0.09298804
-0.009831158 0.14053936 0.28568202 0.21889232 0.25785312 -0.25425586 0.12221687 -0.18846364
-0.15864365 -0.18752272 0.18194462 0.037443522 0.29957518 -0.05827663 -0.13820063 -0.074927956
-0.2248639 -0.11973206 0.2372552 -0.05624752 -0.20286411 -0.1274592 -0.03186641 -0.22739613
-0.07277972 0.2815301 0.23038739 0.30300695 -0.0413299 -0.023033526 -0.09031329 0.20954636
-0.005493963 0.16457497 0.13253278 0.13246433 -0.047230743 -0.021101754 -0.06977044 0.24773163
-0.08618672 -0.039265867 -0.3012528 0.32997644

hidden_layer2_u1.bias f4 [10]
00000000: 477b cc3d bddb 9d3d d90e 443e 84eb bb3d
00000010: 1ce2 0c3e 318e dc3d 4f8d f3bd d8a8 813d
00000020: 0567 12be f041 62be
0.09984451 0.077079274 0.19146289 0.091757804 0.13758129 0.10769308 -0.11892187 0.063310325
-0.14297111 -0.22095466

hidden_layer2_u1N.weight f4 [10]
00000000: 9638 713f 2ee8 833f 7989 773f 7bc5 743f
00000010: 9878 803f 1474 793f a78f 7b3f 3b93 833f
00000020: 04b1 833f f8a1 773f
0.9422697 1.0305231 0.9669414 0.9561383 1.0036802 0.97442746 0.9826607 1.0279306
1.0288396 0.9673152

hidden_layer2_u1N.bias f4 [10]
00000000: b77b c03b 2f2d da3b daae ec3b 4a37 d1bb
00000010: 22cf afbb 66d0 ccbb 3586 a3bb 33e1 e03b
00000020: 8fc0 dabb e126 f13b
0.005874123 0.0066582183 0.0072229924 -0.006384765 -0.0053652683 -0.006250429 -0.004990364 0.0068627833
-0.006675787 0.007359371

hidden_layer2_u1N.running_mean f4 [10]
00000000: 6102 063f 0a80 003f 2c47 0b3f c1ae 023f
00000010: 6a3d 073f b8cb 053f ca91 f33e 2e8d ff3e
00000020: 1adc f33e 1125 e83e
0.5234738 0.5019537 0.54405475 0.51047903 0.52828085 0.52263975 0.47572166 0.499124
0.47628862 0.4534078

hidden_layer2_u1N.running_var f4 [10]
00000000: b6dd 2e3c e100 303b d788 5a3c 81c9 543c
00000010: cbdd 083d 0823 2a3c cef7 273c 9426 103d
00000020: e3c2 4c3c 7269 5e3c
0.010672977 0.0026855993 0.013338289 0.012987495 0.033414643 0.010384329 0.010251952 0.03519304
0.0124976365 0.013574945

output_layer_u1.weight f4 [1, 10]
00000000: 5c1c 6dbb 01bc d5bd 10ef 77be fe17 c33d
00000010: 1146 553d bd3e c33d d2c1 4e3d b300 cabd
00000020: 99a2 b43d 85ff 87be
-0.0036180234 -0.104362495 -0.24212289 0.095260605 0.052068774 0.09533451 0.05047781 -0.098634146
0.088200755 -0.26562133

hidden_layer1_u2.weight f4 [10, 3]
00000000: bd51 e6be 9994 bbbe c49d 9c3e 7f99 3f3d
00000010: 5413 723e 60f2 cbbc 493b eabe 8cf2 713e
00000020: 1f26 a0be 75e8 13bf 0d69 033f 300b e5bd
00000030: 1fca b0be cb4a 083f 34d3 e23e 0e76 0f3f
00000040: af4e f43e 040e 0bbf 4945 f83d fce1 acbd
00000050: f86b ad3d b4f6 b83e ffd6 abbe ee35 02be
00000060: c5a1 1bbe 2336 223e e043 e13e a75c 12bf
00000070: e981 093f 9da6 f3be
-0.44984236 -0.3663681 0.30589116 0.046777245 0.23640186 -0.024895847 -0.45748356 0.2362768
-0.31279084 -0.57776576 0.5133217 -0.111837745 -0.34529206 0.53239125 0.4430176 0.5603951
0.4771628 -0.5431826 0.1212259 -0.084415406 0.08467859 0.3612572 -0.33562467 -0.12715885
-0.15198429 0.15840964 0.43997097 -0.57172626 0.5371385 -0.47588053

hidden_layer1_u2.bias f4 [10]
00000000: 2c6b 49be 0671 a7be e71d 8ebe 53ae ce3e
00000010: cfd5 ffbe 73f5 5d3e 8499 d4be a5ff 6ebe
00000020: b428 58be 99a6 a43e
-0.19669789 -0.32703418 -0.2775719 0.40367374 -0.4996781 0.21675663 -0.41523373 -0.23339708
-0.21109277 0.32158354

hidden_layer1_u2N.weight f4 [10]
00000000: 95d0 833f fdf6 7b3f a730 7b3f aee4 813f
00000010: 66e7 7d3f 8a78 763f d275 833f adce 813f
00000020: 3537 833f ad59 783f
1.0298029 0.9842375 0.9812111 1.0147913 0.9918121 0.9627768 1.0270331 1.0141197
1.0251223 0.97011834

hidden_layer1_u2N.bias f4 [10]
00000000: 0bc8 98bc a931 35bb 7705 89bc 9d50 013d
00000010: 7345 97bd b014 8a3d ba82 9cbd f314 38bd
00000020: cca5 883d bf76 013d
-0.018650075 -0.0027648008 -0.016726239 0.03157102 -0.07386293 0.06742227 -0.076421216 -0.044941854
0.06672248 0.031607386

hidden_layer1_u2N.running_mean f4 [10]
00000000: d575 a23e 36e7 f73e 400a dd3e b652 263f
00000010: 8214 f33e 9d9d 373f cef1 c83e 309b cd3e
00000020: 6df7 f23e d515 223f
0.31730524 0.48418587 0.43171883 0.64969957 0.47476584 0.71724874 0.39246982 0.4015746
0.47454396 0.63314563

hidden_layer1_u2N.running_var f4 [10]
00000000: d695 263b ee00 8d3a 7452 0b3b f78c b83b
00000010: a0cc c63b d199 703b ffe8 5339 c695 303b
00000020: c1d5 263a 3bfb cb3b
0.00254189 0.0010757723 0.0021258863 0.0056320387 0.0060668737 0.0036712775 0.00020209326 0.002694474
0.0006364249 0.0062250174

hidden_layer2_u2.weight f4 [10, 10]
00000000: 5a95 e43d 9449 923d 79af 503d 3a31 6d3e
00000010: 30b0 e03d 0816 913e c5e3 68be 026f 6abe
00000020: 0248 453e 9cb2 58be 144d 2dbe 9510 12be
00000030: a487 023e 99b6 36be b8b4 983e b5c1 e23c
00000040: ddc0 733e ea2e 8c3e 8b61 4e3e baab 1fbe
00000050: 40a2 88be 2d30 383e 62d6 823e 831d 9bbe
00000060: 165d 74be 96b5 2d3e 1dd7 84be dad4 843e
00000070: 97ad 373d da5e f43d 60ca c9bd eef6 6c3e
00000080: 101b edbc f42e 0fbe ac76 5cbe 0a5f 81be
00000090: bb23 983e 95cb 263e 5c4b 613e cadf 123e
000000a0: 8ae5 1cbc c6f3 34bd 743a 34be 0c8e 393e
000000b0: 26e4 26bd f778 913e 2345 76be 1e95 9cbe
000000c0: 4936 6e3e 2449 70be d53c 72be b7f8 20be
000000d0: b15a 8fbe 805a 7a3e 680b 8dbe 7666 903e
000000e0: 2812 60be 8170 05bb a2d9 303e d9dd 1a3e
000000f0: a020 a0bd c4c9 b93d 4cfb 48be b406 16be
00000100: c75d 2e3e c936 8dbd 6a23 843e ed39 4f3e
00000110: 4ed3 773c eab1 a3bd 9677 98bd 10db 753e
00000120: 7abf 88be 1fea 3abe 4cab 0bbe 1c47 9abe
00000130: 8967 11be b6ad 6c3e 5c43 293c 073d 41be
00000140: d967 cd3d 43af c83d 278c 53be c8f6 853e
00000150: 02c9 3cbe 8819 803e 75d0 dc3d bc7f 993e
00000160: b575 c5bd 76bc 283e b6e4 3cbe ae26 f7bd
00000170: e349 973e 0661 0f3e cd0d 84bd d5ee 3c3e
00000180: 9542 29be 9d0a 0ebe 90f0 9b3e 8727 86bd
0.11161299 0.0714294 0.050948594 0.2316331 0.10971105 0.2833712 -0.22743137 -0.22893909
0.1926575 -0.21161884 -0.16923934 -0.14264138 0.12747055 -0.17843093 0.29825377 0.027680257
0.2380404 0.27379543 0.20154397 -0.15592852 -0.26686287 0.17987128 0.25554186 -0.30295953
-0.23863634 0.16963801 -0.25945368 0.25943643 0.044843283 0.11932154 -0.09853053 0.23141071
-0.028943568 -0.13982755 -0.21529645 -0.25267822 0.2971476 0.16288598 0.22001404 0.14343181
-0.009576211 -0.044177793 -0.17600423 0.18120593 -0.040744923 0.284126 -0.24049811 -0.30582517
0.23262896 -0.23465401 -0.23656018 -0.15719877 -0.2799888 0.24448586 -0.27547765 0.28203171
-0.21881926 -0.0020361247 0.1727052 0.1512369 -0.07818723 0.09071687 -0.19627112 -0.14650995
0.1702796 -0.06895215 0.2580827 0.2023694 0.015126063 -0.07992919 -0.07444684 0.24009347
-0.26708585 -0.18253373 -0.13639563 -0.30132377 -0.14199652 0.2311314 0.010331001 -0.18870936
0.10029573 0.097990535 -0.20658933 0.26164842 -0.18436053 0.2501948 0.107819475 0.29980266
-0.096415915 0.16478142 -0.18446621 -0.120679244 0.2954856 0.14001855 -0.06447945 0.18450482
-0.16529305 -0.13871236 0.30456972 -0.06550508

hidden_layer2_u2.bias f4 [10]
00000000: 0842 8e3e 536d 783e 2d57 883e 4ed7 143d
00000010: b68b 65be 708c 8b3e 1b76 84be be62 943d
00000020: 451b e7bd 024e 983d
0.27784753 0.24260454 0.2662901 0.036338143 -0.22416577 0.27255583 -0.25871357 0.07245396
-0.11284498 0.07436754

hidden_layer2_u2N.weight f4 [10]
00000000: 4b3f 7a3f 5a2c 7b3f 09cb 763f b62f 7b3f
00000010: 86b3 813f 1a63 813f a712 823f 2b02 7a3f
00000020: dd19 803f e374 823f
0.9775283 0.9811455 0.9640356 0.98119676 1.0132911 1.0108368 1.0161942 0.9765956
1.0007893 1.0191921

hidden_layer2_u2N.bias f4 [10]
00000000: cd1a 133c c42f 14bc e380 133c 81e5 13bc
00000010: 0510 10bc cd8c 12bc ea4f 0f3c 197b 12bc
00000020: 18e2 113c b4f6 12bc
0.008978558 -0.009044591 0.009002897 -0.009026886 -0.008792882 -0.008944702 0.00874708 -0.008940482
0.008904003 -0.008969951

hidden_layer2_u2N.running_mean f4 [10]
00000000: 1b06 113f 2e39 0c3f e258 123f dc56 013f
00000010: e283 ee3e 46b1 153f b255 dc3e 1522 033f
00000020: 1032 f43e a5cb 063f
0.5664994 0.5477475 0.57166874 0.5052316 0.46584994 0.5847362 0.4303413 0.5122388
0.47694445 0.52654487

hidden_layer2_u2N.running_var f4 [10]
00000000: dfcf 333d 708d a63b 4d7d 333c 9b08 0a3c
00000010: 5780 c83c ccc6 733c 893a b13c cff3 f43c
00000020: 7c68 0b3c ae16 3e3d
0.043899413 0.0050827786 0.010955167 0.008424903 0.02447526 0.01487894 0.021634357 0.029901413
0.008508798 0.046408348

output_layer_u2.weight f4 [1, 10]
00000000: e070 6abe dc5c 293e 32af 30be d966 503e
00000010: dfa9 ad3d 6be2 8d3e 8e63 94bd 33b9 9c3d
00000020: 35ec ddbd e5f1 183e
-0.22894621 0.1653933 -0.17254332 0.20351733 0.08479666 0.27711806 -0.07245551 0.076525114
-0.108360685 0.14936025

hidden_layer1_P.weight f4 [10, 3]
00000000: 6693 a8be f6a2 833e 7471 173e a0ee d93c
00000010: 4278 87be b6e3 9abe 4038 fabd 7874 c0bd
00000020: e836 fe3e 96a0 b73e 86e5 ccbe 967a 0c3f
00000030: 40c5 1abd 4c0e 523e 6604 0fbe 8ed1 41be
00000040: c803 bc3e 98b2 b83e 4269 35be 16e5 033f
00000050: 88ea e93d 70a6 743d a442 74be 3045 c03d
00000060: b470 2f3e 8c91 f3be aad7 9ebe ec77 0c3f
00000070: 5cd5 303e 76ea 52be
-0.32924956 0.25710267 0.14789373 0.026603043 -0.26458937 -0.30251855 -0.1221776 -0.09397215
0.49651265 0.35864705 -0.40018862 0.5487455 -0.03778577 0.20513266 -0.13966522 -0.18927595
0.36721635 0.36073756 -0.17715934 0.5152143 0.114216864 0.05972904 -0.23853546 0.093881965
0.17132837 -0.4757198 -0.31023914 0.54870486 0.1726889 -0.20597252

hidden_layer1_P.bias f4 [10]
00000000: 0008 163c 58a2 053e 08da 8f3e 98a4 cb3d
00000010: d82b 87bd 9600 ca3e 75b1 f5be caf7 9c3e
00000020: 4c27 8cbe f003 5f3d
0.009157181 0.1305021 0.28096032 0.09943503 -0.066001594 0.39453572 -0.4798695 0.30657798
-0.2737373 0.054447114

hidden_layer1_PN.weight f4 [10]
00000000: 0000 803f 0000 803f 0000 803f 0000 803f
00000010: 0000 803f 0000 803f 0000 803f 0000 803f
00000020: 0000 803f 0000 803f
1.0 1.0 1.0 1.0 1.0 1.0 1.0 1.0
1.0 1.0

hidden_layer1_PN.bias f4 [10]
00000000: 7c28 02ad f536 8e2f fef1 bbae b047 1eaf
00000010: b463 852e bae0 8c2e 6c61 2a2e ac0a 7a2f
00000020: c960 1caf ffe9 842f
-7.398634e-12 2.58687e-10 -8.546762e-11 -1.4395485e-10 6.0658506e-11 6.4063824e-11 3.8740053e-11 2.2741159e-10
-1.4222502e-10 2.4176924e-10

hidden_layer1_PN.running_mean f4 [10]
00000000: 2865 073f 2efb ed3e b889 093f 44d3 f23e
00000010: 0883 073f 063c 2a3f a89c fb3e f82b 063f
00000020: 9c88 ac3e 5f92 1e3f
0.5288873 0.46480697 0.5372577 0.47426808 0.5293431 0.6649784 0.49142957 0.5241084
0.33697975 0.61942095

hidden_layer1_PN.running_var f4 [10]
00000000: 6b8e f63a 74d4 b13a be0b 7c39 95a5 783b
00000010: 4ad9 573a ecef 133b 0963 ac3b 8d9e 933a
00000020: 4e41 6d3b 1033 e33a
0.0018810754 0.0013567344 0.00024036967 0.0037940491 0.0008233978 0.0022573425 0.0052608293 0.0011262462
0.0036202255 0.0017333943

hidden_layer2_P.weight f4 [10, 10]
00000000: 240b 7abe 69c7 893e 863a a1bd a07e 8a3d
00000010: d2e0 60be 8871 05bd f56f 9e3e 0350 913e
00000020: 308b b2bd fc0d f03d 3222 a8bd 6b90 9f3e
00000030: b81a 66be 392d 813e b805 6ebd a6d5 d4bd
00000040: 2782 03be 3278 7f3e c0e8 4e3d fe03 97bd
00000050: 62a7 6d3e ab37 06be 40bb 013c 98cb 75bd
00000060: 6538 05be 7c30 a1bd 8aba 643e cfc1 853e
00000070: 5073 8a3c 8078 203b 3691 48be 50d0 993c
00000080: 6ad8 42be 0a43 433e cfc1 933e 0cac e73d
00000090: 98c0 e0bd e48d b13d 52e5 91be 0300 2bbe
000000a0: c2ba 513e f575 4abe aaf0 0a3e 58d4 31bd
000000b0: da7b a6bd c6dd 023e 8023 e43d 41ac a0be
000000c0: 35b9 6cbe 7148 20be 5bca 98be afc0 8bbe
000000d0: 52e2 473e 6198 9b3e 8a55 97be 107f 2f3d
000000e0: 8a42 9abe ca15 7dbe 46e8 613e 3aff 98be
000000f0: 4cb1 b73d 22e7 9ebe fe0d 583e e8da 96be
00000100: 1686 6d3e e288 633e ed92 94be defd 67be
00000110: 588f 4cbd 321e 4b3e d0dd 2f3d d053 a03d
00000120: dbe6 8dbe 5049 d13c 18df be3d 4e7c 1d3e
00000130: 42fb 7fbe 4ce1 9f3d 0447 223e 444d a2bd
00000140: d094 653d 7042 5bbe 765f 5cbe ee6a 9bbd
00000150: 60d4 96be e09c b33c aedb c5bd e0de 853c
00000160: cedb 49be c27a 7a3e cdd1 2bbe 39ef 9abe
00000170: 00c8 62b9 a320 963e 0a6f bebd 52ce 163e
00000180: 90a2 2d3d d8fd 62bd fc42 113e 184e 98bd
-0.24418312 0.2690995 -0.078724906 0.06762433 -0.21960762 -0.032578975 0.3094479 0.28381357
-0.08717954 0.11721417 -0.08209647 0.3116487 -0.2247113 0.25229815 -0.058110923 -0.10392313
-0.12842618 0.24948195 0.050514936 -0.07373808 0.23208383 -0.13107173 0.007918179 -0.060008615
-0.13009794 -0.07870576 0.22336784 0.26124427 0.016900688 0.0024485886 -0.19586644 0.018776089
-0.19027868 0.19068542 0.28858802 0.11312112 -0.10974234 0.086696416 -0.2849527 -0.16699223
0.20481399 -0.1977156 0.13568369 -0.043415397 -0.081290916 0.12779912 0.111395836 -0.3138142
-0.23117526 -0.15652634 -0.29841885 -0.27295443 0.19519928 0.30389693 -0.2955745 0.042845786
-0.3012889 -0.24715343 0.22061262 -0.29882222 0.089693636 -0.31035715 0.21099088 -0.29463887
0.23195681 0.22220185 -0.29018345 -0.22655436 -0.04994139 0.19835737 0.042936146 0.07828486
-0.2771519 0.025547653 0.093198955 0.1537945 -0.24998191 0.07806644 0.15847403 -0.079248935
0.05605012 -0.21412063 -0.2152079 -0.075887546 -0.29458904 0.02192539 -0.09661041 0.016341627
-0.19712755 0.24460891 -0.16779251 -0.30260637 -0.00021627545 0.29321775 -0.09298523 0.14727142
0.04239136 -0.055417866 0.14185709 -0.0743677

hidden_layer2_P.bias f4 [10]
00000000: 3032 f3bc 4360 813e 28be 1b3e be57 a9bd
00000010: 4444 9ebe 3198 8b3e 0d6c 46be c0c5 a5bb
00000020: 7c66 d3bd 897c 883e
-0.029687017 0.25268754 0.15209258 -0.082686886 -0.30911458 0.2726455 -0.19377156 -0.005058974
-0.10322282 0.26657513

hidden_layer2_PN.weight f4 [10]
00000000: 0000 803f 0000 803f 0000 803f 0000 803f
00000010: 0000 803f 0000 803f 0000 803f 0000 803f
00000020: 0000 803f 0000 803f
1.0 1.0 1.0 1.0 1.0 1.0 1.0 1.0
1.0 1.0

hidden_layer2_PN.bias f4 [10]
00000000: 405a 9ea5 0ef4 d7a4 b018 9624 ab0e 74a5
00000010: 698d 01a4 72a4 9624 513d 25a5 08ba 7aa5
00000020: 1a0c 2b24 bba3 1b25
-2.7469787e-16 -9.365483e-17 6.509395e-17 -2.1168596e-16 -2.8092195e-17 6.533071e-17 -1.4332243e-16 -2.1747073e-16
3.7089965e-17 1.3499581e-16

hidden_layer2_PN.running_mean f4 [10]
00000000: 3487 fc3e fa98 0c3f 4ea4 093f b687 f53e
00000010: 3d8c e03e a1ac 0d3f c855 ec3e 6759 ff3e
00000020: 32af f33e 72d0 103f
0.49321902 0.54920924 0.53766334 0.47955102 0.43856993 0.55341536 0.46159196 0.49872896
0.475946 0.5656806

hidden_layer2_PN.running_var f4 [10]
00000000: 8cc8 b13c 778d 5a3d e035 f73a 34c4 153b
00000010: 1cb7 413d 4443 553d eead 493d 0324 1d3b
00000020: 3868 6c3c 1430 0d3b
0.021702074 0.053357568 0.001886066 0.0022852542 0.047293767 0.052066103 0.049238138 0.0023977763
0.014429145 0.002154355

output_layer_P.weight f4 [1, 10]
00000000: 1dcc 9b3e b800 d83d 14ca 95bd 1e78 773e
00000010: f065 fe3c 386b 97bd 18df 1e3e 8651 7c3e
00000020: d837 2abd bbb2 18be
0.30429164 0.10547012 -0.07313934 0.24166915 0.031054467 -0.07393497 0.15514791 0.24640474
-0.041557163 -0.1491193

hidden_layer1_rho.weight f4 [10, 3]
00000000: 0045 9a3e 2650 afbf ed58 43be 0e86 f43e
00000010: d0eb 2c3f 69e2 cabe 2606 fdbe 357a babe
00000020: d7eb 563d 120c 303f 0052 e13d 25f1 ed3d
00000030: b031 2ebf 133e 643e 626d 1cbf fa8e 263e
00000040: 14f7 11be 8231 96be 966d cfbe 4261 b13e
00000050: d109 b13e d6ce 41bf 4df2 66be 9d32 9f3e
00000060: cdfe 85bf ca72 05bf 40a3 06bf 077c 5cbe
00000070: 2a9e 2140 3786 a7bd
0.30130768 -1.3696334 -0.19076891 0.47758526 0.6754732 -0.39625862 -0.49418753 -0.36421362
0.05247101 0.6876842 0.110019684 0.1161826 -0.6804457 0.22289304 -0.61104405 0.16265479
-0.14254409 -0.29334646 -0.40513295 0.34644514 0.34577802 -0.7570623 -0.22553368 0.31093302
-1.0468384 -0.5212828 -0.5259285 -0.21531688 2.5252786 -0.08179896

hidden_layer1_rho.bias f4 [10]
00000000: 6912 873e 445e 213f e65e 993f 99fb e23f
00000010: 2896 35c0 bd4d e4bf ef7b 1440 eb07 333f
00000020: f22d 09c0 bbe5 7fbf
0.26381233 0.6303446 1.1982086 1.7733032 -2.8372898 -1.7836224 2.3200643 0.69933957
-2.1434293 -0.99959916

hidden_layer1_rhoN.weight f4 [10]
00000000: 6428 a23f 0c41 d03f 1432 8a3f 62ce b43f
00000010: 9550 bc3f 7811 a43f 39d9 993f d2b4 ac3f
00000020: 4ddb 983f 697c b03f
1.2668576 1.6269851 1.0796533 1.4125483 1.4712092 1.2817831 1.2019416 1.3492682
1.1941925 1.3787967

hidden_layer1_rhoN.bias f4 [10]
00000000: c750 1abf bbbb 5d3f 393d 313f b635 6a3d
00000010: 525c 993f 7035 95bf 9ef4 40be df93 623f
00000020: df63 e9bf 54c6 2d3c
-0.60279506 0.8661458 0.69234043 0.05718013 1.1981299 -1.1656933 -0.18843314 0.88506883
-1.8233603 0.010606367

hidden_layer1_rhoN.running_mean f4 [10]
00000000: 7e21 983e db8a 503f 4ed2 233f 1fbc 663f
00000010: c54b 4c3d bbf3 093e 1ff3 6b3f 85f1 063f
00000020: 7974 2b3d 7b06 3b3f
0.29713053 0.81461877 0.63992774 0.901308 0.049876947 0.13471882 0.9216785 0.5271228
0.041859124 0.73056763

hidden_layer1_rhoN.running_var f4 [10]
00000000: 1b6f b33c fa5b 603b 8208 423b 3865 a539
00000010: d26f 0139 c13e fe38 941e 9039 933e 673b
00000020: 6ea2 9039 afde 443d
0.021903565 0.003423451 0.0029607122 0.00031546666 0.00012344055 0.00012123353 0.00027488603 0.00352851
0.0002758684 0.04806393

hidden_layer2_rho.weight f4 [10, 10]
00000000: fa33 8cbf 9bdf c53f 1d1d 383e c4d2 383f
00000010: 596b d93f f7ec 2ec0 f480 173f 4338 f03d
00000020: 4628 14c0 6086 3f3f b5ce f93e 636c 5c3f
00000030: 657d d4bf 980e 7a40 8f0c bdbf a3a1 a23f
00000040: 7796 26bf f553 28c0 5daa 1abf 5a1e bdbd
00000050: 1363 a1c0 1ced 8840 ff1a 01c0 2b3e 093f
00000060: b294 3240 f25a 1dc0 cc87 2540 41db a6bf
00000070: 77d6 86bf d0f4 7640 ab1f a5bd 9ef7 b83d
00000080: a16e ef3e 7a01 0e3d 0020 b7be 2437 a3bd
00000090: ab80 723e b8cb 733d c763 bcbd 51cb 22be
000000a0: 84fe 283e a709 2dbe 839d ad3e 1f48 4a3e
000000b0: 2381 24be a167 81be 1c07 bc3e cc09 cbbd
000000c0: 3fa9 0dbe d708 cd3b 184d 57c0 70c6 8440
000000d0: 3a51 fcbf cdf5 4a40 5881 1d3e 1272 25bf
000000e0: 6aa9 873f 18cb f4bf ce44 f5bf cb6c 2640
000000f0: 956d 82be 896a 203e 0a5d a43d 8781 06be
00000100: 0891 323e 497c c83d 7707 bfbe fc97 4dbe
00000110: 9b70 523e b886 17bd 6b88 773f 7f60 313e
00000120: 03a3 9cbe c813 af3f 7d46 4bc0 93d6 2240
00000130: 7025 c7bf 4536 16bf c093 27bf fba3 7fbf
00000140: 0097 5bbe 4d40 fcbd e847 323d 0dd9 bebd
00000150: 91f7 58be 7204 b6be e385 2c3e ac50 20bd
00000160: b188 78be 928b 8cbd ceed 353f d132 a63e
00000170: 2922 763e c236 cb3f 4ed8 babf 499a a83f
00000180: cdf0 afbf a357 bdbe 42e5 d1bf 04d9 9abf
-1.0953362 1.5458864 0.17979856 0.721966 1.6985885 -2.7332132 0.5918114 0.11729481
-2.314958 0.74814415 0.48790517 0.86102885 -1.6600767 3.9071407 -1.4769458 1.2705578
-0.6507334 -2.6301243 -0.60416204 -0.09234305 -5.043344 4.278944 -2.0172727 0.53610486
2.7903256 -2.4586759 2.5864134 -1.3035661 -1.05342 3.8586922 -0.08062681 0.09031604
0.4676409 0.034669377 -0.35766602 -0.079695016 0.23681895 0.059520453 -0.091987185 -0.15897872
0.1650334 -0.16898213 0.33909234 0.19754075 -0.16064887 -0.25274375 0.36724174 -0.09913978
-0.13834094 0.0062571573 -3.3640804 4.1492233 -1.9712288 3.1712525 0.15381372 -0.6462718
1.0598576 -1.9124479 -1.9161623 2.6003902 -0.2547423 0.1566564 0.08025558 -0.13135348
0.17438138 0.097893305 -0.37310383 -0.20077509 0.20550768 -0.036993712 0.9669253 0.17321967
-0.30593118 1.3677912 -3.1761773 2.5443466 -1.55583 -0.5867656 -0.65459824 -0.9985959
-0.2144432 -0.12316952 0.043525606 -0.09318743 -0.21188189 -0.35550267 0.16847949 -0.039139435
-0.24270894 -0.068625584 0.71065986 0.32460645 0.24036469 1.5876086 -1.4597261 1.3172084
-1.3745362 -0.36980924 -1.6398089 -1.2097478

hidden_layer2_rho.bias f4 [10]
00000000: 16f6 a03f efb1 94bf d2cb 463e d741 063e
00000010: dc1f 823f d1b6 323e 47f7 abbc 535e ad3e
00000020: 5209 393e ee2d 913f
1.25751 -1.1616801 0.19413689 0.13111053 1.0165973 0.17452551 -0.020991934 0.33861026
0.18069962 1.1342142

hidden_layer2_rhoN.weight f4 [10]
00000000: e723 d340 410f 8840 52c1 8740 5ca4 5c40
00000010: 94fd 6d40 29a3 5c40 30e1 6a40 1e75 9140
00000020: 5670 7740 8afd 5b40
6.5981326 4.251862 4.2423487 3.4475317 3.7186022 3.4474585 3.6699944 4.5455465
3.8662314 3.4373498

hidden_layer2_rhoN.bias f4 [10]
00000000: 7378 c3bf 337d 933f a0b1 d23f d778 babf
00000010: 7eca 93bf ed43 903f 18de 913f c229 b9bf
00000020: 6a9c ccbf 8b69 babf
-1.5271133 1.1522583 1.6460457 -1.4568127 -1.1546171 1.1270729 1.1395903 -1.4465868
-1.5985234 -1.4563459

hidden_layer2_rhoN.running_mean f4 [10]
00000000: 8334 533f d173 bf3e 663e 2a3f d305 1a3f
00000010: ad1f 453f b0d2 223f 1de3 f63e 8aac a53e
00000020: dd20 2c3f 9a51 073f
0.82502 0.37393048 0.6650146 0.6016514 0.7700146 0.63602734 0.4822015 0.323582
0.67237645 0.5285889

hidden_layer2_rhoN.running_var f4 [10]
00000000: d9fc fd3d 1d45 563e 45a8 563e d4e5 c53b
00000010: c07c 403a 983e 613e dc58 2e3a 39a9 443e
00000020: 8ebb 593c 2f6b 563e
0.124017425 0.20924802 0.20962627 0.0060393605 0.0007342808 0.21996534 0.00066508143 0.19205178
0.013289345 0.20939325

output_layer_rho.weight f4 [1, 10]
00000000: a941 5840 dcea 55c0 ff9d 39c0 4010 db3f
00000010: 50fe 1240 ebda 2bc0 927b 0cc0 68b6 3540
00000020: be48 fc3f 3398 2740
3.3790076 -3.3424597 -2.9002683 1.7114334 2.296772 -2.6852367 -2.1950421 2.8392582
1.9709699 2.6186645
