Shock_interface_Bubble_PINN_ver1/NNlayers_Bubble_1.pt (torch, 28938 bytes, 52 tensors)

hidden_layer1_u1.weight f4 [10, 3]
-0.47549453 -0.53819793 -0.17094874 0.44926912 -0.15654787 0.40035528 0.030579763 -0.115655884
0.027513266 0.18620735 0.58256525 -0.46755856 -0.29705405 -0.0060654217 0.52351415 0.49210823
0.292253 0.35954696 0.35498142 -0.3462295 -0.44465825 -0.27841252 -0.534453 -0.54885423
0.51140183 0.3905954 -0.22013256 0.17637192 -0.33294824 -0.43408418
00000000: 0574 f3be 57c7 09bf 300d 2fbe 9a06 e63e
00000010: 164e 20be 5efb cc3e 6982 fa3c fedc ecbd
00000020: 8063 e13c 24ad 3e3e ff22 153f d663 efbe
00000030: 7817 98be 72c0 c6bb 0605 063f 9cf5 fb3e
00000040: 2fa2 953e 8a16 b83e 20c0 b53e fe44 b1be
00000050: 3faa e3be 168c 8ebe e9d1 08bf b681 0cbf
00000060: 3beb 023f 1ffc c73e 6e6a 61be d79a 343e
00000070: 3178 aabe 4840 debe

hidden_layer1_u1.bias f4 [10]
-0.5976393 -0.35652578 0.46045876 0.09347302 0.49620575 0.24137178 -0.40746287 0.3436496
-0.30893338 -0.5035656
00000000: e4fe 18bf 8c8a b6be 40c1 eb3e c86e bf3d
00000010: ae0e fe3e 2a2a 773e f99e d0be d7f2 af3e
00000020: 842c 9ebe ade9 00bf

hidden_layer1_u1N.weight f4 [10]
1.0325496 1.0366164 0.9639009 1.0331392 0.9538047 0.9944125 0.9609331 1.0140506
1.0324856 1.0317985
00000000: 962a 843f d9af 843f 36c2 763f e83d 843f
00000010: 8b2c 743f d191 7e3f b6ff 753f 69cc 813f
00000020: 7d28 843f f911 843f

hidden_layer1_u1N.bias f4 [10]
0.04766986 -0.01011677 0.038521152 0.054327413 -0.10824698 0.07263619 0.0195994 0.10804559
-0.0031166847 0.0034699924
00000000: 7941 433d cfc0 25bc 5bc8 1d3d 6c86 5e3d
00000010: 98b0 ddbd 48c2 943d ec8e a03c 0247 dd3d
00000020: 4b41 4cbb d068 633b

hidden_layer1_u1N.running_mean f4 [10]
0.20501351 0.43209466 0.58861065 0.6762284 0.59095293 0.6880399 0.35451078 0.41159573
0.5808339 0.31653604
00000000: 10ef 513e 833b dd3e 30af 163f 4e1d 2d3f
00000010: b148 173f 6223 303f 7082 b53e adbc d23e
00000020: 88b1 143f 0311 a23e

hidden_layer1_u1N.running_var f4 [10]
0.0027100386 0.0014900869 0.0002518263 0.004964829 0.000421179 0.0019738963 0.0025444706 0.005261028
0.0037478805 0.0017570918
00000000: e79a 313b 054f c33a 8e07 8439 01b0 a23b
00000010: b0d1 dc39 7c5c 013b 22c1 263b b464 ac3b
00000020: 009f 753b 384e e63a

hidden_layer2_u1.weight f4 [10, 10]
-0.29590997 -0.2904137 0.19327919 -0.22204152 -0.18284377 0.29424632 0.20994452 -0.30933163
-0.1535621 0.016973475 -0.10987458 0.0006437173 0.26997012 -0.05819583 0.24832307 -0.29369223
0.13654722 -0.22455364 0.19080971 -0.24785979 -0.11717748 0.1615403 -0.29199782 -0.14501707
-0.27292144 -0.29828003 -0.050434403 0.13460004 0.06913283 0.3072607 0.037665337 0.3582545
-0.21375884 -0.16304749 0.2551449 -0.15975656 -0.1335556 0.13212313 -0.043574017 -0.011733075
-0.36793002 0.18957609 -0.15397424 -0.07885844 0.07010339 0.17072535 -0.16998518 0.113430314
0.35309884 0.054510254 0.257326 0.16150089 -0.158741 -0.055966575 0.19729258 -0.09298804
-0.009831158 0.14053936 0.28568202 0.21889232 0.25785312 -0.25425586 0.12221687 -0.18846364
-0.15864365 -0.18752272 0.18194462 0.037443522 0.29957518 -0.05827663 -0.13820063 -0.074927956
-0.2248639 -0.11973206 0.2372552 -0.05624752 -0.20286411 -0.1274592 -0.03186641 -0.22739613
-0.07277972 0.2815301 0.23038739 0.30300695 -0.0413299 -0.023033526 -0.09031329 0.20954636
-0.005493963 0.16457497 0.13253278 0.13246433 -0.047230743 -0.021101754 -0.06977044 0.24773163
-0.08618672 -0.039265867 -0.3012528 0.32997644
00000000: 8381 97be 1bb1 94be fbea 453e da5e 63be
00000010: 663b 3bbe 74a7 963e b2fb 563e b760 9ebe
00000020: 623f 1dbe f50b 8b3c ec05 e1bd 23bf 283a
00000030: 8639 8a3e c05e 6ebd 6748 7e3e d45e 96be
00000040: 09d3 0b3e 64f1 65be 9f63 433e f5ce 7dbe
00000050: bffa efbd d26a 253e bd80 95be 5b7f 14be
00000060: 5cbc 8bbe 29b8 98be 4e94 4ebd 98d4 093e
00000070: 8395 8d3d 4651 9d3e f846 1a3d 226d b73e
00000080: 99e3 5abe ecf5 26be 5aa2 823e 3997 23be
00000090: cdc2 08be 494b 073e ab7a 32bd 153c 40bc
000000a0: 5361 bcbe 3c20 423e 6cab 1dbe 8980 a1bd
000000b0: 5e92 8f3d a0d2 2e3e 9810 2ebe 274e e83d
000000c0: 5fc9 b43e 2546 5f3d 3cc0 833e 7d60 253e
000000d0: 008d 22be 353d 65bd 1107 4a3e 8370 bebd
000000e0: de12 21bc 8de9 0f3e ea44 923e 4f25 603e
000000f0: 5305 843e d32d 82be d74c fa3d 9dfc 40be
00000100: 7b73 22be f505 40be b14f 3a3e 615e 193d
00000110: eb61 993e 7ab3 6ebd 7784 0dbe d473 99bd
00000120: b942 66be 1536 f5bd 07f3 723e cd63 66bd
00000130: 9cbb 4fbe aa84 02be 5a86 02bd 88da 68be
00000140: 890d 95bd b724 903e acea 6b3e ba23 9b3e
00000150: 8b49 29bd ceb0 bcbc 2df6 b8bd 5293 563e
00000160: b406 b4bb 5786 283e acb6 073e bba4 073e
00000170: 0675 41bd 96dd acbc cee3 8ebd 5cad 7d3e
00000180: aa82 b0bd 3fd5 20bd cf3d 9abe acf2 a83e

hidden_layer2_u1.bias f4 [10]
0.09984451 0.077079274 0.19146289 0.091757804 0.13758129 0.10769308 -0.11892187 0.063310325
-0.14297111 -0.22095466
00000000: 477b cc3d bddb 9d3d d90e 443e 84eb bb3d
00000010: 1ce2 0c3e 318e dc3d 4f8d f3bd d8a8 813d
00000020: 0567 12be f041 62be

hidden_layer2_u1N.weight f4 [10]
0.9422697 1.0305231 0.9669414 0.9561383 1.0036802 0.97442746 0.9826607 1.0279306
1.0288396 0.9673152
00000000: 9638 713f 2ee8 833f 7989 773f 7bc5 743f
00000010: 9878 803f 1474 793f a78f 7b3f 3b93 833f
00000020: 04b1 833f f8a1 773f

hidden_layer2_u1N.bias f4 [10]
0.005874123 0.0066582183 0.0072229924 -0.006384765 -0.0053652683 -0.006250429 -0.004990364 0.0068627833
-0.006675787 0.007359371
00000000: b77b c03b 2f2d da3b daae ec3b 4a37 d1bb
00000010: 22cf afbb 66d0 ccbb 3586 a3bb 33e1 e03b
00000020: 8fc0 dabb e126 f13b

hidden_layer2_u1N.running_mean f4 [10]
0.5234685 0.5019459 0.5441194 0.5104207 0.5282677 0.5226182 0.47574607 0.49899834
0.4762972 0.45341086
00000000: 0802 063f 877f 003f 694b 0b3f eeaa 023f
00000010: 8d3c 073f 4eca 053f fd94 f33e b67c ff3e
00000020: 3add f33e 7825 e83e

hidden_layer2_u1N.running_var f4 [10]
0.010798137 0.00267276 0.013291133 0.013159452 0.03333017 0.0104687065 0.0101315845 0.035187718
0.0125168245 0.013583395
00000000: abea 303c 7929 2f3b 0dc3 593c be9a 573c
00000010: 3785 083d f084 2b3c f2fe 253c ff20 103d
00000020: 5e13 4d3c e38c 5e3c

output_layer_u1.weight f4 [1, 10]
-0.0036180234 -0.104362495 -0.24212289 0.095260605 0.052068774 0.09533451 0.05047781 -0.098634146
0.088200755 -0.26562133
00000000: 5c1c 6dbb 01bc d5bd 10ef 77be fe17 c33d
00000010: 1146 553d bd3e c33d d2c1 4e3d b300 cabd
00000020: 99a2 b43d 85ff 87be

hidden_layer1_u2.weight f4 [10, 3]
-0.44984236 -0.3663681 0.30589116 0.046777245 0.23640186 -0.024895847 -0.45748356 0.2362768
-0.31279084 -0.57776576 0.5133217 -0.111837745 -0.34529206 0.53239125 0.4430176 0.5603951
0.4771628 -0.5431826 0.1212259 -0.084415406 0.08467859 0.3612572 -0.33562467 -0.12715885
-0.15198429 0.15840964 0.43997097 -0.57172626 0.5371385 -0.47588053
00000000: bd51 e6be 9994 bbbe c49d 9c3e 7f99 3f3d
00000010: 5413 723e 60f2 cbbc 493b eabe 8cf2 713e
00000020: 1f26 a0be 75e8 13bf 0d69 033f 300b e5bd
00000030: 1fca b0be cb4a 083f 34d3 e23e 0e76 0f3f
00000040: af4e f43e 040e 0bbf 4945 f83d fce1 acbd
00000050: f86b ad3d b4f6 b83e ffd6 abbe ee35 02be
00000060: c5a1 1bbe 2336 223e e043 e13e a75c 12bf
00000070: e981 093f 9da6 f3be

hidden_layer1_u2.bias f4 [10]
-0.19669789 -0.32703418 -0.2775719 0.40367374 -0.4996781 0.21675663 -0.41523373 -0.23339708
-0.21109277 0.32158354
00000000: 2c6b 49be 0671 a7be e71d 8ebe 53ae ce3e
00000010: cfd5 ffbe 73f5 5d3e 8499 d4be a5ff 6ebe
00000020: b428 58be 99a6 a43e

hidden_layer1_u2N.weight f4 [10]
1.0298029 0.9842375 0.9812111 1.0147913 0.9918121 0.9627768 1.0270331 1.0141197
1.0251223 0.97011834
00000000: 95d0 833f fdf6 7b3f a730 7b3f aee4 813f
00000010: 66e7 7d3f 8a78 763f d275 833f adce 813f
00000020: 3537 833f ad59 783f

hidden_layer1_u2N.bias f4 [10]
-0.018650075 -0.0027648008 -0.016726239 0.03157102 -0.07386293 0.06742227 -0.076421216 -0.044941854
0.06672248 0.031607386
00000000: 0bc8 98bc a931 35bb 7705 89bc 9d50 013d
00000010: 7345 97bd b014 8a3d ba82 9cbd f314 38bd
00000020: cca5 883d bf76 013d

hidden_layer1_u2N.running_mean f4 [10]
0.31718373 0.48421326 0.43186596 0.64977485 0.47462562 0.7174334 0.39243022 0.40159804
0.47437483 0.6333538
00000000: e865 a23e cdea f73e 891d dd3e a557 263f
00000010: 2102 f33e b7a9 373f 9dec c83e 429e cd3e
00000020: 42e1 f23e 7a23 223f

hidden_layer1_u2N.running_var f4 [10]
0.002550603 0.0010770712 0.0021315543 0.005638986 0.006052481 0.0036883885 0.00020271435 0.0026922538
0.0006306738 0.0062471507
00000000: 0428 273b 832c 8d3a 8cb1 0b3b 3ec7 b83b
00000010: e453 c63b e4b8 713b b88f 5439 8670 303b
00000020: cd53 253a e6b4 cc3b

hidden_layer2_u2.weight f4 [10, 10]
0.11161299 0.0714294 0.050948594 0.2316331 0.10971105 0.2833712 -0.22743137 -0.22893909
0.1926575 -0.21161884 -0.16923934 -0.14264138 0.12747055 -0.17843093 0.29825377 0.027680257
0.2380404 0.27379543 0.20154397 -0.15592852 -0.26686287 0.17987128 0.25554186 -0.30295953
-0.23863634 0.16963801 -0.25945368 0.25943643 0.044843283 0.11932154 -0.09853053 0.23141071
-0.028943568 -0.13982755 -0.21529645 -0.25267822 0.2971476 0.16288598 0.22001404 0.14343181
-0.009576211 -0.044177793 -0.17600423 0.18120593 -0.040744923 0.284126 -0.24049811 -0.30582517
0.23262896 -0.23465401 -0.23656018 -0.15719877 -0.2799888 0.24448586 -0.27547765 0.28203171
-0.21881926 -0.0020361247 0.1727052 0.1512369 -0.07818723 0.09071687 -0.19627112 -0.14650995
0.1702796 -0.06895215 0.2580827 0.2023694 0.015126063 -0.07992919 -0.07444684 0.24009347
-0.26708585 -0.18253373 -0.13639563 -0.30132377 -0.14199652 0.2311314 0.010331001 -0.18870936
0.10029573 0.097990535 -0.20658933 0.26164842 -0.18436053 0.2501948 0.107819475 0.29980266
-0.096415915 0.16478142 -0.18446621 -0.120679244 0.2954856 0.14001855 -0.06447945 0.18450482
-0.16529305 -0.13871236 0.30456972 -0.06550508
00000000: 5a95 e43d 9449 923d 79af 503d 3a31 6d3e
00000010: 30b0 e03d 0816 913e c5e3 68be 026f 6abe
00000020: 0248 453e 9cb2 58be 144d 2dbe 9510 12be
00000030: a487 023e 99b6 36be b8b4 983e b5c1 e23c
00000040: ddc0 733e ea2e 8c3e 8b61 4e3e baab 1fbe
00000050: 40a2 88be 2d30 383e 62d6 823e 831d 9bbe
00000060: 165d 74be 96b5 2d3e 1dd7 84be dad4 843e
00000070: 97ad 373d da5e f43d 60ca c9bd eef6 6c3e
00000080: 101b edbc f42e 0fbe ac76 5cbe 0a5f 81be
00000090: bb23 983e 95cb 263e 5c4b 613e cadf 123e
000000a0: 8ae5 1cbc c6f3 34bd 743a 34be 0c8e 393e
000000b0: 26e4 26bd f778 913e 2345 76be 1e95 9cbe
000000c0: 4936 6e3e 2449 70be d53c 72be b7f8 20be
000000d0: b15a 8fbe 805a 7a3e 680b 8dbe 7666 903e
000000e0: 2812 60be 8170 05bb a2d9 303e d9dd 1a3e
000000f0: a020 a0bd c4c9 b93d 4cfb 48be b406 16be
00000100: c75d 2e3e c936 8dbd 6a23 843e ed39 4f3e
00000110: 4ed3 773c eab1 a3bd 9677 98bd 10db 753e
00000120: 7abf 88be 1fea 3abe 4cab 0bbe 1c47 9abe
00000130: 8967 11be b6ad 6c3e 5c43 293c 073d 41be
00000140: d967 cd3d 43af c83d 278c 53be c8f6 853e
00000150: 02c9 3cbe 8819 803e 75d0 dc3d bc7f 993e
00000160: b575 c5bd 76bc 283e b6e4 3cbe ae26 f7bd
00000170: e349 973e 0661 0f3e cd0d 84bd d5ee 3c3e
00000180: 9542 29be 9d0a 0ebe 90f0 9b3e 8727 86bd

hidden_layer2_u2.bias f4 [10]
0.27784753 0.24260454 0.2662901 0.036338143 -0.22416577 0.27255583 -0.25871357 0.07245396
-0.11284498 0.07436754
00000000: 0842 8e3e 536d 783e 2d57 883e 4ed7 143d
00000010: b68b 65be 708c 8b3e 1b76 84be be62 943d
00000020: 451b e7bd 024e 983d

hidden_layer2_u2N.weight f4 [10]
0.9775283 0.9811455 0.9640356 0.98119676 1.0132911 1.0108368 1.0161942 0.9765956
1.0007893 1.0191921
00000000: 4b3f 7a3f 5a2c 7b3f 09cb 763f b62f 7b3f
00000010: 86b3 813f 1a63 813f a712 823f 2b02 7a3f
00000020: dd19 803f e374 823f

hidden_layer2_u2N.bias f4 [10]
0.008978558 -0.009044591 0.009002897 -0.009026886 -0.008792882 -0.008944702 0.00874708 -0.008940482
0.008904003 -0.008969951
00000000: cd1a 133c c42f 14bc e380 133c 81e5 13bc
00000010: 0510 10bc cd8c 12bc ea4f 0f3c 197b 12bc
00000020: 18e2 113c b4f6 12bc

hidden_layer2_u2N.running_mean f4 [10]
0.5664591 0.547739 0.5716716 0.505212 0.46581528 0.5847533 0.43029302 0.5121986
0.4769504 0.5265363
00000000: 7703 113f a038 0c3f 1259 123f 9355 013f
00000010: 577f ee3e 64b2 153f 5e4f dc3e 731f 033f
00000020: d832 f43e 15cb 063f

hidden_layer2_u2N.running_var f4 [10]
0.04391334 0.0050546704 0.011019658 0.008434149 0.024466947 0.014868014 0.021641659 0.029913928
0.008528768 0.046440676
00000000: 79de 333d a6a1 a53b cc8b 343c 632f 0a3c
00000010: e86e c83c f898 733c d949 b13c 0e0e f53c
00000020: 3fbc 0b3c 9438 3e3d

output_layer_u2.weight f4 [1, 10]
-0.22894621 0.1653933 -0.17254332 0.20351733 0.08479666 0.27711806 -0.07245551 0.076525114
-0.108360685 0.14936025
00000000: e070 6abe dc5c 293e 32af 30be d966 503e
00000010: dfa9 ad3d 6be2 8d3e 8e63 94bd 33b9 9c3d
00000020: 35ec ddbd e5f1 183e

hidden_layer1_P.weight f4 [10, 3]
-0.32924956 0.25710267 0.14789373 0.026603043 -0.26458937 -0.30251855 -0.1221776 -0.09397215
0.49651265 0.35864705 -0.40018862 0.5487455 -0.03778577 0.20513266 -0.13966522 -0.18927595
0.36721635 0.36073756 -0.17715934 0.5152143 0.114216864 0.05972904 -0.23853546 0.093881965
0.17132837 -0.4757198 -0.31023914 0.54870486 0.1726889 -0.20597252
00000000: 6693 a8be f6a2 833e 7471 173e a0ee d93c
00000010: 4278 87be b6e3 9abe 4038 fabd 7874 c0bd
00000020: e836 fe3e 96a0 b73e 86e5 ccbe 967a 0c3f
00000030: 40c5 1abd 4c0e 523e 6604 0fbe 8ed1 41be
00000040: c803 bc3e 98b2 b83e 4269 35be 16e5 033f
00000050: 88ea e93d 70a6 743d a442 74be 3045 c03d
00000060: b470 2f3e 8c91 f3be aad7 9ebe ec77 0c3f
00000070: 5cd5 303e 76ea 52be

hidden_layer1_P.bias f4 [10]
0.009157181 0.1305021 0.28096032 0.09943503 -0.066001594 0.39453572 -0.4798695 0.30657798
-0.2737373 0.054447114
00000000: 0008 163c 58a2 053e 08da 8f3e 98a4 cb3d
00000010: d82b 87bd 9600 ca3e 75b1 f5be caf7 9c3e
00000020: 4c27 8cbe f003 5f3d

hidden_layer1_PN.weight f4 [10]
1.0 1.0 1.0 1.0 1.0 1.0 1.0 1.0
1.0 1.0
00000000: 0000 803f 0000 803f 0000 803f 0000 803f
00000010: 0000 803f 0000 803f 0000 803f 0000 803f
00000020: 0000 803f 0000 803f

hidden_layer1_PN.bias f4 [10]
-2.941814e-12 2.601383e-10 -9.822786e-11 -1.6349744e-10 1.0546093e-10 8.265608e-11 2.6084511e-11 2.3898178e-10
-1.7638188e-10 2.649157e-10
00000000: 0203 4fac 3603 8f2f 5f01 d8ae 70c4 33af
00000010: 3ae9 e72e 3dc3 b52e 1971 e52d b261 832f
00000020: 16ef 41af 92a3 912f

hidden_layer1_PN.running_mean f4 [10]
0.5288478 0.46491066 0.5370468 0.47401506 0.5294154 0.66487676 0.49142092 0.5240518
0.33705622 0.61950874
00000000: 9262 073f c508 ee3e e67b 093f 1ab2 f23e
00000010: c587 073f 5d35 2a3f 869b fb3e 4228 063f
00000020: a292 ac3e 2098 1e3f

hidden_layer1_PN.running_var f4 [10]
0.001878535 0.0013506454 0.00024463396 0.0038140127 0.0008264903 0.0022489163 0.005259651 0.001128986
0.0036113558 0.0017359804
00000000: 2d39 f63a 2408 b13a 3742 8039 84f4 793b
00000010: d3a8 583a 8e62 133b 2759 ac3b 7cfa 933a
00000020: 7fac 6c3b d689 e33a

hidden_layer2_P.weight f4 [10, 10]
-0.24418312 0.2690995 -0.078724906 0.06762433 -0.21960762 -0.032578975 0.3094479 0.28381357
-0.08717954 0.11721417 -0.08209647 0.3116487 -0.2247113 0.25229815 -0.058110923 -0.10392313
-0.12842618 0.24948195 0.050514936 -0.07373808 0.23208383 -0.13107173 0.007918179 -0.060008615
-0.13009794 -0.07870576 0.22336784 0.26124427 0.016900688 0.0024485886 -0.19586644 0.018776089
-0.19027868 0.19068542 0.28858802 0.11312112 -0.10974234 0.086696416 -0.2849527 -0.16699223
0.20481399 -0.1977156 0.13568369 -0.043415397 -0.081290916 0.12779912 0.111395836 -0.3138142
-0.23117526 -0.15652634 -0.29841885 -0.27295443 0.19519928 0.30389693 -0.2955745 0.042845786
-0.3012889 -0.24715343 0.22061262 -0.29882222 0.089693636 -0.31035715 0.21099088 -0.29463887
0.23195681 0.22220185 -0.29018345 -0.22655436 -0.04994139 0.19835737 0.042936146 0.07828486
-0.2771519 0.025547653 0.093198955 0.1537945 -0.24998191 0.07806644 0.15847403 -0.079248935
0.05605012 -0.21412063 -0.2152079 -0.075887546 -0.29458904 0.02192539 -0.09661041 0.016341627
-0.19712755 0.24460891 -0.16779251 -0.30260637 -0.00021627545 0.29321775 -0.09298523 0.14727142
0.04239136 -0.055417866 0.14185709 -0.0743677
00000000: 240b 7abe 69c7 893e 863a a1bd a07e 8a3d
00000010: d2e0 60be 8871 05bd f56f 9e3e 0350 913e
00000020: 308b b2bd fc0d f03d 3222 a8bd 6b90 9f3e
00000030: b81a 66be 392d 813e b805 6ebd a6d5 d4bd
00000040: 2782 03be 3278 7f3e c0e8 4e3d fe03 97bd
00000050: 62a7 6d3e ab37 06be 40bb 013c 98cb 75bd
00000060: 6538 05be 7c30 a1bd 8aba 643e cfc1 853e
00000070: 5073 8a3c 8078 203b 3691 48be 50d0 993c
00000080: 6ad8 42be 0a43 433e cfc1 933e 0cac e73d
00000090: 98c0 e0bd e48d b13d 52e5 91be 0300 2bbe
000000a0: c2ba 513e f575 4abe aaf0 0a3e 58d4 31bd
000000b0: da7b a6bd c6dd 023e 8023 e43d 41ac a0be
000000c0: 35b9 6cbe 7148 20be 5bca 98be afc0 8bbe
000000d0: 52e2 473e 6198 9b3e 8a55 97be 107f 2f3d
000000e0: 8a42 9abe ca15 7dbe 46e8 613e 3aff 98be
000000f0: 4cb1 b73d 22e7 9ebe fe0d 583e e8da 96be
00000100: 1686 6d3e e288 633e ed92 94be defd 67be
00000110: 588f 4cbd 321e 4b3e d0dd 2f3d d053 a03d
00000120: dbe6 8dbe 5049 d13c 18df be3d 4e7c 1d3e
00000130: 42fb 7fbe 4ce1 9f3d 0447 223e 444d a2bd
00000140: d094 653d 7042 5bbe 765f 5cbe ee6a 9bbd
00000150: 60d4 96be e09c b33c aedb c5bd e0de 853c
00000160: cedb 49be c27a 7a3e cdd1 2bbe 39ef 9abe
00000170: 00c8 62b9 a320 963e 0a6f bebd 52ce 163e
00000180: 90a2 2d3d d8fd 62bd fc42 113e 184e 98bd

hidden_layer2_P.bias f4 [10]
-0.029687017 0.25268754 0.15209258 -0.082686886 -0.30911458 0.2726455 -0.19377156 -0.005058974
-0.10322282 0.26657513
00000000: 3032 f3bc 4360 813e 28be 1b3e be57 a9bd
00000010: 4444 9ebe 3198 8b3e 0d6c 46be c0c5 a5bb
00000020: 7c66 d3bd 897c 883e

hidden_layer2_PN.weight f4 [10]
1.0 1.0 1.0 1.0 1.0 1.0 1.0 1.0
1.0 1.0
00000000: 0000 803f 0000 803f 0000 803f 0000 803f
00000010: 0000 803f 0000 803f 0000 803f 0000 803f
00000020: 0000 803f 0000 803f

hidden_layer2_PN.bias f4 [10]
-2.6785778e-16 -9.079663e-17 6.344761e-17 -2.0676004e-16 -2.7443556e-17 6.408074e-17 -1.3915139e-16 -2.1213042e-16
3.612097e-17 1.3153747e-16
00000000: d568 9aa5 df5c d1a4 dc4c 9224 cb60 6ea5
00000010: 441f fda3 98c2 9324 3e6e 20a5 d991 74a5
00000020: 1d94 2624 02a7 1725

hidden_layer2_PN.running_mean f4 [10]
0.49323824 0.5493474 0.537664 0.47955388 0.4384367 0.5531982 0.46149862 0.49873525
0.47596094 0.56566083
00000000: b989 fc3e 08a2 0c3f 59a4 093f 1688 f53e
00000010: c67a e03e 669e 0d3f 8c49 ec3e 3a5a ff3e
00000020: 27b1 f33e 26cf 103f

hidden_layer2_PN.running_var f4 [10]
0.021651953 0.053386394 0.0018703019 0.002281603 0.04733839 0.0521036 0.049256805 0.002362673
0.014473856 0.0021770038
00000000: 705f b13c b1ab 5a3d eb24 f53a f286 153b
00000010: e6e5 413d 966a 553d 81c1 493d 13d7 1a3b
00000020: c123 6d3c 10ac 0e3b

output_layer_P.weight f4 [1, 10]
0.30429164 0.10547012 -0.07313934 0.24166915 0.031054467 -0.07393497 0.15514791 0.24640474
-0.041557163 -0.1491193
00000000: 1dcc 9b3e b800 d83d 14ca 95bd 1e78 773e
00000010: f065 fe3c 386b 97bd 18df 1e3e 8651 7c3e
00000020: d837 2abd bbb2 18be

hidden_layer1_rho.weight f4 [10, 3]
0.31673405 -1.3995167 -0.15313731 0.46987382 0.6464404 -0.44620118 -0.52115124 -0.3191199
0.077629186 0.66079485 0.12052039 0.14024657 -0.6564818 0.2574176 -0.64266443 0.14153838
-0.114568286 -0.32583225 -0.3707529 0.32012847 0.407788 -0.7928438 -0.19623981 0.3638499
-1.0234232 -0.5315904 -0.5473635 -0.21441273 2.5171309 -0.10661009
00000000: f72a a23e 5d23 b3bf 07d0 1cbe 4d93 f03e
00000010: 1e7d 253f 7b74 e4be 2b6a 05bf af63 a3be
00000020: 0dfc 9e3d da29 293f 65d3 f63d cc9c 0f3e
00000030: 310f 28bf 3dcc 833e a885 24bf 70ef 103e
00000040: c7a2 eabd 7cd3 a6be 53d3 bdbe e1e7 a33e
00000050: 97c9 d03e d0f7 4abf 17f3 48be 894a ba3e
00000060: 88ff 82bf 4f16 08bf 0420 0cbf 038f 5bbe
00000070: ac18 2140 6456 dabd

hidden_layer1_rho.bias f4 [10]
0.2750732 0.57907677 1.2376018 1.7360555 -2.7801642 -1.814104 2.353365 0.73895055
-2.0939026 -1.011168
00000000: 65d6 8c3e 603e 143f bc69 9e3f 1137 de3f
00000010: 36ee 31c0 8f34 e8bf 889d 1640 dd2b 3d3f
00000020: 8002 06c0 f46d 81bf

hidden_layer1_rhoN.weight f4 [10]
1.2502779 1.6260523 1.068426 1.41193 1.4866439 1.2854258 1.196903 1.3745508
1.1939211 1.3638028
00000000: 1b09 a03f 7b22 d03f 2fc2 883f 1fba b43f
00000010: 594a be3f d588 a43f 1e34 993f 48f1 af3f
00000020: 68d2 983f 1791 ae3f

hidden_layer1_rhoN.bias f4 [10]
-0.59856117 0.8679015 0.6545782 0.03144985 1.1941009 -1.136661 -0.23207729 0.9187559
-1.8172995 -0.00052072597
00000000: 4e3b 19bf cb2e 5e3f 7092 273f 8fd1 003d
00000010: 4cd8 983f 1c7e 91bf aba5 6dbe 9633 6b3f
00000020: 459d e8bf 5481 08ba

hidden_layer1_rhoN.running_mean f4 [10]
0.29639912 0.8022223 0.6566541 0.8979149 0.055093884 0.13301769 0.923799 0.540294
0.043887578 0.72809315
00000000: a0c1 973e 715e 4d3f 7c1a 283f c0dd 653f
00000010: 20aa 613d ca35 083e 177e 6c3f b550 0a3f
00000020: 76c3 333d 5064 3a3f

hidden_layer1_rhoN.running_var f4 [10]
0.02265399 0.003501395 0.0024883873 0.00031689962 0.00015735609 8.0026104e-05 0.00022144293 0.003562179
0.0002999195 0.048418894
00000000: dc94 b93c a977 653b 3614 233b 8c25 a639
00000010: f4ff 2439 b0d3 a738 2233 6839 7273 693b
00000020: 843e 9d39 e452 463d

hidden_layer2_rho.weight f4 [10, 10]
-1.0907112 1.5444113 0.20204575 0.70572215 1.7318085 -2.7176776 0.57976866 0.13793847
-2.3200932 0.7408419 0.4967107 0.85565585 -1.6599276 3.9227898 -1.5004575 1.283947
-0.6506808 -2.6420434 -0.6103093 -0.09503504 -5.007424 4.271986 -2.0510921 0.5627054
2.7596397 -2.4439669 2.609182 -1.33916 -1.0246379 3.8629873 -0.080527134 0.10420539
0.4349502 0.043150384 -0.3608284 -0.0968247 0.2664724 0.037617456 -0.07749737 -0.18350491
0.17193179 -0.1651652 0.30451357 0.19290406 -0.18218589 -0.24139288 0.37663728 -0.12045572
-0.11145353 -0.012411487 -3.3366017 4.1301613 -1.9453673 3.1567705 0.18118124 -0.63113344
1.0624783 -1.8861357 -1.9065436 2.5742872 -0.2572932 0.14454748 0.09647495 -0.12457395
0.16714522 0.10560577 -0.36586818 -0.20144288 0.21918274 -0.013656135 0.9209688 0.22761509
-0.3180979 1.4296037 -3.1857932 2.506936 -1.5736878 -0.6119155 -0.70312864 -0.9903513
-0.16741368 -0.15133138 0.056900807 -0.080828235 -0.24703774 -0.31530473 0.12740299 -0.042415492
-0.24412169 -0.114578635 0.7316431 0.29627967 0.23942141 1.5532339 -1.4627022 1.3455975
-1.32768 -0.36946636 -1.5883471 -1.2070248
00000000: 6d9c 8bbf 45af c53f 15e5 4e3e 35aa 343f
00000010: e7ab dd3f 6eee 2dc0 b86b 143f be3f 0d3e
00000020: 687c 14c0 d1a7 3d3f dd50 fe3e 430c 5b3f
00000030: 8278 d4bf fd0e 7b40 fe0e c0bf 6058 a43f
00000040: 0493 26bf 3d17 29c0 3b3d 1cbf bba1 c2bd
00000050: d13c a0c0 1cb4 8840 1845 03c0 760d 103f
00000060: f09d 3040 f469 1cc0 d6fc 2640 9869 abbf
00000070: 5627 83bf 2f3b 7740 69eb a4bd a369 d53d
00000080: cbb1 de3e 75be 303d 80be b8be 074c c6bd
00000090: 126f 883e c314 1a3d f1b6 9ebd b6e8 3bbe
000000a0: e30e 303e 1121 29be 34e9 9b3e a488 453e
000000b0: f08e 3abe b22f 77be 9ad6 c03e 7db1 f6bd
000000c0: c041 e4bd 8d59 4bbc e28a 55c0 482a 8440
000000d0: cc01 f9bf 8708 4a40 9387 393e f691 21bf
000000e0: 4aff 873f e56c f1bf 9f09 f4bf 1fc1 2440
000000f0: efbb 83be 4104 143e a994 c53d a120 ffbd
00000100: 1e28 2b3e d747 d83d 1353 bbbe 0b47 4ebe
00000110: 7171 603e fbbd 5fbc 9cc4 6b3f ee13 693e
00000120: badd a2be 41fd b63f 09e4 4bc0 a471 2040
00000130: 9a6e c9bf 7fa6 1cbf 3d00 34bf aa87 7dbf
00000140: 7e6e 2bbe 9df6 1abe d210 693d 4689 a5bd
00000150: 76f7 7cbe 9f6f a1be ee75 023e debb 2dbd
00000160: 09fb 79be 34a8 eabd f64c 3b3f f8b1 973e
00000170: e32a 753e 5ed0 c63f d339 bbbf 8a3c ac3f
00000180: 6bf1 a9bf b22a bdbe f54e cbbf ca7f 9abf

hidden_layer2_rho.bias f4 [10]
1.2777095 -1.1577277 0.1717814 0.039005045 0.93280387 0.18615225 -0.06274276 0.36859584
0.21902265 1.0934955
00000000: fc8b a33f 6c30 94bf 77e7 2f3e c1c3 1f3d
00000010: 3ccc 6e3f b29e 3e3e 477f 80bd 98b8 bc3e
00000020: 7947 603e a9f7 8b3f

hidden_layer2_rhoN.weight f4 [10]
6.552096 4.284204 4.265029 3.4628727 3.683 3.432289 3.681907 4.5908723
3.8694174 3.407016
00000000: c5aa d140 3318 8940 1e7b 8840 b59f 5d40
00000010: 46b6 6b40 9faa 5b40 5da4 6b40 6de8 9240
00000020: 89a4 7740 8d0c 5a40

hidden_layer2_rhoN.bias f4 [10]
-1.543131 1.1682386 1.6620212 -1.4727944 -1.1706293 1.1430738 1.1555513 -1.4625658
-1.6144955 -1.472368
00000000: 5185 c5bf d888 953f 1cbd d43f 8784 bcbf
00000010: 2ed7 95bf 3e50 923f 1be9 933f 5b35 bbbf
00000020: caa7 cebf 8e76 bcbf

hidden_layer2_rhoN.running_mean f4 [10]
0.8215199 0.3719667 0.6619187 0.56280327 0.7208512 0.63563216 0.4644155 0.33416182
0.6577075 0.5216678
00000000: 214f 523f 6b72 be3e 8173 293f e013 103f
00000010: b489 383f cab8 223f dec7 ed3e 4217 ab3e
00000020: 855f 283f 058c 053f

hidden_layer2_rhoN.running_var f4 [10]
0.12600337 0.2091785 0.21030131 0.0043341746 0.0008595448 0.21997137 0.00069917756 0.19530119
0.0026827273 0.20930713
00000000: 0707 013e e432 563e 3a59 573e b105 8e3b
00000010: 1353 613a 2d40 613e 0349 373a 09fd 473e
00000020: b2d0 2f3b 9c54 563e

output_layer_rho.weight f4 [1, 10]
3.335161 -3.3779109 -2.924662 1.7413561 2.26551 -2.677652 -2.210244 2.8864577
1.9799119 2.5916934
00000000: 4773 5540 b12f 58c0 aa2d 3bc0 c2e4 de3f
00000010: 1efe 1040 a65e 2bc0 a374 0dc0 b9bb 3840
00000020: c16d fd3f 4ede 2540
