Diffuse_interface_Bubble_PINN_ver1/IC_Only.pt (torch, 28262 bytes, 65 tensors)

hidden_layer1_u1.weight f4 [10, 3]
00000000: c656 013d 3e1d ef3d 3193 38be b23f b6be
00000010: 9d34 c5be 658c 033f b100 12bf b623 52be
00000020: 42af e9be a191 2a3e 0228 653e 5c99 0e3f
00000030: 3c9a f83e 5bd3 a8be c1ab d8be 8399 f23e
00000040: a6a7 853e 12bb bb3c 1808 11bf ec6e 7cbd
00000050: 93eb e0be af0c d8be b5a0 fcbd 1fb5 f93d
00000060: 45e0 07bf 3ccc 9fbe 0418 d7be 2b7e 92bc
00000070: b582 c4be 6078 62be
0.031576894 0.116754994 -0.18024899 -0.3559547 -0.38516703 0.513861 -0.57032305 -0.20521435
-0.45641524 0.16657116 0.22378543 0.5570276 0.4855517 -0.3297375 -0.42318538 0.47382745
0.26104468 0.02291635 -0.56652975 -0.06162922 -0.4392973 -0.42197177 -0.1233534 0.12192749
-0.53076583 -0.31210506 -0.4201051 -0.017882427 -0.38380972 -0.22116232

hidden_layer1_u1.bias f4 [10]
00000000: 2970 9c3e 504c 023f 7a40 f5bd e41b a63e
00000010: 38f1 ec3e bff4 1fbf fdad 903d 8f1d 493f
00000020: 29b3 a23e 4878 c03e
0.3055432 0.50897694 -0.119751886 0.32443154 0.46277785 -0.6248283 0.07064436 0.7856073
0.31777313 0.37591767

hidden_layer1_u1N.weight f4 [10]
00000000: 80fb 713f 8da9 783f dd62 803f eeb7 7d3f
00000010: b17e 873f 7956 723f 913e 7b3f cf2e 833f
00000020: a6d1 803f cb08 7b3f
0.94524384 0.97133714 1.0030171 0.9910878 1.0585538 0.94663197 0.98142344 1.024866
1.006398 0.9806029

hidden_layer1_u1N.bias f4 [10]
00000000: ef01 113e 3ab8 5cbe cd64 26be ec40 0bbd
00000010: c5ac 0cbf 2acc b5bb 77e3 113d 1260 63be
00000020: 360f bcbe 7f50 0abe
0.14160894 -0.21554652 -0.1624939 -0.03399746 -0.54951125 -0.00554802 0.035617318 -0.22204617
-0.36730355 -0.1350727

hidden_layer1_u1N.running_mean f4 [10]
00000000: 36ab 1b3f a00b f83e 71b6 b33e be3a 273f
00000010: 7aad 173f 1c1a f13e 2243 dc3e ddd6 1b3f
00000020: ba08 de3e 185c fd3e
0.6080812 0.4844637 0.3510013 0.6532401 0.5924908 0.47090232 0.43019968 0.6087473
0.43366033 0.49484324

hidden_layer1_u1N.running_var f4 [10]
00000000: 72d7 8239 7df6 5d3b f3fb fd3a 4468 6c3a
00000010: eb0b 563b bc64 173b 927a d03a 849c 873a
00000020: 7fef 453b cbec 3e3b
0.00024956051 0.0033868842 0.0019377455 0.00090182223 0.0032660912 0.0023100814 0.001590567 0.0010346328
0.0030202565 0.0029132839

hidden_layer2_u1.weight f4 [10, 10]
00000000: e5a0 423e 6f60 3b3e be12 24be 7fdd 7dbe
00000010: db4e 6d3e a3fa d7bc 9268 593d ef7b a03d
00000020: 51e7 9d3e a6f1 debd 5d76 823d 9ade 31be
00000030: 7fd8 1bbf 9300 c4bd c60e 91bd 3c15 a23e
00000040: 74b0 863b d86c 03bf 954a 52be 3cd4 983e
00000050: 1964 433e f1d0 053e e363 cb3e 133e af3c
00000060: 5cef da3d 3522 45be 974f 5c3d be13 853d
00000070: fbc7 b13e 1a5f 06bd 7990 89be 0db6 fe3b
00000080: 540b 423d f9d2 8c3e 2a31 a33e b8d9 a03e
00000090: caac 22bd dd34 8ebc 8aad a13d ed6f 403d
000000a0: f7a0 9bbc d8f0 91be cb03 773e 4bfc 97be
000000b0: fe71 ef3e 8478 083e 261c 52be 556a 403d
000000c0: f907 8ebd a0e7 083e cf8b 7e3e 1673 813a
000000d0: 4936 133e 299b 4b3e e083 54be fd0e 8c3d
000000e0: b228 073e da4c e03d 5b83 91bc 6fe9 05be
000000f0: 502e 46be 9fbb 163e ae27 6a3e 808a 41be
00000100: 3804 0f3e 3166 2bbe 5f90 7abe 9407 b43d
00000110: 0ec5 913d 23f9 48be a010 293d 9569 8d3e
00000120: 6bc3 5b3e 48a0 e03c 6ba7 823e 3693 533d
00000130: ff23 dd3d e108 643e d938 573d 79c0 69bd
00000140: 4e24 1b3e 1924 71be ef9f 713e e70c 88be
00000150: 6c68 f6bd 3eeb 133e bd6a 89be fb9d 7bbe
00000160: d90b 6ebe 473d 7abe 6924 51be 16b5 d93d
00000170: a9d4 003b bb0b 9cbe 7a90 13be e1be 853d
00000180: d468 563d cad0 933e 4ebc 8b3e c788 49be
0.19006689 0.18298505 -0.16022775 -0.24791525 0.23174612 -0.02636463 0.05307824 0.078361385
0.30840543 -0.108859345 0.06370232 -0.17370072 -0.6087722 -0.09570422 -0.07082896 0.31656826
0.0041103903 -0.5133796 -0.20536263 0.29849422 0.19081153 0.13067986 0.39724645 0.021391904
0.106901854 -0.1925133 0.05378684 0.06497906 0.34722885 -0.03280554 -0.26868036 0.007773167
0.047374085 0.2750471 0.31873447 0.31416106 -0.039715566 -0.017359192 0.07894428 0.04698174
-0.018997652 -0.28504062 0.2412254 -0.29684672 0.46766657 0.13327223 -0.2051855 0.046976406
-0.069351144 0.13369608 0.2485802 0.0009876217 0.14376177 0.19883408 -0.20753431 0.06838796
0.13199118 0.10952158 -0.01776283 -0.13077329 -0.19353604 0.1472001 0.22866699 -0.1890049
0.13966453 -0.16738202 -0.24469136 0.08790508 0.07117663 -0.19626288 0.04127562 0.27619615
0.21461265 0.027420178 0.25518355 0.051654063 0.10797881 0.22269012 0.05254445 -0.05706832
0.15150568 -0.23548926 0.23596166 -0.26572344 -0.12031636 0.14445207 -0.26839247 -0.24571984
-0.23246707 -0.24437438 -0.20424046 0.106302425 0.0019658005 -0.304777 -0.14410582 0.06530548
0.052346066 0.2887023 0.27292103 -0.19681083

hidden_layer2_u1.bias f4 [10]
00000000: fafa bd3e 26df 743e efe7 10be 7f48 2bbe
00000010: f48b babe eb81 ba3e 60c6 7dbe bde3 0cbf
00000020: 4cc6 613e 41ee c0be
0.37105542 0.2391325 -0.14150976 -0.16726874 -0.364349 0.36427245 -0.24782705 -0.55035
0.220483 -0.37681773

hidden_layer2_u1N.weight f4 [10]
00000000: e08c 6b3f 15b5 6a3f 9a93 7a3f 88a8 753f
00000010: 3688 693f 193d 753f 5032 793f bb32 713f
00000020: 9231 773f 9d3c 7b3f
0.92011833 0.9168256 0.9788147 0.95960283 0.91223466 0.9579635 0.97342396 0.94218034
0.96560013 0.98139364

hidden_layer2_u1N.bias f4 [10]
00000000: 0ce5 413c 72d3 f0bb 4615 0dbd d452 173d
00000010: 6020 08bd 698b fdbc 1c09 11bd 2451 803c
00000020: 949d f9bc cac6 fa3c
0.011834394 -0.007349425 -0.034444116 0.036944225 -0.033234 -0.030950265 -0.035409078 0.01566369
-0.030470647 0.030612368

hidden_layer2_u1N.running_mean f4 [10]
00000000: 9efc 083f 7b10 193f 4076 d53e cce6 cb3e
00000010: 75f8 bb3e bd91 1b3f 8d86 ce3e 313d a43e
00000020: 0a55 1a3f d8d7 cc3e
0.53510463 0.5979077 0.4169178 0.39824522 0.36712995 0.60769254 0.4033703 0.32077935
0.6028601 0.40008426

hidden_layer2_u1N.running_var f4 [10]
00000000: 74f4 8b3c 2b0e 9b3d 4348 2c3d 1fcc 363c
00000010: 252a ad3c 2b2b c43c 0a37 e23c 07e8 b03c
00000020: 3c0d 103d fe16 133d
0.017084338 0.07571062 0.0420611 0.011157065 0.02113826 0.023946365 0.027614135 0.021595014
0.03516887 0.0359106

output_layer_u1.weight f4 [1, 10]
00000000: 0fcf 9d3c 3e41 a3bc dbb9 89be c9c2 ee3c
00000010: ce56 1dbe d2ac 27be e9b4 4fbe fb6d e33c
00000020: 0209 4bbe bd94 3c3e
0.019263772 -0.01992857 -0.2689961 0.029145615 -0.15365145 -0.1637452 -0.20283855 0.027762404
-0.19827655 0.18416114

hidden_layer1_u2.weight f4 [10, 3]
00000000: b330 c0bc 9106 8f3e ac9f 09bf 7af2 073f
00000010: 3a23 e03d 6879 063f 3e0e 99bd 31c5 b0be
00000020: 4d4e 16bd b9c7 13bf 4820 7d3b 0a04 f9be
00000030: 6600 9e3e 80fa 9a3d 2594 ffbd 68b8 cd3e
00000040: 379d 203f ae98 c83e 1e76 a23e 5055 9fbe
00000050: bfc4 e0bd c8af 063f 986f bdbe 4936 d1be
00000060: 1a6c d83e 8236 a43d 2687 12be c373 c9be
00000070: 992f b0be 9dab 133e
-0.023460722 0.27934697 -0.53759265 0.53104365 0.10944219 0.52529 -0.074734196 -0.34525445
-0.036695767 -0.5772663 0.0038623977 -0.48635894 0.3085968 0.0756731 -0.12479428 0.40179753
0.6273989 0.39178985 0.3173074 -0.31119776 -0.10975026 0.5261197 -0.36999202 -0.4086173
0.42269975 0.08018209 -0.14309368 -0.39346132 -0.34411314 0.14420934

hidden_layer1_u2.bias f4 [10]
00000000: b839 743d 6913 133f 4db5 a03e 82bb 0d3f
00000010: ba6c 013e ac51 87be a8b5 c83e 69b2 143d
00000020: 8ec9 f8be 629d e1be
0.059625357 0.5745149 0.31388322 0.5536424 0.12639132 -0.26429498 0.39201093 0.036302958
-0.48591274 -0.44065386

hidden_layer1_u2N.weight f4 [10]
00000000: 743d 813f 1e25 703f 18d1 753f 739e 763f
00000010: ad93 753f 6ad3 7d3f 3411 793f 2884 843f
00000020: 8055 853f 70aa 7e3f
1.0096879 0.93806636 0.96022177 0.96335524 0.9592846 0.9915072 0.97291875 1.0352831
1.0416718 0.99478817

hidden_layer1_u2N.bias f4 [10]
00000000: 8856 9d3e 629c 293e 07ca 8a3e c854 4c3f
00000010: ffd3 0bbe deb5 91be 31f1 cfbe 7a71 be3d
00000020: 3fcb 4a3e a136 d1bd
0.3073008 0.16563562 0.2710726 0.79816866 -0.13655089 -0.28459066 -0.40613702 0.09298988
0.19804095 -0.10215498

hidden_layer1_u2N.running_mean f4 [10]
00000000: efc5 143f d9b9 383f 8fb6 f63e 357d 103f
00000010: 9ad4 163f 3fcd 223f 5a2e 0f3f 5b94 f73e
00000020: d926 e83e 31c0 8b3e
0.5811452 0.7215858 0.48186156 0.5644105 0.58918154 0.6359443 0.559301 0.48355374
0.45342138 0.27295068

hidden_layer1_u2N.running_var f4 [10]
00000000: 0c05 c33a bc53 873a 62bc 1a3b 1c36 d53a
00000010: 5f0f 0c3a ad9c e33b 9ccc 213b 1800 8c3b
00000020: 6655 7f3a 6380 f53a
0.0014878823 0.0010324637 0.002361082 0.0016266736 0.00053428666 0.0069461674 0.0024688607 0.004272472
0.00097402034 0.0018730279

hidden_layer2_u2.weight f4 [10, 10]
00000000: 77d4 5dbe 1f08 96be 05f6 83bd ec8a 413e
00000010: 13b2 793e a154 87be dc28 9a3d 3d6a 213e
00000020: 9b33 0dbe 5d5b ac3e 4b58 0a3e 971a 743c
00000030: c763 3e3e 0025 193e 3f6a 0cbe 25b2 1dbe
00000040: 4d1f 243e 8683 b3bc 2f44 8ebe 4591 323d
00000050: 5625 59be 0c7f 963e 40c1 83be b2f3 053c
00000060: 2f74 9bbc bfee af3e ce78 b9bd 470a b6bd
00000070: c465 a1bb 2dbc 05bf 13b8 95bd 86c9 c5bd
00000080: b285 e5bc 5c6c 08bd f0ce 67be fdc4 7dbe
00000090: d434 183f d725 913e d610 223e 6a78 99be
000000a0: 4560 39bf 25f2 14be f98d 423e d410 0b3e
000000b0: 0590 7b3e 4d82 f0bd 9912 fb3d 46f0 b03d
000000c0: 82b9 a8bd f2ec 75be 8a64 85bd f7da 46bd
000000d0: aac6 babe d901 d8bd d100 4a3e c1d2 d3bc
000000e0: ae63 5c3e b5c4 193e 0eec 253e 8e74 90be
000000f0: 5d04 dabb c6e0 05be c08f 623c 5901 a4be
00000100: 0d82 8e3d fb89 3ebe 08ed c93d 3387 f53c
00000110: 5eec a13e f78d 82be 0529 153e e81a 143f
00000120: 1ac6 9a3e 0e76 0f3e 5996 de3e 06c1 c43c
00000130: cdf3 6ebe 1fc3 3f3e cbab 9f3e b9b9 c13d
00000140: b448 7cbd 70ad 5d3e 6f39 27be 6a11 2abe
00000150: 6cc6 1e3e ea6e 88be 4c69 b13d d967 77bb
00000160: fd20 383e 2e79 5fbe 3c0c e43d 214a e2bd
00000170: ec42 4abe 4d0b 263e 0446 81be c9d6 4bbe
00000180: 3aa6 cebe b80d 54be 5266 1f3e 91b8 a2be
-0.2166308 -0.2930307 -0.06443409 0.1890065 0.24384336 -0.26431754 0.075273246 0.15763183
-0.13789217 0.33663455 0.13510244 0.014898918 0.1859275 0.1495552 -0.13712405 -0.15399988
0.16027565 -0.021913301 -0.27786395 0.04359557 -0.21205649 0.29393804 -0.25733376 0.008175777
-0.0189763 0.34361836 -0.09056245 -0.08888679 -0.0049254615 -0.5224026 -0.073105 -0.09657578
-0.028017852 -0.033306465 -0.22637534 -0.24782176 0.5945561 0.28349182 0.15826735 -0.2997468
-0.7241252 -0.14545496 0.18999471 0.13580638 0.24566658 -0.11743603 0.122594066 0.086395785
-0.08238508 -0.24016169 -0.06513317 -0.048548665 -0.36479694 -0.105472274 0.19726874 -0.025857331
0.215224 0.15016444 0.16203329 -0.28213924 -0.006653352 -0.13074026 0.013828218 -0.32032278
0.06958399 -0.18607323 0.09859663 0.029971695 0.31625646 -0.25498936 0.14566429 0.57853556
0.30229264 0.14009878 0.4347408 0.024017822 -0.2333519 0.18726777 0.31185755 0.09459252
-0.061592773 0.21648192 -0.16330503 -0.16608205 0.1550538 -0.2664712 0.08662662 -0.0037751107
0.17981334 -0.2182357 0.11135146 -0.11049295 -0.19752091 0.16215248 -0.2524873 -0.19906153
-0.40361196 -0.20708358 0.15566376 -0.31781438

hidden_layer2_u2.bias f4 [10]
00000000: cbfb f03e 0e1e da3e fd96 c1be 30ba 5bbe
00000010: fe83 943d 29d4 72bf 1439 743e c999 0e3f
00000020: 2e2c e93e 2c35 67bc
0.47067103 0.42601055 -0.37810507 -0.21457744 0.07251738 -0.9485498 0.23849899 0.5570341
0.4554152 -0.014111798

hidden_layer2_u2N.weight f4 [10]
00000000: e257 763f a5da 703f 8f74 743f 4ae5 7c3f
00000010: 7de8 733f 44a5 713f 05e1 7d3f a24f 793f
00000020: 9e51 713f 9466 733f
0.9622785 0.94083625 0.95490354 0.9878737 0.95276624 0.943928 0.9917148 0.97387135
0.9426516 0.95078397

hidden_layer2_u2N.bias f4 [10]
00000000: d27f 92bd e275 7b3d b5e5 62bd 6d52 93bd
00000010: 8afd 623d 45b3 933d 7b87 8abd 6961 67bd
00000020: d03e 8e3d b0bc 82bd
-0.07153286 0.06139172 -0.055394847 -0.07193456 0.055417575 0.07211927 -0.06764122 -0.056489382
0.06945574 -0.063836455

hidden_layer2_u2N.running_mean f4 [10]
00000000: e6c6 163f e317 203f c821 d33e b609 dc3e
00000010: 6da3 fa3e 3a05 853e 1c56 033f eb06 313f
00000020: a8ee 143f 7dbf 133f
0.58897245 0.6253645 0.4123671 0.4297616 0.4895281 0.2598055 0.5130327 0.6915118
0.5817666 0.5771406

hidden_layer2_u2N.running_var f4 [10]
00000000: fd31 383d b11b c73c e23f 5b3d 6418 283d
00000010: 3a64 393d 482f a13c ba8d d73c e2a5 1b3d
00000020: c239 ec3c 1a03 2f3d
0.044969548 0.024305196 0.05352772 0.041038886 0.0452616 0.019675866 0.026312698 0.037999995
0.028836135 0.042727567

output_layer_u2.weight f4 [1, 10]
00000000: 9f92 5bbe 68d6 5b3e 268b e0bd b98d 98be
00000010: 6bbb d83d af17 ed3d 282c 30be e8b9 2bbd
00000020: 8330 743e c481 76be
-0.2144265 0.21468508 -0.109640405 -0.29795626 0.10582622 0.11576783 -0.17204344 -0.04192534
0.23846631 -0.24072939

hidden_layer1_P.weight f4 [10, 3]
00000000: 6cac 713d 4a4c 3b3e 4280 f9bd 791d cb3e
00000010: 4099 4cbe 71e5 15bd 8360 ecbd 020f df3d
00000020: 8035 ec3d d10b f9be 67e9 a2be c786 c0be
00000030: e6c2 0f3f 57cf 033f 385f 0ebe e24a 71be
00000040: 5aae b33e 2219 973e 3245 06bf 6d3b 833e
00000050: 039c 0c3f 155d 343d 99fa f2be b54f 133e
00000060: 1f63 00bf 95cb ddbd 60e0 1c3e 8f67 903d
00000070: db38 36be 4f78 dcbe
0.059002325 0.1829082 -0.12182666 0.39670923 -0.19980335 -0.036595766 -0.11541846 0.108915344
0.11533642 -0.48641828 -0.31818697 -0.37602827 0.56156766 0.5148825 -0.1390351 -0.23563722
0.35093957 0.29511362 -0.52449334 0.25631276 0.54925555 0.044034082 -0.47456816 0.14385875
-0.50151247 -0.10829846 0.15319967 0.07051002 -0.17795126 -0.43060538

hidden_layer1_P.bias f4 [10]
00000000: d6e2 0bbe 32b6 0ebf ff54 a43e c0d5 04be
00000010: 0d32 19be 3924 cd3e 4e8c 3f3d 03de 1b3e
00000020: cb65 32be ac13 003f
-0.1366075 -0.5574676 0.32096097 -0.12972164 -0.14960499 0.40066698 0.046764664 0.1522141
-0.17421643 0.50030017

hidden_layer1_PN.weight f4 [10]
00000000: 0000 803f 0000 803f 0000 803f 0000 803f
00000010: 0000 803f 0000 803f 0000 803f 0000 803f
00000020: 0000 803f 0000 803f
1.0 1.0 1.0 1.0 1.0 1.0 1.0 1.0
1.0 1.0

hidden_layer1_PN.bias f4 [10]
00000000: 0000 0000 0000 0000 0000 0000 0000 0000
00000010: 0000 0000 0000 0000 0000 0000 0000 0000
00000020: 0000 0000 0000 0000
0.0 0.0 0.0 0.0 0.0 0.0 0.0 0.0
0.0 0.0

hidden_layer1_PN.running_mean f4 [10]
00000000: 0201 053f 1320 bb3e ef7b 173f 7dad aa3e
00000010: 9bc9 273f 79dd 263f ba46 023f fe00 da3e
00000020: 91b4 bc3e 0f8a 163f
0.5195466 0.36547908 0.5917348 0.33335486 0.65542 0.6518169 0.5088917 0.42578882
0.3685651 0.5880441

hidden_layer1_PN.running_var f4 [10]
00000000: 3288 303a 1af7 bd3a 003c 9d39 5ec6 1b3b
00000010: 586d aa3b de99 183b 087c 393b 3a1b 8c3b
00000020: 28ae a33a 9417 263a
0.0006734162 0.0014493198 0.00029990077 0.002376936 0.005201023 0.0023285071 0.0028302688 0.0042757066
0.0012487816 0.0006335911

hidden_layer2_P.weight f4 [10, 10]
00000000: 987f 3fbe 2f3d 1d3e 2900 993e dbdd 5b3c
00000010: 1524 a03d 7723 cf3d 65df a4bc cd11 97be
00000020: 6d55 6fbe 205f 193e 3282 e33d 1a65 74be
00000030: c142 093d a9a5 aabd 0b27 34be 8c2c 513e
00000040: 7454 533e 06d7 2fbb 535a 013e adf6 a0be
00000050: c619 ab3d 9d84 d4bd c95f 07be 4b72 54be
00000060: 5faa 88be 83b7 debd 1aba 8b3d 8b37 923d
00000070: 1f78 7abd 60fc 0abe d6b7 8c3e ea07 023d
00000080: 9711 993e e5f2 333e 15e5 c03d 6e28 8a3e
00000090: f820 a1bd 9680 ce3d c951 eb3c ef5d 863d
000000a0: f90b 2dbe 610d a13c db5a a13c 07f4 84bd
000000b0: a43a 87bd 8ec2 353e e2d5 28be 6c37 183e
000000c0: bd28 903e 9799 553d e2c1 9a3c 862c adbd
000000d0: fb42 39be 30d0 913e 17ca 843c 42cf f0bd
000000e0: a179 943d eb8e 013c 2af8 1d3e f998 0fbe
000000f0: 3e26 27be 1600 0abe 853e 79be 5663 19be
00000100: a7c2 bdbd 7aea 0e3e 5173 1bbe 4dae 263e
00000110: 619a 1c3e a400 633e 7133 98be 5d68 31be
00000120: 4ec8 62be 4918 8cbe 102d fb3d 8e77 8d3e
00000130: 3f72 3cbe 2a4c 7f3e f203 1ebe c33f e5bd
00000140: 5ee7 823e 3fdc 4d3e 1d54 913e 6612 943e
00000150: 84c9 eebd e866 6abe 77a9 dfbc 4c09 1f3e
00000160: d437 673e 6d89 72ba 975b c53d 0966 fd3d
00000170: ef37 ebbc 32e3 15bd e029 6a3e 81ac 68be
00000180: 8ce0 88be 5cd0 9d3e f77b 62be c1a4 ce3d
-0.18701017 0.15355371 0.29882935 0.013419594 0.07819382 0.10114186 -0.020126054 -0.29505768
-0.23372431 0.14977694 0.11108817 -0.23866692 0.033510927 -0.083323784 -0.17593019 0.2042715
0.20637685 -0.0026831045 0.12632112 -0.314382 0.08354525 -0.103768565 -0.13220133 -0.20746724
-0.26692483 -0.10874846 0.068226054 0.071395 -0.061149713 -0.13572836 0.27484006 0.03174583
0.29896232 0.17573126 0.09418694 0.2698397 -0.078676164 0.100831196 0.028725522 0.06560885
-0.16899098 0.0196597 0.019696644 -0.06491857 -0.06602982 0.17749998 -0.1648784 0.14864892
0.2815608 0.052148428 0.018891279 -0.08455758 -0.18091957 0.28479147 0.016209645 -0.11758281
0.072497614 0.007907609 0.15426698 -0.14023198 -0.16323182 -0.13476595 -0.24340256 -0.149793
-0.092656426 0.13956633 -0.15180708 0.16277428 0.15293266 0.22168213 -0.29726747 -0.17324968
-0.22146723 -0.27362278 0.12264454 0.27630275 -0.18402956 0.24931398 -0.15431193 -0.11193802
0.25567144 0.20103548 0.28384486 0.28920287 -0.1165953 -0.22890818 -0.027302487 0.1553089
0.2257989 -0.00092520454 0.0963661 0.12372977 -0.028713195 -0.036593623 0.22867537 -0.22722055
-0.26733816 0.30823028 -0.22117601 0.10090018

hidden_layer2_P.bias f4 [10]
00000000: 3b7f f3bd a334 153d c9cd 84be 0fc2 353e
00000010: aa5f ff3b 4f16 2d3d d7c5 85be a1a9 7d3e
00000020: 0bf0 54be ed5d 85bc
-0.11889502 0.03642715 -0.25938252 0.17749809 0.0077933865 0.042257603 -0.26127502 0.2477174
-0.20794694 -0.016280139

hidden_layer2_PN.weight f4 [10]
00000000: 0000 803f 0000 803f 0000 803f 0000 803f
00000010: 0000 803f 0000 803f 0000 803f 0000 803f
00000020: 0000 803f 0000 803f
1.0 1.0 1.0 1.0 1.0 1.0 1.0 1.0
1.0 1.0

hidden_layer2_PN.bias f4 [10]
00000000: 0000 0000 0000 0000 0000 0000 0000 0000
00000010: 0000 0000 0000 0000 0000 0000 0000 0000
00000020: 0000 0000 0000 0000
0.0 0.0 0.0 0.0 0.0 0.0 0.0 0.0
0.0 0.0

hidden_layer2_PN.running_mean f4 [10]
00000000: 2865 f13e 1e24 023f 2afd de3e 7bb9 0a3f
00000010: d771 003f d788 023f cab9 e13e cb5c 0f3f
00000020: 4eef e63e 44ec fd3e
0.4714749 0.5083636 0.43552524 0.5418927 0.50173706 0.5099005 0.44087058 0.56000966
0.4510445 0.4959432

hidden_layer2_PN.running_var f4 [10]
00000000: 8a01 0d3c 2000 3e3d 5238 1538 2527 703c
00000010: edac 4a3c 6e06 2b3c f2bf b83c 8dec e03b
00000020: 0325 823c d6aa 233d
0.008606324 0.046386838 3.557682e-05 0.01465777 0.01237033 0.010438545 0.022552464 0.0068641366
0.01588679 0.039957844

output_layer_P.weight f4 [1, 10]
00000000: 0bda 7cbe 94fe 3f3e 5f26 21be fcaf 86be
00000010: 036c 833e e1fd 0d3e 01be 29bd 4a70 243e
00000020: 1843 9f3e b024 2a3e
-0.24692552 0.18749458 -0.15737294 -0.2630614 0.25668344 0.13866378 -0.041440967 0.1605846
0.31105876 0.16615558

hidden_layer1_phi.weight f4 [10, 3]
00000000: cdff d83e d113 a2bd 2518 02be 12f8 32bf
00000010: 28ee 4440 68c0 c53e 566d 91be a161 c2bf
00000020: 6f31 8abe 3c2d 1a3d 3935 1f40 c082 b0bc
00000030: 045e 10c0 8a52 c33e 349e d8be 67b7 bc3e
00000040: 2c55 e13d 5630 f33e 0d01 623e c160 943f
00000050: 6f00 0dbf 6e84 083f 8f56 4b40 065c 0c3f
00000060: 0dce 283d 4ca5 17c0 907c fabe 210d 4740
00000070: 17cd f73d f12a 653e
0.4238266 -0.07913936 -0.12704523 -0.69909775 3.077036 0.38623357 -0.2840373 -1.5186044
-0.2699084 0.037640795 2.4876235 -0.021546721 -2.2557383 0.3814891 -0.423082 0.36858675
0.11002573 0.47497815 0.22070713 1.1592027 -0.55078787 0.5332707 3.177158 0.54827917
0.04121213 -2.369464 -0.4892316 3.1101763 0.12099665 0.22379662

hidden_layer1_phi.bias f4 [10]
00000000: 6405 353f 38e5 2a40 3793 83bf c7c6 d63f
00000010: c011 e2bf c7d5 a73b ffad b73f 7f79 22bd
00000020: 4fde 1bc0 9a64 4cc0
0.7071135 2.6702404 -1.0279301 1.6779412 -1.7661667 0.00512192 1.4349974 -0.03966665
-2.4354436 -3.1936402

hidden_layer1_phiN.weight f4 [10]
00000000: 7d0e 8140 e4ba eb3f dfaa cf40 10eb 5640
00000010: 85a5 e940 49dc 8b40 c44b 4c40 15ac 6840
00000020: c7da fc3f f207 ac40
4.0330186 1.841641 6.4896083 3.358097 7.301455 4.3706403 3.1921244 3.635503
1.9754266 5.37597

hidden_layer1_phiN.bias f4 [10]
00000000: 226c fd3f ba18 1140 b2d1 c0bd ea1a 933f
00000010: 6f96 2bc0 4d18 25c0 1694 93bf 0995 333e
00000020: 55ef 04c0 96e7 18c0
1.9798625 2.2671342 -0.09414996 1.1492589 -2.6810567 -2.5796082 -1.1529567 0.17537321
-2.0771077 -2.389135

hidden_layer1_phiN.running_mean f4 [10]
00000000: e8e4 323f 7519 7c3f 3a29 a83d d5b2 773f
00000010: 8b46 b23d ca57 133f 414b 6d3f 5889 693f
00000020: 9c1c 8e3c 8974 613e
0.69880533 0.98476344 0.08210988 0.9675725 0.08704861 0.5755583 0.92692953 0.91225195
0.017347626 0.22017111

hidden_layer1_phiN.running_var f4 [10]
00000000: 0beb 473a 7b03 093a a92b 773b 1fda c93a
00000010: 4f95 3b3b 25a6 5c3a 4664 f43a 6d69 603c
00000020: 86a4 df39 9303 9b3c
0.00076262717 0.0005226654 0.0037715232 0.0015400088 0.002862293 0.00084170914 0.0018645606 0.01369701
0.00042656454 0.018922603

hidden_layer2_phi.weight f4 [10, 10]
00000000: 160a 2cc1 5a98 fc3f 774d 4bc0 2b1a 8a40
00000010: 46b1 3441 a673 d3bf b7bb 5140 d92b 1241
00000020: 185d 80bf d4b0 a7bf d68a 8c3f fefe 6fc0
00000030: 5ac6 9541 51ed d2c0 a89d 4fc0 d4da ecbe
00000040: 4c07 b6c0 ae67 0fc1 1bec 7c40 9f8c 2640
00000050: 9a17 2340 e6db 0340 adec bac1 8c70 c940
00000060: 811e 4ac0 2b7f c040 1c5e ee40 d416 0141
00000070: 23f8 95c0 ab7b 6c40 f528 e43f 4bca 27bf
00000080: 6946 ccbf 1742 243f e650 543f fc50 4c40
00000090: d6e8 5940 accb 093e 033e 71bf 439c 3540
000000a0: e75f 823f b34f 3041 65c0 64bf 3ac7 3440
000000b0: b1b3 47bf 6821 2fc0 fd0b 493e 8142 0a40
000000c0: b929 96c0 0ec1 51c0 1999 b2bf db58 ba3f
000000d0: 8de0 983f 0c83 fb3e 79f7 493f af31 13c1
000000e0: e0d1 98bf b77a 8dbf 2d36 9abe d784 46c1
000000f0: af36 aabf 96d5 0540 6f1e a8c0 499a 4740
00000100: fb12 c73f 2e9c 7dbf fbea 3440 5ef0 8740
00000110: 8302 16c0 d8bd e0bf 0e1d 46c0 5a1a afc0
00000120: 15a8 443f 4c02 fabf de13 3f40 0ae5 a6be
00000130: 530e 50bd 6994 bdbf 10db 8140 a78b b23e
00000140: 9fa5 c0bb 9788 cf3e 36c0 173e df28 573e
00000150: 47a4 9dbe 6235 c2be 9fb2 e4be 66ca f93e
00000160: 592c 8e3c df25 853c eb2d 7c3e 9639 9abe
00000170: 978c 6c3e 60ac adbd 16ef d0be fc21 21bd
00000180: de36 59be ec14 b93e 82c1 77be bf81 0dbf
-10.752462 1.9733994 -3.176603 4.3156943 11.29328 -1.6519668 3.2770822 9.135705
-1.002841 -1.3100839 1.0979869 -3.7499385 18.721851 -6.5914693 -3.2439976 -0.46260703
-5.6883907 -8.962812 3.9519107 2.6023328 2.5483155 2.0602965 -23.365564 6.2949886
-3.1581118 6.0155234 7.448988 8.068073 -4.68654 3.695048 1.7824999 -0.6554305
-1.5958987 0.64163345 0.8293594 3.192443 3.4048362 0.13456601 -0.9423525 2.8376625
1.0185517 11.019458 -0.8935607 2.8246598 -0.7800856 -2.736414 0.1963348 2.160309
-4.692593 -3.2774081 -1.3952972 1.4558367 1.1943527 0.49123418 0.7889324 -9.19963
-1.1939049 -1.1053075 -0.30119458 -12.407432 -1.3297938 2.0911613 -5.253715 3.1187918
1.5552667 -0.99066436 2.826842 4.2480917 -2.3439033 -1.7557936 -3.0955234 -5.4719667
0.7681897 -1.9531951 2.9855876 -0.32596618 -0.05079491 -1.4810916 4.057991 0.3487217
-0.0058791186 0.40533897 0.14819416 0.21011685 -0.30789396 -0.37931353 -0.44667527 0.4878723
0.017355131 0.01625341 0.24626891 -0.3012206 0.23100506 -0.084801435 -0.40807408 -0.03933905
-0.21212336 0.36148775 -0.24194911 -0.552761

hidden_layer2_phi.bias f4 [10]
00000000: 655f 8fbf 7b38 29bd 140e 18bf 83b9 79bf
00000010: 82c8 3b40 8de7 ea3f 3caf 57be f9bf 13c0
00000020: 15dd 5bbf 66ef d4bf
-1.1200987 -0.04131363 -0.5939648 -0.97548693 2.934113 1.8351914 -0.2106294 -2.308592
-0.8588422 -1.6635559

hidden_layer2_phiN.weight f4 [10]
00000000: 0194 8640 b71d 3240 1377 1440 b746 4940
00000010: a03a 3640 f7e8 1940 53b2 2540 9742 6b40
00000020: bcc3 3540 3444 2f40
4.205567 2.7830637 2.3197677 3.144941 2.8473282 2.404844 2.589009 3.6759393
2.8400717 2.7385378

hidden_layer2_phiN.bias f4 [10]
00000000: bbeb ce3f 64ff acbf 8ca8 943f f586 d43f
00000010: a4f1 afbf ad01 a4bf adfe da3f dc4a b43f
00000020: 8996 903f cf4a 933f
1.6165689 -1.3515439 1.1613936 1.6603686 -1.3745618 -1.2813011 1.7108971 1.4085345
1.129594 1.1507205

hidden_layer2_phiN.running_mean f4 [10]
00000000: 9308 ca3e c1d4 b43e 43ec 1d3f f90d b13e
00000010: 739f 5e3f 1535 2c3f 5984 293f 0bf5 383e
00000020: f1b4 593f a5d7 243f
0.39459667 0.35318568 0.6168863 0.34580973 0.8696205 0.67268497 0.6621757 0.18062226
0.8504172 0.6439155

hidden_layer2_phiN.running_var f4 [10]
00000000: 1753 733e 165a 683e 3c22 703e 1622 603e
00000010: af55 e43d 342b 5e3e fe80 603e b225 123e
00000020: 21eb 3c3d 07b7 033e
0.23762165 0.22690615 0.2345056 0.21888003 0.11149155 0.21696168 0.21924207 0.14272192
0.046122674 0.12862788

output_layer_phi.weight f4 [1, 10]
00000000: 2629 9bc0 d257 dd3f 20c1 08c0 9e8a f1bf
00000010: c1ca cd40 5216 fe3f 052c f3bc bb3e 89c0
00000020: a04b ecbf 095f edbf
-4.848773 1.7292426 -2.1367874 -1.8870428 6.431 1.9850562 -0.029684076 -4.2889075
-1.8460579 -1.8544627

hidden_layer1_m_D.weight f4 [10, 3]
00000000: 4db5 8fbe 3f58 83be baab 633d c7a4 d2be
00000010: 1718 b73e d9f9 a1be 033f 123f f85b f9be
00000020: a8f8 adbd 1fcf 453e 14e1 823c c32a 33be
00000030: 29af d4bc 226b 623e 9aa2 913e ef0f b2be
00000040: a0e0 7abe c570 893e 1ccf 4dbd db25 f5be
00000050: 24ef a33e fdc7 bfbc 6561 36be 2524 3abe
00000060: 0994 09bf ef2b cabe 4a59 103f 473e c33e
00000070: ce2c 05be 06d3 e7bd
-0.2806801 -0.25653264 0.055583693 -0.4114134 0.35760567 -0.3163593 0.571274 -0.4870298
-0.08494693 0.19317292 0.015976466 -0.17496781 -0.02596243 0.2211118 0.28444368 -0.3477778
-0.2449975 0.2684385 -0.050246343 -0.47880444 0.32018387 -0.023410792 -0.1781059 -0.1817785
-0.5374151 -0.39486644 0.56386244 0.3813345 -0.13005373 -0.113195464

hidden_layer1_m_D.bias f4 [10]
00000000: b53b 913e 5324 513e 3109 bbbe 5baf 663e
00000010: f811 ad3d d6de 063f 9403 0c3f 52f8 3a3e
00000020: b376 113f 6842 433d
0.28365865 0.20424013 -0.3653045 0.2252783 0.08450693 0.5268377 0.5469296 0.18258789
0.56821746 0.04767075

hidden_layer1_m_DN.weight f4 [10]
00000000: 0000 803f 0000 803f 0000 803f 0000 803f
00000010: 0000 803f 0000 803f 0000 803f 0000 803f
00000020: 0000 803f 0000 803f
1.0 1.0 1.0 1.0 1.0 1.0 1.0 1.0
1.0 1.0

hidden_layer1_m_DN.bias f4 [10]
00000000: 0000 0000 0000 0000 0000 0000 0000 0000
00000010: 0000 0000 0000 0000 0000 0000 0000 0000
00000020: 0000 0000 0000 0000
0.0 0.0 0.0 0.0 0.0 0.0 0.0 0.0
0.0 0.0

hidden_layer1_m_DN.running_mean f4 [10]
00000000: 72cb f03e d31b 163f 736a bb3e dd94 153f
00000010: 45a3 123f 1b64 063f af5b 023f a6cf fe3e
00000020: ce90 f23e e926 073f
0.47030216 0.58636206 0.36604652 0.5843027 0.5728038 0.524965 0.5092115 0.49767798
0.47376102 0.5279375

hidden_layer1_m_DN.running_var f4 [10]
00000000: 1b0d d33a 0f76 5a3b 90ae b83b 3e33 3d39
00000010: c98e 783a 55c3 dd3a de12 933b 6a2d 263a
00000020: 9ee1 893b 3a75 933a
0.0016101928 0.0033334529 0.005636044 0.00018043534 0.0009481726 0.0016919175 0.004488333 0.00063391647
0.004207804 0.0011250146

hidden_layer2_m_D.weight f4 [10, 10]
00000000: ba8f 91bc 7b87 1abe a411 533d 1700 5b3e
00000010: 1055 573d 18b5 8ebe bee8 83be c2a5 373e
00000020: d679 f03d 2d8b da3c be23 59bd c605 28bc
00000030: c182 ca3d fbf8 c33d c661 073e 5d51 dabd
00000040: 0eb5 0bbe ae11 533c 2876 4fbe 78e1 1f3e
00000050: eecd 6fbc 190a 613e 2924 0e3e 30a4 ccbb
00000060: c412 76be d04e 333e 45ca 383e 1077 7dbe
00000070: 9796 ef3d b8ee 713e d29f 823d e6cf 903e
00000080: 2879 8e3d 94bc 143e ffff 2cbe 37ac 8fbe
00000090: 4a97 033e d65e 1cbd 170b 933e 4f21 983e
000000a0: ebb1 8cbe 5a5f 93be 0569 233e f227 783e
000000b0: dbd3 6a3e 997f 5bbe f742 2d3e 750c 7fbd
000000c0: 9e3a 543d 1762 09be 544e 783d f3eb 9fbe
000000d0: f027 083e 63ca 80be 19b7 28be d473 51be
000000e0: b5a8 513c 5d74 9dbe 87dd 76be 861d 45be
000000f0: 64c3 8e3d 6d98 ff3d 9f50 28be c214 8bbe
00000100: 4f1c 27be 1ab3 ebbb a698 02be b998 65be
00000110: 034d 6e3e 0cc6 8cbd 19ed a5bd a2da 393e
00000120: dbfe adbd ee3a f7bd 57e9 283e c383 a3bd
00000130: 7db9 40be e503 7b3d a80c 5fbd 534f 983e
00000140: 9d61 823e 6f27 0b3e 70e9 21bd 3e18 293e
00000150: 62e7 83be 9fc7 2e3e 7544 003b 922b 563c
00000160: 252b 8abe b63b 0b3e 174a 673d 3a34 263e
00000170: 27eb 17bd 5d87 94be 4e3c 97be a1d2 3e3e
00000180: 7f85 1f3e c46e 57be 4b13 c53d c9c6 aa3d
-0.01776873 -0.15090744 0.051530495 0.21386753 0.052571356 -0.2787254 -0.25763506 0.17934325
0.11741988 0.026677692 -0.053012602 -0.010255283 0.098882206 0.09568974 0.13220891 -0.1066005
-0.13643286 0.012882633 -0.20259917 0.15613353 -0.0146365 0.21976508 0.13880982 -0.0062451586
-0.24030596 0.17510533 0.1804591 -0.2475245 0.116986446 0.2362622 0.063781396 0.28283614
0.069567025 0.14525062 -0.1689453 -0.28061077 0.12850681 -0.03817638 0.28719398 0.29712912
-0.2747949 -0.28783685 0.1595803 0.24233988 0.22932379 -0.21435393 0.16920076 -0.06226774
0.051813714 -0.13416325 0.060621575 -0.31234702 0.13296485 -0.2515441 -0.16476096 -0.20454341
0.012796571 -0.3075284 -0.24107943 -0.19249544 0.069708616 0.12480245 -0.16437005 -0.27164274
-0.16319393 -0.0071929814 -0.12753543 -0.2242154 0.23271565 -0.06873712 -0.081018634 0.18149808
-0.084958754 -0.12071787 0.16495262 -0.07984116 -0.18820758 0.06128301 -0.05445543 0.2974802
0.25465098 0.13589261 -0.039529264 0.16513154 -0.2576247 0.17068337 0.0019572054 0.013071911
-0.26986042 0.13596997 0.056467142 0.1623086 -0.037089493 -0.29009524 -0.29538196 0.18635036
0.15578268 -0.21038347 0.096228205 0.083386965

hidden_layer2_m_D.bias f4 [10]
00000000: d61d 06be 9c1e 89be b80d 923e 093d 0b3e
00000010: 80f9 34bd 0b48 9bbb cfd1 583e 9f44 293e
00000020: 4653 79be 828b 58be
-0.13097319 -0.26781166 0.28526092 0.13597502 -0.044183254 -0.004738813 0.21173786 0.16530083
-0.24348173 -0.21146968

hidden_layer2_m_DN.weight f4 [10]
00000000: 0000 803f 0000 803f 0000 803f 0000 803f
00000010: 0000 803f 0000 803f 0000 803f 0000 803f
00000020: 0000 803f 0000 803f
1.0 1.0 1.0 1.0 1.0 1.0 1.0 1.0
1.0 1.0

hidden_layer2_m_DN.bias f4 [10]
00000000: 0000 0000 0000 0000 0000 0000 0000 0000
00000010: 0000 0000 0000 0000 0000 0000 0000 0000
00000020: 0000 0000 0000 0000
0.0 0.0 0.0 0.0 0.0 0.0 0.0 0.0
0.0 0.0

hidden_layer2_m_DN.running_mean f4 [10]
00000000: 5412 f03e eaae e03e cd35 113f 1063 083f
00000010: 3eeb fa3e 6466 ff3e 0a56 0c3f 80ec 093f
00000020: e6d9 e13e 9a48 e73e
0.46888983 0.4388345 0.5672272 0.5327616 0.490076 0.49882805 0.54818785 0.53876495
0.44111556 0.45172578

hidden_layer2_m_DN.running_var f4 [10]
00000000: f20c 3c3c 0c75 9e3c d927 483c c235 113c
00000010: f0ac a03c f9b3 cb3a 34cd af3c a3da 7f3c
00000020: 77d4 e13b d24b b13c
0.011477696 0.019342922 0.012216532 0.0088629145 0.019613713 0.0015541307 0.021460153 0.015616092
0.006891783 0.0216426

output_layer_m_D.weight f4 [1, 10]
00000000: eb62 963e 75f2 b6bd 7b06 393e 7465 7a3e
00000010: 5efa 3a3e 4944 1cbe 38b4 8cbd d907 9bbd
00000020: d3fe a0be 287d ac3d
0.29372343 -0.08932964 0.18068878 0.24452764 0.1825957 -0.15260424 -0.068703115 -0.07569856
-0.31444415 0.08422309
