Diffuse_interface_Bubble_PINN_ver1/NNlayers_Bubble_0.pt (torch, 29422 bytes, 65 tensors)

hidden_layer1_u1.weight f4 [10, 3]
0	0xc17dde5c	-15.866787
1	0xbf5c12ac	-0.8596599
2	0xc11f3188	-9.949593
3	0x417c01eb	15.750468
4	0xc101ffad	-8.124921
5	0x3f039c7a	0.5141064
6	0x41b118fe	22.137203
7	0xc097d22c	-4.7444057
8	0x3d7a0d28	0.061047703
9	0xc14365e3	-12.212375
10	0xc0162171	-2.345791
11	0xc107ab61	-8.479341
12	0xc0c3566f	-6.104301
13	0xc081ed36	-4.0602064
14	0x3fbbbee8	1.4667635
15	0xc06a8f3b	-3.664992
16	0xc02d00c2	-2.7031713
17	0xbd7bffd1	-0.061523262
18	0x3fcdd801	1.6081544
19	0x414d213d	12.820615
20	0xbf1946ad	-0.5987347
21	0x4066c506	3.6057754
22	0xc100ae0f	-8.042495
23	0x3ebf69bd	0.3738536
24	0xc0f9def9	-7.8084683
25	0xc1d34342	-26.40784
26	0x415c6f89	13.77723
27	0xc0e510f3	-7.158319
28	0x41058363	8.344577
29	0xbf541c34	-0.82855535

hidden_layer1_u1.bias f4 [10]
0	0x40cd7b23	6.4212813
1	0x40099c69	2.1501715
2	0xc08c0e35	-4.3767343
3	0x40adc915	5.430796
4	0xc02502f8	-2.5783062
5	0xbfdb0ece	-1.7113893
6	0xbed0ee76	-0.4080693
7	0xc0463552	-3.0970044
8	0xc02089de	-2.5084147
9	0x410b2524	8.696568

hidden_layer1_u1N.weight f4 [10]
0	0x401e9f12	2.478459
1	0x40ab0a88	5.3450356
2	0xc0d22eee	-6.5682287
3	0x3f7dbec1	0.9911919
4	0xc07e8a1a	-3.977179
5	0x40c6d44a	6.213414
6	0x4095e702	4.684449
7	0x404d9019	3.21192
8	0x40400a43	3.0006263
9	0x4097bacc	4.7415524

hidden_layer1_u1N.bias f4 [10]
0	0xbebc1a24	-0.36738694
1	0xc005e9fc	-2.0924063
2	0x407a1b88	3.9079304
3	0x3f8cf07e	1.1010892
4	0xc0497433	-3.1477172
5	0xbf9bda33	-1.2175964
6	0x3f4b0433	0.7930328
7	0xc010aae0	-2.2604294
8	0xbe67b2d6	-0.22626814
9	0x3c3b0bcd	0.011416388

hidden_layer1_u1N.running_mean f4 [10]
0	0x3e0c6323	0.13709693
1	0x3f1d218c	0.61379313
2	0x3f12fa17	0.57412857
3	0x3db95180	0.09048748
4	0x3ba43f43	0.005012424
5	0x3c2e09dc	0.010622468
6	0x3f742c77	0.9538035
7	0x3d0c209d	0.03421079
8	0x3d78c9fb	0.0607395
9	0x3f7ef134	0.99586797

hidden_layer1_u1N.running_var f4 [10]
0	0x3d80cea8	0.062894166
1	0x3e1c2174	0.15247136
2	0x3e301e6f	0.1719911
3	0x3d1c3d6a	0.038144507
4	0x39864f98	0.00025617774
5	0x39c40027	0.00037384147
6	0x3bfed6f7	0.0077770907
7	0x3bd6cf04	0.00655544
8	0x3d0ff2db	0.035143714
9	0x39a696bc	0.00031774293

hidden_layer2_u1.weight f4 [10, 10]
0	0x3ff6fb0c	1.9295363
1	0x3d9b6965	0.07588462
2	0xc156674c	-13.400219
3	0xc17ebdbb	-15.921321
4	0x4120b085	10.043096
5	0x401c2d4a	2.4402642
6	0x4035ab3e	2.8385768
7	0x4142d69d	12.177396
8	0xc09ac729	-4.8368115
9	0xc2152130	-37.28241
10	0xc11d7bd5	-9.842732
11	0x411da2e7	9.852271
12	0x412d45c3	10.829532
13	0xbf407575	-0.75179225
14	0xc1ae9544	-21.822884
15	0xc0cb7e10	-6.3591385
16	0xc0363f67	-2.8476198
17	0xc0c5572c	-6.166891
18	0x413c65f5	11.774892
19	0x40b7184f	5.7217174
20	0x40b0de35	5.527125
21	0x3f058438	0.52154875
22	0xc181d936	-16.23106
23	0xc0aec6ec	-5.4617825
24	0x414f77a4	12.966709
25	0x3cab7245	0.020928511
26	0xc011a2b1	-2.275555
27	0x40161082	2.3447576
28	0x41187837	9.529349
29	0xc14c4f1c	-12.769314
30	0xbfb513bb	-1.4146646
31	0xc08107f6	-4.032222
32	0xc168f354	-14.559406
33	0xbfb7b3fb	-1.4351801
34	0x41344982	11.267946
35	0x3fb0f48a	1.3824627
36	0xbf16ad2c	-0.5885799
37	0x4093e5bf	4.621795
38	0x41195a18	9.584496
39	0xc1bed2d1	-23.852938
40	0xbf836ecb	-1.0268186
41	0xc06cc824	-3.6997156
42	0xc01dc0bd	-2.4648888
43	0x4003aa95	2.0572865
44	0x3f587f64	0.8456938
45	0xc026e146	-2.6074996
46	0xbfa372da	-1.2769425
47	0xbf87d883	-1.0612949
48	0x3d03db2f	0.03219145
49	0xbf14453b	-0.5791814
50	0x41306538	11.024712
51	0xbfb42303	-1.4073185
52	0xc0d07035	-6.513697
53	0xc0ae7721	-5.452042
54	0x411c0adc	9.752651
55	0xbf8dd046	-1.1079185
56	0x4040b8b4	3.0112734
57	0x412ff86d	10.998151
58	0xbfa4f86b	-1.2888311
59	0xc1adfe8d	-21.749292
60	0xc0d23cd2	-6.5699244
61	0xc08cf259	-4.4045835
62	0x41b67405	22.80665
63	0x41189433	9.536181
64	0xc108a9c1	-8.541444
65	0x4109cd50	8.612625
66	0x406b5e2e	3.6776233
67	0xc080f38e	-4.029731
68	0x410144d3	8.079303
69	0x41ae4105	21.781748
70	0x3ecc3c29	0.3988965
71	0x3dcf908f	0.10134994
72	0x40ceaa73	6.458307
73	0x403ddfe4	2.9667902
74	0xc120efcb	-10.058543
75	0x405cea7b	3.4518116
76	0x40559f24	3.3378382
77	0xbf3076dc	-0.68931365
78	0xbef6d7b8	-0.48211455
79	0x405781f9	3.367308
80	0xbc37190a	-0.011175403
81	0xc0efe239	-7.496365
82	0xc17fd3c4	-15.989201
83	0xc09ccc2b	-4.899923
84	0x4153ca78	13.236931
85	0xbf84687c	-1.0344386
86	0x40224c99	2.5359251
87	0x411b6552	9.712236
88	0x408f35ce	4.475318
89	0xc1b699b9	-22.82506
90	0x408f33f3	4.4750915
91	0x414b2d28	12.698524
92	0x41072874	8.447376
93	0xc0da64d5	-6.8248086
94	0xbdb2b961	-0.087267645
95	0x4143ef5a	12.245935
96	0x401504d5	2.32842
97	0xc071b4f8	-3.7766705
98	0x3ea352f2	0.3189922
99	0xc1120bb2	-9.127855

hidden_layer2_u1.bias f4 [10]
0	0xc10eff33	-8.9373045
1	0x4192e58d	18.362085
2	0xc0d89892	-6.7686243
3	0xc121d4c5	-10.114446
4	0x401b5824	2.4272547
5	0xc120e720	-10.056427
6	0xc04794e8	-3.1184635
7	0x4068ab46	3.6354537
8	0xc127635a	-10.461756
9	0xbf898cb6	-1.0746067

hidden_layer2_u1N.weight f4 [10]
0	0x3f8198c3	1.0124744
1	0x3e5c8669	0.21535648
2	0x3ff1480f	1.8850116
3	0x3fbfa1e7	1.4971284
4	0x404fab92	3.2448468
5	0x407920f5	3.8926365
6	0xbec00cb0	-0.3750968
7	0x4044c95e	3.0747905
8	0x400d9d03	2.2127082
9	0xbf8d8ee2	-1.1059229

hidden_layer2_u1N.bias f4 [10]
0	0xbfc2db11	-1.5223104
1	0x3e0090ff	0.12555312
2	0xc00b750f	-2.1790197
3	0xc03508c2	-2.8286595
4	0x3fc61ace	1.547693
5	0xc05f15a1	-3.4856951
6	0xbc82fb3a	-0.015988935
7	0x400d4d67	2.2078493
8	0xc0386559	-2.8811858
9	0xbf99b613	-1.200869

hidden_layer2_u1N.running_mean f4 [10]
0	0x3db053a7	0.086097054
1	0x3f794b8d	0.97380906
2	0x3dbf21c6	0.09332614
3	0x3dbf2fc5	0.09335283
4	0x3f3f9f59	0.7485252
5	0x3d90b0a1	0.07064939
6	0x3f21eb8c	0.6325004
7	0x3f6c9970	0.9242163
8	0x3da07286	0.078343436
9	0x3e9ab6a8	0.3021748

hidden_layer2_u1N.running_var f4 [10]
0	0x3d9c708e	0.076386556
1	0x3cc86dcd	0.02446642
2	0x3da9e5be	0.08295773
3	0x3da8f21a	0.08249302
4	0x3e2ac22b	0.16675632
5	0x3d8332eb	0.06406196
6	0x3e612220	0.21985674
7	0x3d89c4df	0.06727003
8	0x3d8f567e	0.06998919
9	0x3e4cf889	0.20016684

output_layer_u1.weight f4 [1, 10]
0	0xbecf05bb	-0.4043406
1	0x3e15a567	0.14613877
2	0xbf8d95bb	-1.1061319
3	0x3fa32ef6	1.2748706
4	0xc06414e3	-3.5637748
5	0x408bcef3	4.3690124
6	0xbe33658c	-0.17519206
7	0x4034072d	2.812938
8	0x3fe6e4a4	1.8038526
9	0x3f8e3830	1.1110897

hidden_layer1_u2.weight f4 [10, 3]
0	0x3f171def	0.5903005
1	0xc0ce2fb1	-6.4433217
2	0xbe3a7f4b	-0.18212621
3	0xc11269d7	-9.15084
4	0x411b3507	9.700446
5	0x3de35ba3	0.11101463
6	0xbfe901d1	-1.8203679
7	0x409736bd	4.725432
8	0xc1117e40	-9.093323
9	0x3dcd9bf6	0.10039513
10	0x40157719	2.3353941
11	0x3ddda5ed	0.108226635
12	0xc1a72495	-20.892862
13	0x40a02e62	5.005662
14	0xbe148a7d	-0.14505954
15	0x410a9ed9	8.663781
16	0xc0c42c70	-6.1304245
17	0x3f986636	1.1906192
18	0xc1842390	-16.517365
19	0x409dd4b2	4.932214
20	0xbf22d22a	-0.63601935
21	0xbe808146	-0.25098628
22	0xc11f1d09	-9.944589
23	0xc0379183	-2.8682563
24	0xc0f49668	-7.64336
25	0xc0a2ca05	-5.0871606
26	0x3e9a12e1	0.30092528
27	0x401cdb9a	2.4509034
28	0x4108af2a	8.542765
29	0xbe5f33e6	-0.21797141

hidden_layer1_u2.bias f4 [10]
0	0x4001d26c	2.0284681
1	0x3fff5d03	1.995026
2	0x410cfa26	8.811071
3	0xc09dc168	-4.929859
4	0x409188b6	4.5479383
5	0xc11272b2	-9.153002
6	0x400b988c	2.1811857
7	0x40b57635	5.6706796
8	0x3fcec3f8	1.6153555
9	0x3fe5186f	1.7898082

hidden_layer1_u2N.weight f4 [10]
0	0x402a0af5	2.6569188
1	0x3ff23e72	1.8925307
2	0x402707b7	2.6098459
3	0x408ab30a	4.3343554
4	0x40630d90	3.5477028
5	0x40501086	3.2510085
6	0x40f6912c	7.705221
7	0x3ff3662d	1.9015557
8	0x40af93c4	5.486788
9	0x3fe05a85	1.7527624

hidden_layer1_u2N.bias f4 [10]
0	0xc072bd26	-3.7927947
1	0x40573644	3.362687
2	0x3fe5801e	1.7929723
3	0x401db71f	2.4643018
4	0x403c4521	2.9417193
5	0xc0999304	-4.7991962
6	0x40882c8e	4.255439
7	0xc028326b	-2.6280773
8	0x3f811eca	1.0087521
9	0x3f90a7db	1.1301225

hidden_layer1_u2N.running_mean f4 [10]
0	0x3e56b385	0.20966919
1	0x3f545e35	0.8295625
2	0x3f7946e7	0.97373813
3	0x3e0cee1e	0.1376271
4	0x3eed7b75	0.46383253
5	0x3c4cf00a	0.012508402
6	0x3ed8e402	0.42361456
7	0x3e7783af	0.24171327
8	0x3d5f8f35	0.054579932
9	0x3f7e43b8	0.9932208

hidden_layer1_u2N.running_var f4 [10]
0	0x3d976cce	0.073938
1	0x3da8afbe	0.08236645
2	0x3bfeed44	0.007779749
3	0x3c7296d1	0.014806465
4	0x3e30bfa7	0.1726061
5	0x3b1b86b3	0.002373141
6	0x3e1f951b	0.15584223
7	0x3de425d6	0.11140029
8	0x3c906384	0.017625578
9	0x398a9be1	0.0002643755

hidden_layer2_u2.weight f4 [10, 10]
0	0x40f68f46	7.7049894
1	0xc0915888	-4.542057
2	0xbfe7a738	-1.8097906
3	0xbff1137d	-1.8834072
4	0xbfed77f1	-1.8552228
5	0x40c2eca7	6.091388
6	0x3ebba4f3	0.36649284
7	0x4080b355	4.021891
8	0xbfcc2eb4	-1.5951753
9	0xbe3ab638	-0.18233573
10	0x418a889b	17.316702
11	0xbf59eb32	-0.85124505
12	0x3fed23f7	1.8526601
13	0xc054703d	-3.3193505
14	0x405f9b4a	3.493853
15	0x41aaa74a	21.331684
16	0xc187c7eb	-16.972616
17	0x405a1704	3.4076548
18	0xc1707c18	-15.030296
19	0xc11fb053	-9.980548
20	0xc10e551f	-8.8957815
21	0xc10009d3	-8.0023985
22	0xc0a8ed8d	-5.278998
23	0x418c998d	17.574976
24	0x40054e45	2.0829022
25	0xc0cca742	-6.395417
26	0x4156b844	13.419987
27	0x402cf5d1	2.7025034
28	0xc087a96f	-4.239433
29	0x41bd3b96	23.654095
30	0x41344644	11.267155
31	0x3f43d83e	0.76501834
32	0xc14aeaa5	-12.682286
33	0xc0b88cb7	-5.767177
34	0x4120d45e	10.051847
35	0x4148fda6	12.561926
36	0xc114fe1f	-9.312041
37	0x409449a7	4.633991
38	0xc14d92ac	-12.848309
39	0x40e88436	7.266139
40	0x3fc11f95	1.5087763
41	0xbe3a5b88	-0.18198979
42	0xbfcf0101	-1.6172181
43	0xbfff1a6b	-1.9929937
44	0xbf4df3c0	-0.8045006
45	0x40c628d1	6.1924825
46	0xc010578a	-2.255343
47	0xbf6d803f	-0.92773813
48	0xc0794f21	-3.8954546
49	0x3fcaaa62	1.5833247
50	0xc088ae50	-4.2712784
51	0xc0515a8f	-3.2711523
52	0xbd355e10	-0.044279158
53	0x40f61d41	7.691071
54	0xc1158d26	-9.34696
55	0xc080b059	-4.021527
56	0x404b0a14	3.1724901
57	0x3ec85060	0.3912382
58	0xbed49e4e	-0.41527027
59	0xbf544f1c	-0.8293321
60	0x4058843f	3.3830717
61	0xc0c41b8f	-6.128364
62	0xc0ba79a2	-5.8273478
63	0xbf96adb0	-1.1771755
64	0xc02b4a9c	-2.6764288
65	0x418f820f	17.938505
66	0xc0cd7d2b	-6.4215293
67	0xbfd101f7	-1.6328725
68	0xc166e65c	-14.43124
69	0x4025d0c9	2.5908682
70	0xbfec7345	-1.8472677
71	0x40da9434	6.830591
72	0x4110bfe8	9.046852
73	0xc0bf7650	-5.9831924
74	0x40939c37	4.612819
75	0xc1237379	-10.215692
76	0x408b0dab	4.3454185
77	0xc1c05186	-24.039806
78	0x414d560d	12.8335085
79	0xbf48d892	-0.7845546
80	0x401605f9	2.3441145
81	0xbee0fa6b	-0.43941054
82	0xbe652b80	-0.22379875
83	0x40b2c976	5.5870924
84	0x405572e2	3.335137
85	0x40474d2e	3.1140857
86	0xc038d05d	-2.8877175
87	0x412a9f62	10.663912
88	0xc09594a5	-4.674395
89	0xc093fab3	-4.624353
90	0xc16f7b6a	-14.96763
91	0x408678bd	4.2022386
92	0x4153f76b	13.247905
93	0x404497b1	3.0717585
94	0x40c995a1	6.2995152
95	0xc13de3a0	-11.8680725
96	0x41121118	9.129173
97	0x40d3284b	6.5986686
98	0x40a22562	5.0670633
99	0xc0129955	-2.2906086

hidden_layer2_u2.bias f4 [10]
0	0xc089bbaa	-4.304158
1	0x3fbde478	1.4835348
2	0xc08e9a13	-4.456308
3	0xc0587aba	-3.3824906
4	0xbf0ff4bc	-0.5623281
5	0xc02edf7a	-2.73239
6	0xc0d4df2a	-6.6522417
7	0x4104d0b6	8.300955
8	0xc130e259	-11.055261
9	0x4088cc6d	4.2749543

hidden_layer2_u2N.weight f4 [10]
0	0x4020859b	2.5081546
1	0x406ad78f	3.6694067
2	0x3f21d072	0.6320869
3	0x3f851d9b	1.039966
4	0xbff45e27	-1.9091233
5	0x405df280	3.467926
6	0x4016d500	2.3567505
7	0x3f70ed3d	0.94111997
8	0x3f92fd86	1.1483619
9	0x3f59770f	0.84947294

hidden_layer2_u2N.bias f4 [10]
0	0xc01d387d	-2.4565728
1	0xc0698d85	-3.6492627
2	0x3ee2a776	0.44268388
3	0xc01a5fc0	-2.412094
4	0xbfaebeaa	-1.3651936
5	0x402931ec	2.643672
6	0xc02dec3a	-2.7175431
7	0x3fc680ba	1.5508034
8	0xbfdb2f18	-1.7123747
9	0x400953b7	2.1457345

hidden_layer2_u2N.running_mean f4 [10]
0	0x3d6acb3a	0.05732272
1	0x3d8e8a61	0.069599874
2	0x3f536f5f	0.82591814
3	0x3d85fbcf	0.06542169
4	0x3d66c6b6	0.05634185
5	0x3f37e935	0.7184022
6	0x3d5dd5c5	0.054158945
7	0x3f72680a	0.9469
8	0x3d3c7239	0.04600737
9	0x3f6e3ae4	0.9305861

hidden_layer2_u2N.running_var f4 [10]
0	0x3d5698f4	0.05239196
1	0x3d83d29b	0.06436654
2	0x3e0dbe51	0.13842131
3	0x3d721d40	0.059109926
4	0x3d522b49	0.05131081
5	0x3e463d67	0.1935936
6	0x3d4d7bf8	0.050167054
7	0x3d4bd0d7	0.049759712
8	0x3d2a2d7d	0.041547287
9	0x3d82b480	0.06382084

output_layer_u2.weight f4 [1, 10]
0	0xbfc9d111	-1.5766927
1	0x40300073	2.7500274
2	0x3e7d1e1a	0.24718514
3	0x3eb16ebe	0.34654802
4	0x4014befc	2.3241568
5	0xc054fa49	-3.3277762
6	0x3fd87a97	1.6912411
7	0x3e66bc0a	0.22532669
8	0xbf17fc0e	-0.5936898
9	0x3e621735	0.22079165

hidden_layer1_P.weight f4 [10, 3]
0	0xbf541903	-0.82850665
1	0xbf4a745c	-0.790838
2	0xc0f08a00	-7.5168457
3	0x3ff677ac	1.9255271
4	0x404df838	3.218275
5	0xc10ba06a	-8.726664
6	0x402c7603	2.6947029
7	0x40b65437	5.69778
8	0x410f8565	8.970067
9	0xbec59a19	-0.3859413
10	0x4111924c	9.098217
11	0x41323126	11.136999
12	0x40347716	2.8197684
13	0x40f81ee7	7.7537723
14	0xc024e492	-2.5764508
15	0xc11067e2	-9.025362
16	0x40464bc2	3.098374
17	0xb9a00785	-0.0003052318
18	0x40be6e69	5.950978
19	0x3f9de624	1.2335858
20	0xc0d9d1af	-6.806846
21	0x3eb51194	0.35364974
22	0xc112c8c8	-9.174019
23	0xc13f5fec	-11.960918
24	0x3f03831e	0.51371944
25	0x410d5995	8.834371
26	0x413ed2bd	11.92645
27	0xc11d21b0	-9.8207245
28	0xc13d12e0	-11.817108
29	0x3da7ced1	0.08193744

hidden_layer1_P.bias f4 [10]
0	0xc1465541	-12.395814
1	0xc0fd299f	-7.9113307
2	0xbea3544a	-0.31900245
3	0x3f2954c7	0.66144985
4	0x4110d787	9.052619
5	0x4125f88c	10.37318
6	0xc0e99307	-7.2991977
7	0xbf07f039	-0.53100926
8	0x3f201d83	0.6254503
9	0x3e2cd636	0.1687859

hidden_layer1_PN.weight f4 [10]
0	0x3f0cdba6	0.55022657
1	0x40d55aa8	6.6673164
2	0x408d7173	4.420099
3	0xc0a5690e	-5.169074
4	0xbe812bbf	-0.25228688
5	0x40d6cafd	6.712279
6	0xc04b337c	-3.1750174
7	0xc0aa529e	-5.322585
8	0x4087cd80	4.2438354
9	0x409034fb	4.5064673

hidden_layer1_PN.bias f4 [10]
0	0x40a1a66d	5.0515656
1	0xc0a64fad	-5.197226
2	0x40508f67	3.2587526
3	0xc018fa88	-2.3902912
4	0xc00f7053	-2.2412307
5	0xc042958a	-3.0403771
6	0x400f88cf	2.2427251
7	0x40068336	2.1017585
8	0x4040b470	3.011013
9	0xc06c4d45	-3.6922162

hidden_layer1_PN.running_mean f4 [10]
0	0x34773804	2.3024046e-07
1	0x3c59463b	0.013261373
2	0x3f7e5786	0.993523
3	0x3f7eb4a2	0.99494374
4	0x3f7ffebb	0.9999806
5	0x3f7e6939	0.9937931
6	0x3cdd67c7	0.027027024
7	0x3ba92e00	0.0051629543
8	0x3f7f228e	0.996621
9	0x3c1bfa2c	0.009520095

hidden_layer1_PN.running_var f4 [10]
0	0x2a1e8521	1.4079407e-13
1	0x3ae793fe	0.0017668006
2	0x3a417a03	0.0007380547
3	0x3a2e7513	0.00066550187
4	0x3196b031	4.385605e-09
5	0x39d0c30c	0.00039818173
6	0x3b9c36b2	0.0047672624
7	0x3a42e654	0.0007434834
8	0x39b2a770	0.00034075556
9	0x3b1a2068	0.002351785

hidden_layer2_P.weight f4 [10, 10]
0	0xbf37b7be	-0.71764743
1	0x408d80e7	4.421985
2	0xc1b9df08	-23.233902
3	0x40ffa193	7.9884734
4	0xbdc7468d	-0.09730253
5	0x40468242	3.1017003
6	0xc143f534	-12.247364
7	0xc16a839d	-14.657132
8	0xc1c23be8	-24.279251
9	0x404e1e86	3.220613
10	0xc0db6909	-6.8565717
11	0x400c97b5	2.1967595
12	0xc18a3d12	-17.27982
13	0x41906a4b	18.0519
14	0x409b30e2	4.849717
15	0x4064479f	3.5668714
16	0xc02283cc	-2.5392942
17	0xc16abc03	-14.670901
18	0xc18c9d70	-17.576874
19	0x407ad101	3.9190066
20	0xc0adf0e4	-5.4356556
21	0x401416b1	2.313885
22	0xc130ebe2	-11.057589
23	0x41412777	12.072135
24	0x40a81779	5.2528653
25	0x40c41c3c	6.1284466
26	0xc0a28427	-5.078632
27	0xc05f7e62	-3.4920888
28	0x40a03b01	5.0072026
29	0x41db4bd5	27.412027
30	0x40f15008	7.5410194
31	0xc1998407	-19.189466
32	0x3ff48e27	1.9105881
33	0xc07a3ea9	-3.9100745
34	0xc0b7eaee	-5.747428
35	0xc09816f1	-4.7528005
36	0x40d3701c	6.607435
37	0x3fee83f4	1.8634019
38	0x3f31b339	0.694141
39	0xc109cd6e	-8.612654
40	0xc131f128	-11.121376
41	0x418acbce	17.349514
42	0x3e0f9414	0.14021331
43	0x4096d04f	4.7129283
44	0x410d2454	8.821369
45	0x40f68357	7.7035327
46	0x412a8a96	10.658834
47	0xbf2d500c	-0.67700267
48	0xbf205b89	-0.6263967
49	0x3fb01f35	1.3759524
50	0xc015023e	-2.3282619
51	0xc0ba7275	-5.826472
52	0x41398f03	11.597415
53	0xc02f9400	-2.7434082
54	0xbf0733d1	-0.5281344
55	0xc0cf0dc6	-6.4704313
56	0x3f1e887f	0.61927027
57	0x40b8b0ed	5.7715974
58	0x40af40d7	5.476665
59	0xc108c084	-8.547001
60	0x3ffd791d	1.9802586
61	0x40a66208	5.1994667
62	0xc0c5e1bd	-6.183806
63	0x40adf947	5.4366794
64	0x405a1bdc	3.4079504
65	0x3fb5e6bc	1.421104
66	0x3fead876	1.8347309
67	0xc17c8c06	-15.784185
68	0xc20560a4	-33.344376
69	0x41127a20	9.154816
70	0xc147a435	-12.47759
71	0x40a28f5a	5.079999
72	0xc13fe55a	-11.993494
73	0xc04f879e	-3.2426524
74	0x4137a84a	11.478586
75	0x4176d219	15.426293
76	0xc0a6674a	-5.2001085
77	0x40471f1a	3.1112733
78	0xc0f81af3	-7.7532897
79	0x41bd3ad5	23.653727
80	0x409d115c	4.908369
81	0xc1530abd	-13.190122
82	0x3f97f74a	1.1872342
83	0xc05f295d	-3.4868996
84	0xbf9630ee	-1.1733682
85	0xc0ad7634	-5.420679
86	0x3f9215c0	1.1412888
87	0x4033594d	2.8023255
88	0x4020586e	2.5053973
89	0xc0f7b116	-7.740367
90	0xc0215066	-2.5205321
91	0xc006cdab	-2.106303
92	0x4140d00d	12.050794
93	0xc1437335	-12.215627
94	0xbd622add	-0.05521666
95	0x3feac8d8	1.8342543
96	0xbfe702c2	-1.8047717
97	0x4140332c	12.012493
98	0x411f9db0	9.975998
99	0xc095e9b3	-4.6847777

hidden_layer2_P.bias f4 [10]
0	0xbf4dd95d	-0.80409795
1	0xc0b57173	-5.670099
2	0xc0c8e2b4	-6.2776737
3	0x40daf9cf	6.842994
4	0xc10b2e97	-8.698874
5	0x401a05db	2.4066074
6	0xc04f0fce	-3.2353396
7	0xc10346ca	-8.2047825
8	0x40aec8da	5.462018
9	0x3e97760f	0.2958226

hidden_layer2_PN.weight f4 [10]
0	0x438cc97e	281.57416
1	0x437b74c1	251.45607
2	0x43c20287	388.01974
3	0x433281f1	178.50758
4	0x4334ec5c	180.92328
5	0x438f57f2	286.68707
6	0x43b63604	364.422
7	0x432b8dae	171.55344
8	0x432762c9	167.38588
9	0x439078f6	288.945

hidden_layer2_PN.bias f4 [10]
0	0x00000000	0.0
1	0x00000000	0.0
2	0x00000000	0.0
3	0x00000000	0.0
4	0x00000000	0.0
5	0x00000000	0.0
6	0x00000000	0.0
7	0x00000000	0.0
8	0x00000000	0.0
9	0x00000000	0.0

hidden_layer2_PN.running_mean f4 [10]
0	0x3d61e3d6	0.055148922
1	0x3d42a725	0.047522683
2	0x3d187b9f	0.03722727
3	0x3f7272f2	0.9470664
4	0x3d1dafa4	0.038497582
5	0x3f7174e8	0.9431901
6	0x3d5320ad	0.051544834
7	0x3cb47d72	0.022032473
8	0x3f720377	0.94536537
9	0x3f7050bb	0.93873185

hidden_layer2_PN.running_var f4 [10]
0	0x3d548af1	0.051890317
1	0x3d37f5a0	0.04491198
2	0x3d10d826	0.035362385
3	0x3d4cccdd	0.05000006
4	0x3d16e1f1	0.03683657
5	0x3d5a744a	0.05333356
6	0x3d46eb25	0.048564095
7	0x3caf6c2a	0.021413881
8	0x3d521dfe	0.051298134
9	0x3d69aa79	0.05704734

output_layer_P.weight f4 [1, 10]
0	0xc30b0d7e	-139.0527
1	0xc2e0f8c1	-112.48585
2	0xc33da3ab	-189.63933
3	0xc3310fa8	-177.06116
4	0x42f5baef	122.865105
5	0x43878948	271.0725
6	0xc3266558	-166.39587
7	0x42be6a2c	95.20737
8	0xc326ab3e	-166.66891
9	0x438d6e23	282.86044

hidden_layer1_phi.weight f4 [10, 3]
0	0xc0201c17	-2.5017145
1	0x3fa72aab	1.3059896
2	0x3faa1625	1.3288008
3	0x3f815393	1.010363
4	0x3f0dde1f	0.55417055
5	0xbf8cf13e	-1.1011121
6	0x3f263d93	0.64937705
7	0xc0c5af7f	-6.177673
8	0xbcea4b60	-0.028600395
9	0x3fd744c1	1.6817857
10	0xbf270ed6	-0.6525701
11	0x3f407f78	0.751945
12	0xc1949ae8	-18.575638
13	0x41beb377	23.83763
14	0xbfbf3eaf	-1.4941005
15	0x4056b3a9	3.3547156
16	0xbf7edc1f	-0.9955463
17	0xbd1a824e	-0.037721924
18	0xbf685ac2	-0.90763485
19	0x3efc51e5	0.4928123
20	0x3eef5546	0.46744746
21	0x3ec7e437	0.39041302
22	0xbf70d415	-0.9407361
23	0x3e82b261	0.25526717
24	0xbfec5a86	-1.8465126
25	0x3e5c9a37	0.21543203
26	0x3fcf53b1	1.6197416
27	0x40a55cbd	5.1675706
28	0x408d7fe9	4.421864
29	0xbe819418	-0.253083

hidden_layer1_phi.bias f4 [10]
0	0xc111d278	-9.113884
1	0x3f81624f	1.0108126
2	0xbfd295a5	-1.6451918
3	0x40c92f12	6.286996
4	0x411476ad	9.278974
5	0x40dd7386	6.920352
6	0xc091ac10	-4.5522537
7	0x3e94d59b	0.29069218
8	0x40f0fb93	7.5307097
9	0xc05367d0	-3.3032112

hidden_layer1_phiN.weight f4 [10]
0	0x40cc9be2	6.3940287
1	0x3ed8cd0d	0.4234394
2	0x3f86eb89	1.054063
3	0x3f62c6fd	0.8858488
4	0x3fc3d701	1.5299989
5	0x40da5f91	6.824166
6	0x3fc4400b	1.5332044
7	0x3f9ff3fe	1.2496336
8	0x3f641fe9	0.8911119
9	0x402bfc12	2.6872602

hidden_layer1_phiN.bias f4 [10]
0	0x3f3fcf11	0.74925333
1	0x3fa77ac5	1.3084341
2	0x3f4fe8f7	0.8121485
3	0x3e8066e1	0.2507849
4	0x3e17cc43	0.14824013
5	0xbf37aee6	-0.7175125
6	0x4015fd42	2.3435826
7	0xbf02da38	-0.51114225
8	0x3dd9b81e	0.10630821
9	0xbe8d0ccd	-0.2754883

hidden_layer1_phiN.running_mean f4 [10]
0	0x39ebc6f7	0.00044970933
1	0x3f4ea51c	0.80720687
2	0x3cdd2493	0.026994979
3	0x3f7fa5ea	0.9986254
4	0x3f6be081	0.9213944
5	0x3f7fbbd1	0.9989596
6	0x3c733c30	0.014845893
7	0x3eda013a	0.4257906
8	0x3f7fd45b	0.99933404
9	0x3f4f2aa3	0.80924433

hidden_layer1_phiN.running_var f4 [10]
0	0x349ada59	2.8843604e-07
1	0x3bd14fe7	0.006387699
2	0x3ae47325	0.0017429335
3	0x35546a6f	7.9131036e-07
4	0x3d57b9ad	0.05266731
5	0x35aa64f2	1.2695366e-06
6	0x380e3e72	3.3913595e-05
7	0x3c7c52cb	0.015400599
8	0x347193ea	2.2498685e-07
9	0x3d84e148	0.064882815

hidden_layer2_phi.weight f4 [10, 10]
0	0x4045dd23	3.091622
1	0x3f49c0b1	0.7880965
2	0x4132e2ec	11.180401
3	0x3f774f65	0.9660552
4	0xc13e1301	-11.87964
5	0x411161ac	9.086346
6	0xbfe2df20	-1.7724342
7	0x405dfa2d	3.4683945
8	0xbfa50f2c	-1.2895255
9	0xbfc43469	-1.5328494
10	0x408e3607	4.444095
11	0x4000d449	2.0129569
12	0x3e386f1e	0.18011138
13	0x3fbdb929	1.4822131
14	0x3f6f213c	0.93410087
15	0x3e409a68	0.18808901
16	0x403521e1	2.8301928
17	0x3f99ffc7	1.2031182
18	0x3c8303c3	0.015993005
19	0x3e22250d	0.15834446
20	0x3fa58023	1.2929729
21	0xbfe3d2dd	-1.7798725
22	0x401d46a4	2.4574366
23	0xc02d0636	-2.703504
24	0xbfd9feeb	-1.703092
25	0x3fe6331b	1.7984346
26	0xbfa411f9	-1.2817985
27	0xbea2051d	-0.31644526
28	0xbf060ae7	-0.52360386
29	0x40230829	2.547373
30	0xbed7d5cf	-0.4215531
31	0xc10c903c	-8.785213
32	0xc18b1429	-17.384844
33	0x41139de5	9.226048
34	0x4059774e	3.3979068
35	0xc0e833e2	-7.2563334
36	0xc0645af0	-3.5680504
37	0xbe679844	-0.22616678
38	0xbee8cf21	-0.45470527
39	0x420155ca	32.33378
40	0x3d0504f9	0.032475445
41	0xbd951f56	-0.072813675
42	0x3d171907	0.036889102
43	0x3da1c0b7	0.078980856
44	0x40e22a4f	7.0676646
45	0xc058241d	-3.3772042
46	0x3e0d971b	0.13827173
47	0xbf815c5e	-1.0106313
48	0x3d6a91d3	0.057267975
49	0x3f1ce240	0.6128273
50	0xbe15f305	-0.14643486
51	0xbe510d78	-0.20415294
52	0xc0224480	-2.535431
53	0xbf6cc3ed	-0.9248646
54	0x3dc07af3	0.09398451
55	0xc0808d44	-4.0172443
56	0x3e99bf77	0.3002889
57	0xbf7c0b69	-0.9845491
58	0x3e61ef53	0.22063951
59	0xbe0a40d7	-0.13501297
60	0x3fcc25c5	1.5949026
61	0x3f0ecd38	0.5578189
62	0x3f4c7d90	0.79879093
63	0x40336f99	2.8036864
64	0x3fb7de75	1.4364763
65	0xc057cb53	-3.371785
66	0x3fb6066a	1.4220707
67	0x3f8ebad2	1.1150763
68	0x4004e319	2.076361
69	0x3f5d5760	0.8646145
70	0x3d1135ca	0.035451688
71	0xbd1cbbd1	-0.038265053
72	0xbf6e5955	-0.9310506
73	0x3ec4d673	0.38444862
74	0xbf0c6d77	-0.5485453
75	0x3f28e5f1	0.6597586
76	0xbe86389f	-0.26215073
77	0xbee41021	-0.44543555
78	0xbfb81880	-1.4382477
79	0xbf782409	-0.96929985
80	0xc18f63e8	-17.923782
81	0x40d2c6dc	6.586775
82	0x40e6de32	7.2146235
83	0x401c53ab	2.4426067
84	0x40bdb5a8	5.928425
85	0x3f77e9bd	0.9684103
86	0x41966550	18.799469
87	0xbe93deb4	-0.28880847
88	0x403ddf0c	2.9667387
89	0x40410b86	3.0163283
90	0xbfcf7cb6	-1.6209934
91	0xbf244d57	-0.6418051
92	0xc08caf1e	-4.3963766
93	0x3f6271ce	0.884549
94	0x3f24ead0	0.64420795
95	0x40d442cf	6.6331553
96	0xbdc0625a	-0.09393759
97	0x40baf587	5.8424716
98	0xc0c5f5d2	-6.1862574
99	0x40cdfd45	6.4371667

hidden_layer2_phi.bias f4 [10]
0	0x3f412ae1	0.75456053
1	0x404db2ba	3.2140336
2	0xbfcf1604	-1.6178594
3	0xc11b251f	-9.696563
4	0xc0bd9b49	-5.9252057
5	0x3f41ac35	0.7565339
6	0x409f481a	4.9775515
7	0x3dd10f10	0.10207951
8	0x4115f3c1	9.37201
9	0x3ecc717f	0.3993034

hidden_layer2_phiN.weight f4 [10]
0	0x3fdfc495	1.7481867
1	0x40e3f843	7.1240554
2	0x40004a02	2.004517
3	0x4063f81a	3.562018
4	0x409c8c61	4.892136
5	0x40a44fd9	5.134747
6	0x40f7dec1	7.7459416
7	0x4051d888	3.278841
8	0x41656013	14.335956
9	0x400d0d90	2.2039528

hidden_layer2_phiN.bias f4 [10]
0	0xbf63390c	-0.8875892
1	0xbf343ef0	-0.70408535
2	0x3f7ba19c	0.9829347
3	0x40482cc8	3.1277332
4	0x3f821f23	1.0165752
5	0xbe83bd58	-0.25730395
6	0xbfa9a59c	-1.3253665
7	0xbf05e7c8	-0.52306795
8	0xbc69b641	-0.014264644
9	0x3f97b912	1.1853354

hidden_layer2_phiN.running_mean f4 [10]
0	0x3ed24836	0.41070718
1	0x3f7fde91	0.99948984
2	0x3dd32be8	0.10311109
3	0x3f0726f5	0.5279382
4	0x3edee423	0.4353343
5	0x3f01fce1	0.5077649
6	0x3f742fcf	0.9538545
7	0x3ea17f2b	0.31542334
8	0x3f7f27df	0.99670213
9	0x3ea07a9a	0.31343538

hidden_layer2_phiN.running_var f4 [10]
0	0x3e6037f5	0.21896346
1	0x36b11299	5.277176e-06
2	0x3d72b47f	0.059254166
3	0x3e67c167	0.22632371
4	0x3e4127de	0.18862864
5	0x3e47fa6f	0.19529127
6	0x3cdca2ef	0.026933162
7	0x3dd383ce	0.10327874
8	0x3b410afb	0.0029456008
9	0x3e3d30be	0.18475625

output_layer_phi.weight f4 [1, 10]
0	0x3f66182e	0.89880645
1	0x40b92f87	5.7870517
2	0x3f488cef	0.7834005
3	0xbf0f8143	-0.5605661
4	0xbffc2307	-1.969819
5	0x4017b60c	2.3704863
6	0x40060f0d	2.0946686
7	0x3f84370c	1.0329299
8	0xbe9f5fa0	-0.31127644
9	0xbef20d80	-0.47275925

hidden_layer1_m_D.weight f4 [10, 3]
0	0xc05ae87a	-3.4204392
1	0xc04bd45a	-3.184836
2	0xc03f652e	-2.9905505
3	0x3feb4776	1.8381183
4	0x4007871f	2.1176221
5	0x3cb0a0cf	0.021561055
6	0xbe5e64f9	-0.21718206
7	0xbdec8267	-0.1154831
8	0xbe1614f4	-0.1465643
9	0xc08a9be6	-4.3315306
10	0xbf80f88e	-1.0075853
11	0xbfd523fe	-1.6651609
12	0x4012315f	2.2842634
13	0x3ffb4612	1.9630759
14	0x3ff4ef21	1.9135476
15	0x4084d6b6	4.15121
16	0x3ee2bc87	0.4428446
17	0x3f17d38a	0.5930716
18	0xbfff2d47	-1.9935693
19	0xbd800702	-0.06251337
20	0x40a88081	5.2656865
21	0xc031d549	-2.778643
22	0xbfc8623d	-1.565498
23	0xbf9ad3bb	-1.2095865
24	0xbed5db6f	-0.41768977
25	0x40150328	2.3283176
26	0xbef6e7a0	-0.4822359
27	0xc04b9f5c	-3.1816015
28	0xc00d1ccd	-2.2048829
29	0xc000ba61	-2.0113757

hidden_layer1_m_D.bias f4 [10]
0	0x3f19ca6c	0.60074496
1	0x3b9fb5fb	0.0048739887
2	0x40505b08	3.255556
3	0x3ea3e2c2	0.3200894
4	0x3fb5d8f8	1.4206839
5	0x3f69389c	0.91102004
6	0x3e9b9720	0.30388737
7	0xbeeb652a	-0.4597562
8	0x40054267	2.0821779
9	0xbef24efa	-0.4732588

hidden_layer1_m_DN.weight f4 [10]
0	0x40275466	2.6145263
1	0x3f8f30a6	1.1186721
2	0x3fb07a9e	1.378742
3	0x3fd2938b	1.6451277
4	0x3fc4b8a7	1.5368851
5	0x3fa01024	1.2504926
6	0x3f26a36b	0.65093106
7	0xbf3600cd	-0.7109497
8	0xbd1c27c3	-0.038123857
9	0x3ffe490c	1.9866042

hidden_layer1_m_DN.bias f4 [10]
0	0x404c3251	3.190571
1	0xc080b192	-4.021676
2	0x4070e4be	3.7639613
3	0xc0241972	-2.564053
4	0x4000634b	2.0060604
5	0x401e6492	2.4748883
6	0x4035222e	2.8302112
7	0xc05a89a1	-3.4146502
8	0x408745ea	4.2272844
9	0xc0124fdf	-2.286125

hidden_layer1_m_DN.running_mean f4 [10]
0	0x3ce98022	0.028503481
1	0x3f67f703	0.90611285
2	0x3f7360d9	0.9506965
3	0x3d835324	0.06412342
4	0x3f7cd964	0.9876921
5	0x3f7350e9	0.95045334
6	0x3f4319e8	0.76211405
7	0x3d22bd04	0.03973104
8	0x3f752576	0.95760286
9	0x3caa9797	0.020824237

hidden_layer1_m_DN.running_var f4 [10]
0	0x3b681047	0.0035410093
1	0x3c130303	0.008972886
2	0x37aa1ff5	2.028046e-05
3	0x3bb787e2	0.0056009153
4	0x39a4d234	0.0003143713
5	0x3b08f472	0.0020897654
6	0x3d359da4	0.04433979
7	0x3b0d9807	0.0021605508
8	0x3ae43fa7	0.0017413989
9	0x3a9fa1c4	0.0012178947

hidden_layer2_m_D.weight f4 [10, 10]
0	0x402879be	2.6324306
1	0xbffebc87	-1.9901284
2	0x3fbee623	1.4913982
3	0x3d89314e	0.06698857
4	0x3ced5597	0.028971476
5	0x3e18fdea	0.1494061
6	0xbd845b98	-0.064627826
7	0xbf76ad10	-0.9635782
8	0x3f9af61f	1.210636
9	0xbefcb5cf	-0.4935746
10	0x400fe319	2.248236
11	0xbfef578b	-1.8698591
12	0x3fbb07c3	1.4611744
13	0xbeeac02a	-0.45849735
14	0x3ec7870f	0.3897023
15	0x3d3deaaf	0.04636639
16	0xbdf9db61	-0.12200046
17	0xbf916b25	-1.1360823
18	0x3fa829a5	1.3137709
19	0xbe265b15	-0.16245683
20	0x40249c69	2.5720465
21	0xc0178fd8	-2.3681545
22	0x3fffce31	1.99848
23	0x3e93ab28	0.2884152
24	0x3d29f6aa	0.041495003
25	0x3e9e72f0	0.30947065
26	0x3e26691f	0.16251038
27	0xbf1d57f2	-0.6146232
28	0x3fc9d49d	1.576801
29	0xbdae99f3	-0.08525457
30	0x40265329	2.5988257
31	0xbfd73d3c	-1.6815562
32	0x3fdb0a84	1.7112584
33	0xbf110693	-0.56650656
34	0xbf695e74	-0.9115975
35	0x3f1e05c0	0.61727524
36	0x3e8e8938	0.27839065
37	0xbf3d6395	-0.73980075
38	0x4052c80f	3.2934606
39	0x3bd4d345	0.006494912
40	0x401ebd62	2.480309
41	0xc0143f1a	-2.3163514
42	0x3fedfd70	1.8592968
43	0xbe628196	-0.22119746
44	0x3dc07d29	0.093988724
45	0x3e84c232	0.2592941
46	0x3e35107b	0.17682068
47	0xbf691e79	-0.9106212
48	0x3fa12a5e	1.2591054
49	0xbe2e19b0	-0.17001987
50	0x401ea944	2.4790812
51	0xbfebe0b4	-1.8427949
52	0x40023283	2.034333
53	0xbe770f03	-0.2412682
54	0xbf883de0	-1.0643883
55	0x3f158964	0.58412766
56	0xbdf9867d	-0.12183855
57	0xbf6ddf92	-0.92919266
58	0x401ab64f	2.4173772
59	0xbdb98c15	-0.09059922
60	0x3fad92ce	1.3560426
61	0xbfecb7a2	-1.849354
62	0x3fd7f490	1.687151
63	0xbf29e24f	-0.66360945
64	0x401f2f1f	2.487251
65	0x3f6bdfe4	0.92138505
66	0x405eda1b	3.482062
67	0xc001e331	-2.0294917
68	0x3fc0546f	1.5025767
69	0xbfcfa5a2	-1.6222422
70	0x3ffe58c4	1.9870839
71	0xbffbbaa7	-1.9666337
72	0x3fb5951c	1.418613
73	0xbec58313	-0.38576564
74	0xbebb3677	-0.3656499
75	0xbdb6af65	-0.089201726
76	0xbd0fbf18	-0.03509435
77	0xbf983d8a	-1.189378
78	0x3fecaca0	1.8490181
79	0x3e877370	0.2645526
80	0xc03adf9f	-2.9198987
81	0x3fd33ca7	1.6502885
82	0xc01b9bc3	-2.431382
83	0x3f0034bc	0.50080466
84	0x3f01d64c	0.50717616
85	0x3ee5d27d	0.44887152
86	0xbf1d45c1	-0.6143456
87	0x3ef64dc3	0.48106202
88	0xc00becd4	-2.1863298
89	0x3d969df2	0.073543444
90	0x401e9861	2.4780505
91	0xbfdc02cf	-1.7188357
92	0x3fdb805f	1.7148551
93	0xbe9621a2	-0.29322535
94	0xbf8aceba	-1.0844338
95	0x3f553db1	0.8329726
96	0xbdb303aa	-0.08740933
97	0xbf8346ce	-1.0255983
98	0x402a987b	2.6655567
99	0xbe8085c0	-0.25102043

hidden_layer2_m_D.bias f4 [10]
0	0x3fa8f6a7	1.3200272
1	0x3fc7c9e5	1.5608488
2	0x3fff8a2b	1.996404
3	0x3fa8d608	1.3190317
4	0x3fe439cd	1.7830139
5	0x3fea983e	1.8327711
6	0x40028340	2.0392609
7	0x40287b56	2.6325278
8	0x3ebda037	0.37036297
9	0x40099c0c	2.1501493

hidden_layer2_m_DN.weight f4 [10]
0	0x4138174b	11.505687
1	0x4059b9f9	3.4019759
2	0x417a1b7f	15.631713
3	0x415ee5d3	13.931109
4	0x404d4975	3.2076085
5	0x410a30d9	8.636926
6	0xbebcdd37	-0.36887524
7	0x41528372	13.157091
8	0x3f3133ed	0.6921986
9	0x41388b80	11.534058

hidden_layer2_m_DN.bias f4 [10]
0	0x00000000	0.0
1	0x00000000	0.0
2	0x00000000	0.0
3	0x00000000	0.0
4	0x00000000	0.0
5	0x00000000	0.0
6	0x00000000	0.0
7	0x00000000	0.0
8	0x00000000	0.0
9	0x00000000	0.0

hidden_layer2_m_DN.running_mean f4 [10]
0	0x3f7ffffc	0.99999976
1	0x3f7ffffc	0.99999976
2	0x3f7ffffc	0.99999976
3	0x3f7ffffc	0.99999976
4	0x3f7ffffc	0.99999976
5	0x3f7ffffc	0.99999976
6	0x3f7ffffc	0.99999976
7	0x3f7ffffc	0.99999976
8	0x2c8f6211	4.075192e-12
9	0x3f7ffffc	0.99999976

hidden_layer2_m_DN.running_var f4 [10]
0	0x00000004	6e-45
1	0x00000004	6e-45
2	0x00000004	6e-45
3	0x00000004	6e-45
4	0x00000004	6e-45
5	0x00000004	6e-45
6	0x00000004	6e-45
7	0x00000004	6e-45
8	0x1db7c91a	4.864763e-21
9	0x00000004	6e-45

output_layer_m_D.weight f4 [1, 10]
0	0x411809dd	9.502408
1	0xbed88fd8	-0.42297244
2	0x414bf3f5	12.74706
3	0x40fd271d	7.9110246
4	0xc0109b78	-2.259489
5	0x409af9b7	4.842983
6	0x3e80af8c	0.25133932
7	0x412417e3	10.255832
8	0x3e836d5e	0.25669378
9	0x4097cd2d	4.743796
