Diffuse_interface_Bubble_PINN_ver1/NNlayers_Bubble_3.pt (torch, 29422 bytes, 65 tensors)

hidden_layer1_u1.weight f4 [10, 3]
00000000: f7ae 91c1 e677 c4bf 82e4 fb3d 23b0 5b41
00000010: af69 c6c0 ce4f a8bf c430 aa41 7277 aac0
00000020: 7d00 afbd ae89 66c1 b6d1 533f d1ba 383f
00000030: 37b2 b6c0 577f c4c0 1261 863e 3b62 89c0
00000040: 156b dabf 9180 cd3c 64eb 1440 af9e ec40
00000050: 86df 9bbe bc4b 8940 eb84 0dc1 1714 f1be
00000060: 69f0 9abf be17 f8c1 c05f 4241 e973 f4c0
00000070: 1c38 0341 e88c c1be
-18.210432 -1.534909 0.12299444 13.730502 -6.200401 -1.3149354 21.273811 -5.3270807
-0.08545015 -14.408613 0.8274187 0.7216006 -5.7092547 -6.1405444 0.26245934 -4.293241
-1.7063929 0.02508572 2.326867 7.3943706 -0.30443972 4.290495 -8.844951 -0.4708564
-1.2104617 -31.011593 12.148376 -7.639149 8.201199 -0.37802815

hidden_layer1_u1.bias f4 [10]
00000000: f1f4 d340 3026 d83e 3337 2bc0 ea94 03bf
00000010: 9289 30c0 62a9 54bf bac4 02bf 1d14 00c0
00000020: d2f6 ddbe 1551 0941
6.62365 0.42216635 -2.675244 -0.513991 -2.7583966 -0.8307096 -0.5108143 -2.0012276
-0.4335237 8.582295

hidden_layer1_u1N.weight f4 [10]
00000000: 3850 0f40 a9e9 9540 3903 bfc0 b795 de3f
00000010: 1112 a9c0 2de3 9340 03c8 6d40 f7da 5240
00000020: 92d7 703f 058b 9940
2.2392712 4.684773 -5.9691434 1.7389439 -5.2834554 4.6214814 3.7153327 3.2946146
0.94078934 4.79822

hidden_layer1_u1N.bias f4 [10]
00000000: e1d3 9fbd ea98 abbf fab7 7540 772f 903f
00000010: 1cd8 34c0 7da2 83bf 7e8c 6c3f 9218 1ec0
00000020: 209e f4be 67cc bbbc
-0.078040846 -1.3406041 3.839354 1.1264485 -2.8256903 -1.0283962 0.92401874 -2.4702497
-0.4777689 -0.022924615

hidden_layer1_u1N.running_mean f4 [10]
00000000: a963 a53e 1509 083f 9caa 1a3f 167c dd3d
00000010: 4017 e53a d49d 013d 2588 723f 56eb 823d
00000020: 0bbe f13d bd90 7e3f
0.32302597 0.5313886 0.6041658 0.10814683 0.0017478243 0.031644657 0.9473899 0.06392543
0.11803826 0.99439603

hidden_layer1_u1N.running_var f4 [10]
00000000: 425f 0d3e 2aa1 193e a83a 283e 9424 ce3c
00000010: f8e8 1d38 4e6a 0a3b 89df 183c 93d9 9e3c
00000020: 8bf8 7f3d 7084 1e3a
0.13805869 0.15002885 0.16428626 0.025163926 3.7648686e-05 0.0021120491 0.009330639 0.019390857
0.06249289 0.00060469564

hidden_layer2_u1.weight f4 [10, 10]
00000000: 03f6 8a40 d0a1 fcbf 8962 36c1 e307 87c1
00000010: 1767 5a41 df2a a7be 51c8 bf40 fd76 0c41
00000020: 9291 b9c0 c34a 1ac2 bc10 41c1 c77d 4141
00000030: 28c9 0841 5323 a93f 7821 b1c1 11cd e0c0
00000040: 72a0 2f40 f380 c7c0 1caa 0dc1 065d 8240
00000050: 8a18 f240 caf5 d6bf ff74 63c1 44d7 00c1
00000060: 3164 6b41 178f e23f 5db1 d9bf 91e6 9540
00000070: f240 2241 4fa3 95c1 c7a4 82c0 5018 30c0
00000080: 9884 80c1 49ea c43c 42f0 1a41 58cb be3f
00000090: 7a2b 413f 3573 cd40 c53d 7d40 9eea c8c1
000000a0: 6588 803e d7a5 ebbf 853e e6be 3cf5 b43f
000000b0: 71ef 9bbf a4fe 02c0 3da7 99bf d88a 07c0
000000c0: 4fb5 9ebf 6aa9 1ac0 927f 3d41 6bc2 0ac0
000000d0: 1d14 b5c0 2a01 b3c0 de8b 2d41 bd7d b4bf
000000e0: ec55 ed3f 38b8 f940 f681 b5bf 4de6 adc1
000000f0: c70e abc0 f027 2f3e 1556 b541 ec75 1e41
00000100: 29de f2c0 af61 b040 7f9f cfc0 d597 63c0
00000110: 1ca7 4a41 9627 9d41 02cd a43f 6d29 2cbf
00000120: cceb e440 4a5e 1f40 055c 19c1 cf90 2e40
00000130: ade8 f23f 45d6 3dc0 895e b3bf be17 a43f
00000140: 60df c13f 6949 0fc1 3216 69c1 9ff1 c4c0
00000150: 3066 6441 96c0 e23e 3b59 ad3e b73a e940
00000160: cfb8 b340 2692 acc1 879b 53bf ff90 2f41
00000170: a8ce c240 0e84 e7c0 49e9 96bd 37c6 b340
00000180: 84b7 6ec0 8b4f 3dbf 22ef df40 8f1d 37c0
4.3425307 -1.9736881 -11.399056 -16.87885 13.650168 -0.32649896 5.9932027 8.77905
-5.79902 -38.57301 -12.066586 12.093207 8.54911 1.3213905 -22.141342 -7.0250325
2.7441678 -6.234491 -8.854031 4.0738554 7.5654955 -1.6793759 -14.2160635 -8.052555
14.711961 1.7699918 -1.7007252 4.6843953 10.140856 -18.70474 -4.0826144 -2.751484
-16.064743 0.024037497 9.683657 1.4905806 0.75456965 6.4203134 3.956895 -25.11456
0.2510406 -1.8409985 -0.44969574 1.413734 -1.2182447 -2.046792 -1.2004162 -2.1178493
-1.2399081 -2.4165902 11.843645 -2.1681163 -5.658705 -5.593892 10.846647 -1.4100872
1.8541846 7.8037376 -1.4180286 -21.737452 -5.345554 0.17105079 22.667032 9.9037895
-7.589619 5.5119243 -6.4882197 -3.556142 12.665798 19.64433 1.2875063 -0.6725071
7.153784 2.49013 -9.584966 2.7275884 1.8977257 -2.966203 -1.4013225 1.2819746
1.5146294 -8.955422 -14.567919 -6.154495 14.274948 0.44287556 0.3385714 7.2884173
5.6163096 -21.571362 -0.8265919 10.972899 6.0877266 -7.23487 -0.07368714 5.617946
-3.729951 -0.739495 6.997941 -2.861179

hidden_layer2_u1.bias f4 [10]
00000000: 8bcc 2fc1 be30 a641 5485 0cc1 cff1 0dc1
00000010: f8d6 463f 2e82 2dc1 f279 64c0 b888 3640
00000020: 1ba9 3ec1 a165 93c0
-10.987437 20.7738 -8.782551 -8.871535 0.77671766 -10.844282 -3.569943 2.8520947
-11.9162855 -4.606156

hidden_layer2_u1N.weight f4 [10]
00000000: f1ec dc3f 01f1 dfbe 138e 2040 77b1 e23f
00000010: ba76 d73d 8c2d 7340 d1a0 4b3e 749a 5040
00000020: 348e 1940 7b97 2cbf
1.7259809 -0.4373856 2.5086715 1.7710408 0.10520692 3.799655 0.19885565 3.259427
2.3993044 -0.6741864

hidden_layer2_u1N.bias f4 [10]
00000000: 8e9b d2bf 2ab3 a03d 9ba2 13c0 a6bf 2cc0
00000010: 176e b33f 2bd6 56c0 3578 c9bd 406f 1540
00000020: 0f30 30c0 d8ab 8abf
-1.6453722 0.07846673 -2.3067997 -2.6991973 1.4017972 -3.3568218 -0.09837381 2.3349152
-2.7529333 -1.0833693

hidden_layer2_u1N.running_mean f4 [10]
00000000: 1165 983d cb99 7a3f d158 8e3d f5d4 b93d
00000010: 2de5 723f 2e96 903d 8293 1c3f afe5 6a3f
00000020: 2e40 933d f2ff 843e
0.07441152 0.9789092 0.06950534 0.090738215 0.94880944 0.070598945 0.6116258 0.9175672
0.07189976 0.2597652

hidden_layer2_u1N.running_var f4 [10]
00000000: ccb3 883d 2a3b a53c a6ca 823d 30ef a23d
00000010: e44d f03c cd04 833d 20a8 643e cf81 8f3d
00000020: d3f6 853d f82d 3c3e
0.066749185 0.020169813 0.06386308 0.07955778 0.029334016 0.063974 0.2232976 0.07007181
0.065412186 0.1837691

output_layer_u1.weight f4 [1, 10]
00000000: a60e 6dbf ed27 15be dc05 b7bf c3ce ab3f
00000010: 93f3 26c0 8d73 8940 c6c3 89ba 4ff5 3b40
00000020: 56a3 ec3f c101 303e
-0.92600477 -0.14566012 -1.4298663 1.3422474 -2.6086166 4.2953553 -0.0010510616 2.9368474
1.8487346 0.17188169

hidden_layer1_u2.weight f4 [10, 3]
00000000: e7e7 ecbe 5599 efc0 2d06 6dbf 8ae7 a0c0
00000010: 7248 8640 383c 3dbf 299e e9bf 61cc 3141
00000020: 6268 22c1 1c13 3340 c584 1240 3eba d2be
00000030: 7472 8fc1 cb10 a240 608c 4ebf f74c 2541
00000040: 3c70 d3c0 46c5 5dbd 1efa 8bc1 f12d 8f40
00000050: 767c 843d b847 bf40 0bfe 33c1 91cb 86be
00000060: 3ac5 cbc0 604b fdc0 a5f7 89be 8986 0040
00000070: c138 d240 c68f fd3d
-0.46270677 -7.4874673 -0.9258755 -5.028264 4.1963434 -0.7392001 -1.8251392 11.112397
-10.150484 2.7980413 2.2893536 -0.41157717 -17.930885 5.06455 -0.80682945 10.33129
-6.6074505 -0.054143213 -17.497128 4.474358 0.064690515 5.9775047 -11.249522 -0.26327184
-6.3678255 -7.915451 -0.2694675 2.0082114 6.569428 0.12380938

hidden_layer1_u2.bias f4 [10]
00000000: 5fb7 3740 fd1e 9c40 0520 0a41 a9bf bec0
00000010: 231c 1340 b11a 04c1 b3b5 2840 5129 5040
00000020: 2076 2840 d7e1 453f
2.870567 4.8787827 8.632817 -5.960896 2.2985923 -8.256516 2.63609 3.2525218
2.6322098 0.7729773

hidden_layer1_u2N.weight f4 [10]
00000000: 2c73 1c40 5335 2140 ef99 4a40 2c6b 7140
00000010: a0fe 4c40 4d88 8940 4b6a f540 003a 0b40
00000020: 7b45 a240 e409 5e40
2.4445295 2.5188797 3.1656454 3.7721663 3.203041 4.2978883 7.669225 2.175415
5.0709815 3.4693537

hidden_layer1_u2N.bias f4 [10]
00000000: bc17 84c0 2d56 4440 cb6a f53f cace 3140
00000010: 9167 1640 9966 a6c0 e9aa 8e40 4350 39c0
00000020: 68b9 fd3f 7a20 543f
-4.1278973 3.0677598 1.9173216 2.7782464 2.3500712 -5.200024 4.458363 -2.8955238
1.9822206 0.82862055

hidden_layer1_u2N.running_mean f4 [10]
00000000: 855b 3c3e a68e 763f 89e5 773f 2316 1e3e
00000010: 38fc ce3e c618 143d 3f57 d83e 9662 973e
00000020: 1cea 883d 64fe 7a3f
0.18394287 0.96311414 0.9683462 0.15438132 0.40426803 0.03615644 0.42254063 0.29567403
0.06685278 0.9804442

hidden_layer1_u2N.running_var f4 [10]
00000000: 6648 873d ed98 ed3b 40b5 623c 4d07 cd3c
00000010: 4077 213e f27e 6c3c a7e5 233e 3442 0f3e
00000020: 7d5a c13c 5b8a ba3a
0.06605606 0.007250896 0.013837159 0.025027895 0.15768147 0.014434563 0.16005574 0.13990098
0.023602718 0.0014231907

hidden_layer2_u2.weight f4 [10, 10]
00000000: 0d38 f340 03d4 01c1 550d 8e3f c9ee 95c0
00000010: 974f bdbf 426c 9240 b34f 223f 33b2 3d40
00000020: ffc4 5ebf ebc0 8abf ea42 a541 268b 35c0
00000030: 482e 1040 e04e 9cc0 baad 7840 80ab 9641
00000040: 0485 97c1 a76e 0341 57d1 46c1 fb3c 1bc1
00000050: 03e1 c6c0 6338 69c1 c75d 85c0 7829 4e41
00000060: 0eff b2c1 1212 1cc1 8f7d 9740 c694 b33f
00000070: 9cf4 c141 ee35 8c41 7b90 a841 145b 9e40
00000080: c019 e5c0 d5ef d8c0 e168 2641 14ae 9e41
00000090: ff6b a1c0 53e9 e340 782c 6cc1 e72e 1241
000000a0: c922 1d40 1f8d 2c40 20ea d9bf 383b 6d3c
000000b0: e8ef 583e 571b 0a41 92a2 ddbf aa69 b6bf
000000c0: 24a2 9dc0 de16 87bf e3d4 f9c0 c72c b2bf
000000d0: fe45 cc3f 2b57 0d41 72a1 d5c0 e5e4 99c0
000000e0: 861a 6040 38c4 9f3f ffe4 053e 19c3 acc0
000000f0: 7a51 0341 3c2a 35be 9032 72c0 da2b c9c0
00000100: a88e 0140 12b0 6241 6497 70bf 1ee9 c6c0
00000110: b3ef 8fc1 e14f 2440 ae14 46c1 0455 2041
00000120: c63a 4d41 8504 c0c0 6b34 b240 7d1b 0ac1
00000130: eaf4 c640 5157 ebc1 5fd2 0741 029a ef40
00000140: a6d0 dc40 a6e5 20c0 abe8 2bbf 859a 2740
00000150: 2a6d 8640 9939 0040 1320 cabf 5918 0c41
00000160: d496 aac0 ba28 813f 53a7 7bc1 1be7 ecbf
00000170: e1bc 2a41 1327 a840 2e88 d140 1e0c 3ac1
00000180: 8894 1441 1432 5941 85e5 4040 6655 d740
7.600592 -8.114261 1.1097819 -4.6853986 -1.4789914 4.575715 0.6340286 2.9640014
-0.8701934 -1.0840124 20.657673 -2.836618 2.2528248 -4.8846283 3.8856034 18.83374
-18.939949 8.214515 -12.426108 -9.702388 -6.2149673 -14.576266 -4.1676974 12.885124
-22.374538 -9.754412 4.734077 1.4029777 24.244438 17.526333 21.070547 4.948618
-7.1593933 -6.7792764 10.400605 19.835 -5.044433 7.122232 -14.760857 9.136451
2.455248 2.6961133 -1.7024574 0.014479451 0.21185267 8.631675 -1.7315238 -1.4250996
-4.9260426 -1.0553854 -7.807237 -1.3919915 1.595886 8.833781 -6.6759577 -4.809191
3.5016189 1.2481756 0.13075636 -5.3988156 8.207392 -0.17691892 -3.784336 -6.286603
2.024332 14.167986 -0.93981004 -6.2159567 -17.99204 2.5673754 -12.380049 10.020756
12.826849 -6.0005517 5.5688987 -8.631711 6.2173967 -29.417635 8.48886 7.48755
6.90047 -2.5140166 -0.671519 2.6188061 4.2008257 2.0035155 -1.5791038 8.755944
-5.3309116 1.0090554 -15.728351 -1.8508028 10.671113 5.25477 6.5478735 -11.627958
9.2862625 13.574726 3.0140088 6.7291746

hidden_layer2_u2.bias f4 [10]
00000000: ae1a 93c0 66c7 5c40 f010 4241 eb6f f4c0
00000010: cf87 92bf 28f1 e2bf 8679 41c1 031c b840
00000020: 08ed 45c1 2110 2141
-4.597007 3.4496703 12.129135 -7.638662 -1.1447695 -1.7729845 -12.092169 5.7534194
-12.370369 10.066438

hidden_layer2_u2N.weight f4 [10]
00000000: 95ca b93f c0d6 6240 8920 abbe 7101 0d40
00000010: 2546 95bf cf95 3440 2698 503e 5f23 a63f
00000020: 7d65 6440 eef7 703f
1.4514948 3.5443573 -0.3342326 2.203213 -1.1662031 2.8216436 0.2037054 1.2979544
3.5686944 0.9412831

hidden_layer2_u2N.bias f4 [10]
00000000: 8049 23c0 9b39 64c0 f267 db3d 4142 28c0
00000010: 323e 9fbf 4132 2340 46bd 22c0 4d85 e73f
00000020: 12af e7bf 8c55 1440
-2.551361 -3.566016 0.10713185 -2.6290438 -1.2440856 2.5499423 -2.5428023 1.8087555
-1.8100302 2.3177214

hidden_layer2_u2N.running_mean f4 [10]
00000000: 37a5 793d 6bb2 803d ca98 6f3f 954f 253d
00000010: 410f 413d d07d 733f 1017 263d 17be 6d3f
00000020: 55e8 293d e99a 6e3f
0.060948577 0.062840305 0.9359251 0.0403591 0.047133688 0.9511385 0.040549338 0.9286818
0.041481335 0.93205124

hidden_layer2_u2N.running_var f4 [10]
00000000: 0a53 643d a276 6e3d dc2f 573d 1824 1d3d
00000010: b118 313d da5a 373d aa4a 1b3d f0c8 853d
00000020: f442 1d3d fbde 7e3d
0.055743255 0.058218606 0.052535877 0.0383645 0.04323644 0.044764377 0.037913002 0.065324664
0.03839393 0.06222437

output_layer_u2.weight f4 [1, 10]
00000000: fe13 88bf 5489 3440 470a a4bd c6f2 2c3f
00000010: f251 a23f 6e75 32c0 d375 193f 78bc ff3d
00000020: c2bc 0dc0 d852 debd
-1.0631101 2.8208818 -0.08009773 0.6755794 1.2681258 -2.7884173 0.5994541 0.124871194
-2.2146459 -0.10855645

hidden_layer1_P.weight f4 [10, 3]
00000000: 3695 2dbf ff64 eabf e2dc f7c0 2461 ec3f
00000010: 29c9 4540 f9a0 fec0 e7e6 1040 f23d ca40
00000020: 4d74 2341 4073 b73e 12be 1041 d8ea 1541
00000030: 8812 943e 2bd4 c240 3390 aec0 1570 2dc1
00000040: a47b 7d40 8f8c 803f 3eb4 d340 53b4 18bf
00000050: 5c55 35c1 8d8d d23c 6348 12c1 5659 32c1
00000060: 38c2 393f ddcf 0d41 bf83 3e41 a68e 2ac1
00000070: 0f8d 34c1 18f7 f7be
-0.678058 -1.8312072 -7.745713 1.8467145 3.0904028 -7.95715 2.2640932 6.3200617
10.215894 0.35830116 9.046404 9.369835 0.28920388 6.0883994 -5.4551024 -10.839864
3.9606714 1.0042895 6.615752 -0.5965015 -11.33334 0.025702262 -9.142673 -11.146811
0.7256198 8.863248 11.907165 -10.659826 -11.284438 -0.48430705

hidden_layer1_P.bias f4 [10]
00000000: badc 4ac1 a2bb 04c1 8ad5 e3be 05fd febe
00000010: 3f33 e740 935e e040 d19f edc0 87f8 723f
00000020: 0e4b 83be ed75 50bf
-12.678888 -8.295809 -0.44498855 -0.49802414 7.2250056 7.0115447 -7.425759 0.9491047
-0.256432 -0.8142994

hidden_layer1_PN.weight f4 [10]
00000000: e4e9 483e a801 ef40 e727 9a40 febc cbc0
00000010: c2d8 05c0 df01 2841 5e5b b5c0 f75a cec0
00000020: cb5c ab40 795f ca40
0.19620472 7.468952 4.817371 -6.3668203 -2.0913548 10.500457 -5.667403 -6.448604
5.3550773 6.3241544

hidden_layer1_PN.bias f4 [10]
00000000: 0e44 8b40 400b b2c0 fc9d 7c40 24bc 3cc0
00000010: 48f0 2ec0 90ae 3ac0 22af f73f b956 3140
00000020: 4143 7740 f1cf 81c0
4.3520575 -5.5638733 3.9471426 -2.9489832 -2.7334156 -2.9169044 1.9350321 2.7709181
3.8634799 -4.0566335

hidden_layer1_PN.running_mean f4 [10]
00000000: dd9d ea33 d1c8 0d3c 6fdd 7d3f 77ae 7c3f
00000010: 0728 7f3f 41db 663f db19 a33b 469a 8c3c
00000020: 22df 7d3f 1f26 613b
1.0925189e-07 0.008653835 0.99166006 0.9870371 0.9967045 0.90178305 0.0049774474 0.017163407
0.991686 0.0034354997

hidden_layer1_PN.running_var f4 [10]
00000000: ac25 a329 1162 433a 67b7 d83a f67b 513b
00000010: 3604 fd38 3d2a 223d 283f ae39 d62b b63b
00000020: 4b01 e93a 3dda d239
7.245189e-14 0.00074532727 0.001653415 0.0031964756 0.000120647645 0.039591063 0.0003323492 0.005559425
0.0017776875 0.00040216921

hidden_layer2_P.weight f4 [10, 10]
00000000: b2b4 f2bf e783 cb40 41dc c7c1 37df a340
00000010: 9736 a43f bada ce40 4508 52c1 238b 81c1
00000020: 55cd dfc1 62d0 da40 1840 12c1 4442 7140
00000030: 515f 92c1 e55d 8b41 aacc c440 5dfe 4940
00000040: f857 6bc0 d9e6 52c1 c344 7dc1 aef2 ce40
00000050: 5aa0 90c0 52ca ff3f 3c38 2ac1 8888 3941
00000060: c711 9340 35d8 8c40 0f46 4ec0 3455 25c0
00000070: 079a d440 4c87 0142 0636 cf40 daef 97c1
00000080: 1b2c b63f 794a 84c0 db94 98c0 2c6e 3ac1
00000090: 0e12 e640 8033 0640 630b 2c3f 0e10 03c1
000000a0: 5ecb 76c1 0635 8041 3501 993e 433c b740
000000b0: 8f59 3d41 afb0 3040 300a 4141 6c78 b0bf
000000c0: bd4e cdbf 9a0a 943f 086a d6bf 7b8c aec0
000000d0: 43fd 7241 1d01 c8bf d361 97bf d229 cfc0
000000e0: afa3 86bf 87e6 8d40 18e5 9e40 28f3 18c1
000000f0: 0569 0d3e 5200 c640 c7b1 cac0 2570 e040
00000100: f03b a940 12ef b13e d3aa 843e ccc3 86c1
00000110: 24b5 06c2 6949 4f41 324b 6bc1 933d dc40
00000120: e1ef 1dc1 7fd2 4ec0 5719 6a41 ad65 7f41
00000130: 1aa9 8ec0 047b 8340 de82 dbc0 4981 bb41
00000140: 9022 9d40 295f 8ac1 9ab9 5340 7be3 a7c0
00000150: aace 9ebf fd66 11c1 3c7e 9c3d 55e6 5a40
00000160: f9b8 7140 2db5 1cc1 c15e b4bf 6e53 43c0
00000170: 9f2d 3141 e85e acc1 a94e 87bf 66d5 9640
00000180: 5e59 b4c0 2521 cb41 b81a 6741 9934 d3c0
-1.8961394 6.3598514 -24.982546 5.120998 1.282916 6.4642 -13.127019 -16.192938
-27.97526 6.8379374 -9.140648 3.7696695 -18.296541 17.420847 6.1499834 3.15615
-3.6772442 -13.181359 -15.829288 6.467124 -4.519574 1.9983618 -10.638729 11.595833
4.59592 4.4013925 -3.223026 -2.5833254 6.643802 32.382126 6.4753447 -18.992115
1.423221 -4.134091 -4.768171 -11.651897 7.189704 2.0968933 0.67204875 -8.19142
-15.42465 16.02589 0.29883733 5.726106 11.834365 2.760784 12.064987 -1.378675
-1.6039654 1.1565735 -1.6751108 -5.4546485 15.186831 -1.562534 -1.1826729 -6.473855
-1.0518702 4.4343905 4.9654655 -9.559364 0.13809593 6.187539 -6.3342013 7.0136895
5.2885666 0.3475271 0.2591158 -16.845604 -33.676895 12.955422 -14.705858 6.8825164
-9.871064 -3.2315977 14.6311865 15.962323 -4.4581423 4.1087666 -6.859725 23.438128
4.910469 -17.296465 3.3082032 -5.2465186 -1.2406819 -9.087644 0.07641265 3.4203084
3.7769148 -9.794232 -1.4091417 -3.0519671 11.073638 -21.54634 -1.057088 4.7135496
-5.635909 25.391184 14.444023 -6.6001706

hidden_layer2_P.bias f4 [10]
00000000: 98bf f4bf 6628 ddc0 7dbe abc0 7416 b940
00000010: b8f9 4fc1 3bb6 4040 f6f1 a1c0 be61 24c1
00000020: 84aa b140 a7e0 b23f
-1.912097 -6.9111814 -5.367003 5.783991 -12.9984665 3.0111225 -5.0607862 -10.273863
5.552065 1.3974808

hidden_layer2_PN.weight f4 [10]
00000000: 3cfe ce43 2dee 9f43 7f25 f043 8967 6743
00000010: d38d 9843 6d6d 9943 070b e243 3f8d 6d43
00000020: 4b85 4b43 77af b243
413.9862 319.86075 480.29294 231.40443 305.108 306.8549 452.08615 237.55174
203.52068 357.37082

hidden_layer2_PN.bias f4 [10]
00000000: 0000 0000 0000 0000 0000 0000 0000 0000
00000010: 0000 0000 0000 0000 0000 0000 0000 0000
00000020: 0000 0000 0000 0000
0.0 0.0 0.0 0.0 0.0 0.0 0.0 0.0
0.0 0.0

hidden_layer2_PN.running_mean f4 [10]
00000000: 7768 403d ef47 313d 903d 1f3d 119f 713f
00000010: ce44 263d 0529 743f 2d65 3a3d ede6 e63c
00000020: e270 703f c48d 723f
0.046974625 0.04328149 0.03887707 0.9438334 0.04059296 0.9537509 0.045506645 0.028186286
0.93922246 0.9474757

hidden_layer2_PN.running_var f4 [10]
00000000: 42e0 323d cec6 253d 9b93 163d c3be 573d
00000010: e4aa 1e3d 8ad9 313d c23f 2e3d d1ff dc3c
00000020: 463c 683d 9531 443d
0.0436709 0.040472798 0.03676186 0.05267216 0.038737193 0.043420352 0.042541273 0.026977452
0.056698106 0.047898848

output_layer_P.weight f4 [1, 10]
00000000: 4e61 4fc3 896e 13c3 bf2f 67c3 81a5 53c3
00000010: 18cd 3543 fceb 9143 acb4 59c3 cd9f f342
00000020: 60fa 41c3 774d a843
-207.3801 -147.43178 -231.18651 -211.6465 181.80115 291.84363 -217.70575 121.81211
-193.97803 336.6052

hidden_layer1_phi.weight f4 [10, 3]
00000000: 2c15 0dc0 322e a43f dd20 ac3f dff3 2a3f
00000010: 4000 943e 42be 5abf 1fe7 da3f 6b36 8fc0
00000020: 9e47 cd3d eac2 e53f 7cd6 dbbe 4ed4 033f
00000030: 6016 a7c1 51ee d441 6755 72bf c5d9 8b40
00000040: 2bb1 bcbf 97a7 b5bc 94ea 47bf 6c9f f13e
00000050: f713 ec3e 9374 8a3e 5c67 10bf 4596 203e
00000060: bd6d c2bf ad7b 573f aa6d 733f d600 7d40
00000070: 732f 8640 e20b 86bd
-2.2044172 1.2826598 1.3447529 0.6677837 0.2890644 -0.8544656 1.7101783 -4.475393
0.100234255 1.7950108 -0.42937076 0.51495826 -20.885925 26.616365 -0.94661564 4.370333
-1.4741567 -0.02217464 -0.7809231 0.47191942 0.46108982 0.27042064 -0.56407714 0.15682323
-1.518974 0.8417309 0.9508921 3.953176 4.193292 -0.06545235

hidden_layer1_phi.bias f4 [10]
00000000: e50a 11c1 e27e 0440 a7df 2cc0 ac2a c740
00000010: 99bc 1441 474c ef40 3c3c 90c0 9de5 93be
00000020: 4e7e e940 2670 5ac0
-9.06516 2.0702443 -2.7011507 6.223959 9.296044 7.478061 -4.507353 -0.2888612
7.296668 -3.413095

hidden_layer1_phiN.weight f4 [10]
00000000: ee37 d440 45e3 033f 1dfe 083f e043 0a3f
00000010: e3e4 bb3f 1d4d ce40 5183 c13f d001 993f
00000020: 4c17 823f d9b2 cf3f
6.6318274 0.5151866 0.53512746 0.5400982 1.4679226 6.4469132 1.51182 1.1953678
1.016336 1.6226455

hidden_layer1_phiN.bias f4 [10]
00000000: df38 493f 62ce a53f 1193 8c3f 58de 543e
00000010: aa37 763e 7187 3bbf 5d70 1340 630d 02bf
00000020: 4c80 5e3e 3c01 563f
0.78602403 1.2953608 1.0982381 0.20787942 0.24044672 -0.7325354 2.303733 -0.50801677
0.21728629 0.83595634

hidden_layer1_phiN.running_mean f4 [10]
00000000: 6f4f 043a 2d9c 663f b0ad c43c 9bb1 7f3f
00000010: 5267 693f 8ac0 7f3f af8f 833c f463 b33e
00000020: 12de 7f3f fc83 423f
0.0005047237 0.90082055 0.024008602 0.9988038 0.9117328 0.99903166 0.016059725 0.35037196
0.9994823 0.7598264

hidden_layer1_phiN.running_var f4 [10]
00000000: 7838 b634 dc7f 7e3a abca c43a 6cf5 f734
00000010: f487 773d 0176 1036 ad93 0f38 065e aa3b
00000020: 97e5 1234 ac00 9a3d
3.3941228e-07 0.00097083836 0.0015014013 4.6185903e-07 0.06043239 2.152636e-06 3.423139e-05 0.0051991967
1.3680834e-07 0.075196594

hidden_layer2_phi.weight f4 [10, 10]
00000000: add0 a43f d9a6 3c3f 5c0d 2141 e32d 4b3e
00000010: bb34 35c1 3937 8940 a2ef 36bf 24d8 c33f
00000020: 1252 903f 8b0b 7e3d 49c7 9340 edb3 0640
00000030: 9281 43bc c275 eb3f b1dc 6a3f a2ab 053f
00000040: f7a4 3240 d6ea 883f f6eb 9a3e ab5c ee3c
00000050: 3aa6 c3bf 96d8 b2bf a3e4 ee3f 105f 51c0
00000060: 3a5d 93bf b0b9 c63f 6740 21c0 caf4 79bf
00000070: f0d5 66bf 7843 353f abb7 b73e fc01 c9c0
00000080: 51b8 99c1 2762 6f41 bf59 6140 477e 4cc0
00000090: a156 4ec0 09ed f0c0 244f 3c40 45e5 f541
000000a0: 416a 0bbc 40ad 78bc 4985 c1bf 2b19 4b3e
000000b0: 06f2 e240 0f59 57c0 8b1b e13c 5d5a 00bf
000000c0: db48 3e3f d1fe 083f 7860 6cbe ee36 8bbd
000000d0: c63c 40c0 0195 1fbe 5ff9 fdbe c1fd 66c0
000000e0: 5363 4c3e 833d 0cbf 2263 163d 1654 bc3e
000000f0: dd2a 503f 6d2e b23f 5f32 a33e 0d9b d63f
00000100: bd4b 8e3f 08aa 74c0 308f 1540 bf2d 6d3f
00000110: 5aca d43f d8ae 853e 8d2a 4eba 9c58 64be
00000120: d847 cbbf bddf b5bd d37f 3bbf 63b5 633f
00000130: edb1 86be 5034 e7be 97ef 58bf bee2 0ebf
00000140: 5cdc bec1 03b5 1341 fcef a640 fa0d 76c0
00000150: 6085 ab40 8145 b13f 8c9d 8641 90bd 8abf
00000160: 1f72 dd40 a614 c83f 0f7e d7bd 6f84 043e
00000170: 4175 6ac0 5185 2abf 54b7 d03f 1b47 1041
00000180: f15e 76bf d15f b840 7d00 bac0 e988 e740
1.2876183 0.7369209 10.065762 0.19841723 -11.325374 4.287991 -0.714594 1.5300336
1.1275046 0.062022727 4.618077 2.1047318 -0.011932747 1.8395312 0.91743 0.52215016
2.7913187 1.0696666 0.3025815 0.029096922 -1.5285103 -1.3972347 1.8663524 -3.2714272
-1.1512825 1.5525417 -2.5195558 -0.97639143 -0.9017019 0.70806074 0.35882315 -6.281492
-19.214998 14.961463 3.5211027 -3.1952074 -3.2240374 -7.528935 2.9423304 30.736948
-0.00850922 -0.015178025 -1.51188 0.1983382 7.092044 -3.3648107 0.027478954 -0.50137883
0.7432992 0.5351382 -0.23083675 -0.067975864 -3.0037093 -0.15584184 -0.49604318 -3.609238
0.19959764 -0.5478136 0.036715634 0.36782902 0.81315404 1.3920418 0.31874368 1.6766068
1.1116863 -3.822878 2.3368645 0.9264793 1.6624253 0.26109958 -0.0007864617 -0.22299427
-1.58813 -0.08880565 -0.7324192 0.8894865 -0.26307622 -0.451571 -0.84740585 -0.5581473
-23.857597 9.231692 5.216795 -3.844603 5.360031 1.3849336 16.826927 -1.08391
6.920181 1.5631301 -0.10522091 0.12941144 -3.6634066 -0.66609675 1.6305947 9.01736
-0.9623862 5.7616963 -5.8125596 7.2354627

hidden_layer2_phi.bias f4 [10]
00000000: 14fe af3f 41bc 4f40 33b1 b5bf 542d 1bc1
00000010: db7c b7c0 7fb8 1b3f 5125 1840 6cc1 47be
00000020: a0a1 f940 8191 4d3f
1.3749413 3.245865 -1.4194702 -9.698566 -5.733991 0.60828394 2.3772776 -0.19507378
7.8009796 0.80300146

hidden_layer2_phiN.weight f4 [10]
00000000: 3f41 ea3f 40e2 e340 7b79 3140 fb0e 3f40
00000010: 705e 9f40 2836 9a40 15ed f440 3e36 4040
00000020: 4339 0341 6a15 fc3f
1.8301162 7.1213684 2.7730396 2.9852893 4.980278 4.819111 7.6539407 3.0033107
8.20148 1.9694035

hidden_layer2_phiN.bias f4 [10]
00000000: 11bf 8abf 8be1 6ebf fd3a 383f 9a9a 5640
00000010: c992 9f3f 881e f3be 5f53 c7bf f5ba 3fbf
00000020: 9139 a6bf 6da7 aa3f
-1.0839559 -0.933129 0.7196501 3.3531861 1.246667 -0.4748423 -1.5572318 -0.7489465
-1.2986318 1.3332344

hidden_layer2_phiN.running_mean f4 [10]
00000000: 4358 233f 17de 7f3f 273a 9d3d d3f9 133f
00000010: c807 c43e 76e9 c13e 82d0 703f f513 5a3d
00000020: ae97 7b3f 3bb2 d73e
0.6380655 0.9994826 0.07677107 0.57803077 0.38287187 0.3787343 0.9406816 0.05324169
0.9827832 0.42128167

hidden_layer2_phiN.running_var f4 [10]
00000000: 37b6 3f3e 5fc2 ab36 6170 6f3d 8fe0 643e
00000010: 321b 333e 6023 2c3e 27d1 123d 743d d43b
00000020: e13b 803c c70d 5d3e
0.18721853 5.118825e-06 0.058456782 0.22351287 0.17490843 0.1681037 0.035843994 0.0064770523
0.015653552 0.21587287

output_layer_phi.weight f4 [1, 10]
00000000: ef00 313f eb49 6c40 e2f1 0440 5456 72be
00000010: 3f44 06c0 68a0 0440 eed7 1b40 352c 423f
00000020: 5e33 c9b9 5f60 50bf
0.6914205 3.6920116 2.0772634 -0.23665744 -2.0979154 2.0722904 2.4350543 0.75848705
-0.0003837598 -0.8139705

hidden_layer1_m_D.weight f4 [10, 3]
00000000: 7ae8 5ac0 5ad4 4bc0 2e65 3fc0 7647 eb3f
00000010: 1f87 0740 d1a0 b03c 9d7f 63be 8abf ffbd
00000020: b2f6 16be e69b 8ac0 8ef8 80bf fe23 d5bf
00000030: 5f31 1240 1246 fb3f 21ef f43f b6d6 8440
00000040: 87bc e23e 8ad3 173f 472d ffbf 0105 80bd
00000050: 8180 a840 49d5 31c0 3d62 c8bf bbd3 9abf
00000060: 6fdb d5be 2803 1540 a0e7 f6be 5c9f 4bc0
00000070: cd1c 0dc0 61ba 00c0
-3.4204392 -3.184836 -2.9905505 1.8381183 2.1176221 0.021561058 -0.2221665 -0.12487705
-0.14742544 -4.3315306 -1.0075853 -1.6651609 2.2842634 1.9630759 1.9135476 4.15121
0.4428446 0.5930716 -1.9935693 -0.062509544 5.2656865 -2.778643 -1.565498 -1.2095865
-0.41768977 2.3283176 -0.4822359 -3.1816015 -2.2048829 -2.0113757

hidden_layer1_m_D.bias f4 [10]
00000000: accb 193f f52f a43b 9e5a 5040 c2e2 a33e
00000010: f8d8 b53f 9c38 693f 2097 9b3e 2a65 ebbe
00000020: 6742 0540 fa4e f2be
0.60076404 0.0050105997 3.2555308 0.3200894 1.4206839 0.91102004 0.30388737 -0.4597562
2.0821779 -0.4732588

hidden_layer1_m_DN.weight f4 [10]
00000000: 6654 2740 a630 8f3f 5d7a b03f 8b93 d23f
00000010: a7b8 c43f 2410 a03f 6ba3 263f cd00 36bf
00000020: cc12 1dbd 0c49 fe3f
2.6145263 1.1186721 1.3787342 1.6451277 1.5368851 1.2504926 0.65093106 -0.7109497
-0.038348004 1.9866042

hidden_layer1_m_DN.bias f4 [10]
00000000: 5132 4c40 92b1 80c0 bee4 7040 7219 24c0
00000010: 4b63 0040 9264 1e40 2e22 3540 a189 5ac0
00000020: ea45 8740 df4f 12c0
3.190571 -4.021676 3.7639613 -2.564053 2.0060604 2.4748883 2.8302112 -3.4146502
4.2272844 -2.286125

hidden_layer1_m_DN.running_mean f4 [10]
00000000: 2e27 ea3c 18f9 673f b732 733f 0d4a 843d
00000010: 84d8 7c3f 594b 733f baea 443f 0a70 223d
00000020: 8905 753f 38bf ab3c
0.028583135 0.9061446 0.9499926 0.064594366 0.98767877 0.95036846 0.76920664 0.03965763
0.9571157 0.020965204

hidden_layer1_m_DN.running_var f4 [10]
00000000: f8f2 873b 28eb 123c 980a c337 7e6d ce3b
00000010: d7ba bd39 677b 103b a4d6 343d aa08 173b
00000020: baab ef3a 051c b93a
0.004148837 0.008967198 2.3250745e-05 0.0062996736 0.00036188096 0.002204621 0.04415001 0.0023045936
0.0018285431 0.001412273

hidden_layer2_m_D.weight f4 [10, 10]
00000000: be79 2840 87bc febf 23e6 be3f 4e31 893d
00000010: 9755 ed3c eafd 183e 985b 84bd 10ad 76bf
00000020: 1ff6 9a3f cfb5 fcbe 19e3 0f40 8b57 efbf
00000030: c307 bb3f 2ac0 eabe 0f87 c73e afea 3d3d
00000040: 61db f9bd 256b 91bf a529 a83f 155b 26be
00000050: 699c 2440 d88f 17c0 31ce ff3f 28ab 933e
00000060: aaf6 293d f072 9e3e 1f69 263e f257 1dbf
00000070: 9dd4 c93f f399 aebd 2953 2640 3c3d d7bf
00000080: 840a db3f 9306 11bf 745e 69bf c005 1e3f
00000090: 3889 8e3e 9563 3dbf 0fc8 5240 45d3 d43b
000000a0: 62bd 1e40 1a3f 14c0 70fd ed3f 9681 62be
000000b0: 297d c03d 32c2 843e 7b10 353e 791e 69bf
000000c0: 5e2a a13f b019 2ebe 44a9 1e40 b4e0 ebbf
000000d0: 8332 0240 030f 77be e03d 88bf 6489 153f
000000e0: 7d86 f9bd 92df 6dbf 4fb6 1a40 158c b9bd
000000f0: ce92 ad3f a2b7 ecbf 90f4 d73f 4fe2 29bf
00000100: 1f2f 1f40 e4df 6b3f 1bda 5e40 31e3 01c0
00000110: 6f54 c03f a2a5 cfbf c458 fe3f a7ba fbbf
00000120: 1c95 b53f 1383 c5be 7736 bbbe 65af b6bd
00000130: 18bf 0fbd 8a3d 98bf a0ac ec3f 7073 873e
00000140: 9fdf 3ac0 a73c d33f c39b 1bc0 7b35 003f
00000150: d4d5 013f 4cd1 e53e c145 1dbf a24e f63e
00000160: d4ec 0bc0 84b1 953d 6198 1e40 cf02 dcbf
00000170: 5f80 db3f a221 96be bace 8abf b13d 553f
00000180: aa03 b3bd ce46 83bf 7b98 2a40 c085 80be
2.6324306 -1.9901284 1.4913982 0.06698857 0.028971476 0.1494061 -0.064627826 -0.9635782
1.210636 -0.4935746 2.248236 -1.8698591 1.4611744 -0.45849735 0.3897023 0.04636639
-0.12200046 -1.1360823 1.3137709 -0.16245683 2.5720465 -2.3681545 1.99848 0.2884152
0.041495003 0.30947065 0.16251038 -0.6146232 1.576801 -0.08525457 2.5988257 -1.6815562
1.7112584 -0.56650656 -0.9115975 0.61727524 0.27839065 -0.73980075 3.2934606 0.006494912
2.480309 -2.3163514 1.8592968 -0.22119746 0.093988724 0.2592941 0.17682068 -0.9106212
1.2591054 -0.17001987 2.4790812 -1.8427949 2.034333 -0.2412682 -1.0643883 0.58412766
-0.12183855 -0.92919266 2.4173772 -0.09059922 1.3560426 -1.849354 1.687151 -0.66360945
2.487251 0.92138505 3.482062 -2.0294917 1.5025767 -1.6222422 1.9870839 -1.9666337
1.418613 -0.38576564 -0.3656499 -0.089201726 -0.03509435 -1.189378 1.8490181 0.2645526
-2.9198987 1.6502885 -2.431382 0.50081605 0.507169 0.44886243 -0.6143456 0.48106867
-2.1863298 0.07309249 2.4780505 -1.7188357 1.7148551 -0.29322535 -1.0844338 0.8329726
-0.08740933 -1.0255983 2.6655567 -0.25102043

hidden_layer2_m_D.bias f4 [10]
00000000: a7f6 a83f e5c9 c73f 2b8a ff3f 08d6 a83f
00000010: cd39 e43f 3e98 ea3f 4083 0240 567b 2840
00000020: 37a0 bd3e 0c9c 0940
1.3200272 1.5608488 1.996404 1.3190317 1.7830139 1.8327711 2.0392609 2.6325278
0.37036297 2.1501493

hidden_layer2_m_DN.weight f4 [10]
00000000: 4b17 3841 f9b9 5940 7f1b 7a41 d3e5 5e41
00000010: 7549 4d40 d930 0a41 37dd bcbe 7283 5241
00000020: ed33 313f 808b 3841
11.505687 3.4019759 15.631713 13.931109 3.2076085 8.636926 -0.36887524 13.157091
0.6921986 11.534058

hidden_layer2_m_DN.bias f4 [10]
00000000: 0000 0000 0000 0000 0000 0000 0000 0000
00000010: 0000 0000 0000 0000 0000 0000 0000 0000
00000020: 0000 0000 0000 0000
0.0 0.0 0.0 0.0 0.0 0.0 0.0 0.0
0.0 0.0

hidden_layer2_m_DN.running_mean f4 [10]
00000000: fcff 7f3f fcff 7f3f fcff 7f3f fcff 7f3f
00000010: fcff 7f3f fcff 7f3f fcff 7f3f fcff 7f3f
00000020: 50fa 1e2c fcff 7f3f
0.99999976 0.99999976 0.99999976 0.99999976 0.99999976 0.99999976 0.99999976 0.99999976
2.2592102e-12 0.99999976

hidden_layer2_m_DN.running_var f4 [10]
00000000: 0400 0000 0400 0000 0400 0000 0400 0000
00000010: 0400 0000 0400 0000 0400 0000 0400 0000
00000020: 7970 b91c 0400 0000
6e-45 6e-45 6e-45 6e-45 6e-45 6e-45 6e-45 6e-45
1.2271347e-21 6e-45

output_layer_m_D.weight f4 [1, 10]
00000000: dd09 1841 d88f d8be f5f3 4b41 1d27 fd40
00000010: 789b 10c0 b7f9 9a40 8caf 803e e317 2441
00000020: 5e6d 833e 2dcd 9740
9.502408 -0.42297244 12.74706 7.9110246 -2.259489 4.842983 0.25133932 10.255832
0.25669378 4.743796
