Diffuse_interface_Bubble_PINN_ver1/NNlayers_Bubble_2.pt (torch, 29422 bytes, 65 tensors)

hidden_layer1_u1.weight f4 [10, 3]
0	0xc191aef7	-18.210432
1	0xbfc477e9	-1.5349094
2	0x3dfbe45e	0.12299417
3	0x415bb023	13.730502
4	0xc0c669ae	-6.2004004
5	0xbfa84fc7	-1.3149346
6	0x41aa30c4	21.273811
7	0xc0aa7772	-5.3270807
8	0xbdaf010e	-0.08545123
9	0xc16689ae	-14.408613
10	0x3f53d1cc	0.82742
11	0x3f38bad9	0.72160107
12	0xc0b6b240	-5.709259
13	0xc0c47f56	-6.140544
14	0x3e8660e7	0.26245806
15	0xc089623b	-4.293241
16	0xbfda6b1c	-1.7063937
17	0x3ccd7f9c	0.025085263
18	0x4014eb66	2.3268676
19	0x40ec9eb0	7.394371
20	0xbe9bdfa1	-0.30444053
21	0x40894bbd	4.2904954
22	0xc10d84eb	-8.844951
23	0xbef112e8	-0.47084737
24	0xbf9af0ce	-1.2104738
25	0xc1f817be	-31.011593
26	0x41425fb6	12.148367
27	0xc0f473e8	-7.6391487
28	0x4103381c	8.201199
29	0xbec18d1d	-0.37802973

hidden_layer1_u1.bias f4 [10]
0	0x40d3f4f0	6.6236496
1	0x3ed8265e	0.42216772
2	0xc02b3735	-2.6752446
3	0xbf0394e4	-0.51399064
4	0xc0308990	-2.7583961
5	0xbf54a926	-0.830706
6	0xbf02c491	-0.51081187
7	0xc000141b	-2.0012271
8	0xbeddf8f1	-0.4335399
9	0x41095115	8.582295

hidden_layer1_u1N.weight f4 [10]
0	0x400f5036	2.2392707
1	0x4095e9a8	4.6847725
2	0xc0bf0339	-5.9691434
3	0x3fde95ba	1.7389443
4	0xc0a91212	-5.283456
5	0x4093e332	4.621484
6	0x406dc803	3.7153327
7	0x4052daf8	3.2946148
8	0x3f70d803	0.9407961
9	0x40998b06	4.7982206

hidden_layer1_u1N.bias f4 [10]
0	0xbd9fd38e	-0.07804023
1	0xbfab98ed	-1.3406044
2	0x4075b7f8	3.8393536
3	0x3f902f74	1.1264482
4	0xc034d81a	-2.8256898
5	0xbf83a277	-1.0283955
6	0x3f6c8c99	0.92402035
7	0xc01e1890	-2.4702492
8	0xbef49e01	-0.47776797
9	0xbcbbce0c	-0.0229254

hidden_layer1_u1N.running_mean f4 [10]
0	0x3ea564fd	0.3230361
1	0x3f0859af	0.53261846
2	0x3f1aae7d	0.604225
3	0x3ddd0671	0.10792244
4	0x3ae6077f	0.0017549841
5	0x3d0191da	0.031633236
6	0x3f729a94	0.9476712
7	0x3d8442d1	0.06458057
8	0x3dea20f3	0.11432066
9	0x3f7e95ab	0.99447125

hidden_layer1_u1N.running_var f4 [10]
0	0x3e0d6907	0.13809596
1	0x3e18c368	0.14918292
2	0x3e28379a	0.1642746
3	0x3cd023c4	0.02540768
4	0x382281b1	3.8744594e-05
5	0x3b0a6173	0.0021115213
6	0x3c1813dd	0.0092820795
7	0x3ca2e7f6	0.019885998
8	0x3d6e91c8	0.058244497
9	0x3a1ce934	0.00059856777

hidden_layer2_u1.weight f4 [10, 10]
0	0x408af611	4.3425374
1	0xbffca20c	-1.9736953
2	0xc1366283	-11.399051
3	0xc18707e3	-16.87885
4	0x415a671d	13.650174
5	0xbea729ff	-0.32649228
6	0x40bfc846	5.9931974
7	0x410c76ff	8.779052
8	0xc0b99188	-5.799015
9	0xc21a4ac3	-38.57301
10	0xc14110cc	-12.066601
11	0x41417dd5	12.093221
12	0x4108c918	8.549095
13	0x3fa923b4	1.3214021
14	0xc1b12179	-22.141344
15	0xc0e0cd23	-7.025041
16	0x402f9fe5	2.7441342
17	0xc0c780e1	-6.2344823
18	0xc10daa00	-8.854004
19	0x40825cf4	4.073847
20	0x40f21886	7.5654936
21	0xbfd6f5a8	-1.6793718
22	0xc1637501	-14.216065
23	0xc100d742	-8.052553
24	0x416b642a	14.711954
25	0x3fe28f3f	1.7699965
26	0xbfd9b1b5	-1.7007357
27	0x4095e69b	4.6844
28	0x412240fb	10.140864
29	0xc195a34f	-18.70474
30	0xc082a4cf	-4.082618
31	0xc0301838	-2.7514782
32	0xc1808498	-16.064743
33	0x3cc4f4ec	0.02404257
34	0x411af041	9.683656
35	0x3fbecb2c	1.4905753
36	0x3f412b64	0.75456834
37	0x40cd7335	6.4203134
38	0x407d3dc5	3.956895
39	0xc1c8ea9e	-25.11456
40	0x3e808829	0.25103882
41	0xbfeba5fe	-1.8410032
42	0xbee63ecf	-0.44969794
43	0x3fb4f528	1.4137316
44	0xbf9bef5c	-1.2182422
45	0xc002feab	-2.0467937
46	0xbf99a71e	-1.2004125
47	0xc0078ad8	-2.1178493
48	0xbf9eb534	-1.2399049
49	0xc01aa96a	-2.4165902
50	0x413d7f92	11.843645
51	0xc00ac269	-2.1681159
52	0xc0b5141e	-5.6587057
53	0xc0b30129	-5.5938916
54	0x412d8bde	10.846647
55	0xbfb47dc0	-1.4100876
56	0x3fed55f2	1.8541853
57	0x40f9b838	7.8037376
58	0xbfb581f9	-1.418029
59	0xc1ade64d	-21.737452
60	0xc0ab0ec7	-5.345554
61	0x3e2f27ed	0.17105074
62	0x41b55615	22.667032
63	0x411e75ec	9.9037895
64	0xc0f2de29	-7.589619
65	0x40b061af	5.5119243
66	0xc0cf9f7f	-6.4882197
67	0xc06397d5	-3.556142
68	0x414aa71c	12.665798
69	0x419d2796	19.64433
70	0x3fa4ccf3	1.2875046
71	0xbf2c294e	-0.67250526
72	0x40e4ebcc	7.153784
73	0x401f5e4d	2.4901307
74	0xc1195c05	-9.584966
75	0x402e90c7	2.7275865
76	0x3ff2e8ac	1.8977256
77	0xc03dd645	-2.966203
78	0xbfb35e88	-1.4013224
79	0x3fa417af	1.2819728
80	0x3fc1df5e	1.5146291
81	0xc10f4969	-8.955422
82	0xc1691632	-14.567919
83	0xc0c4f19f	-6.154495
84	0x41646630	14.274948
85	0x3ee2c081	0.44287494
86	0x3ead594e	0.33857197
87	0x40e93ab7	7.2884173
88	0x40b3b8cf	5.6163096
89	0xc1ac9226	-21.571362
90	0xbf539b0d	-0.82658464
91	0x412f90ff	10.972899
92	0x40c2ceb2	6.0877314
93	0xc0e78410	-7.234871
94	0xbd96e6c7	-0.07368236
95	0x40b3c649	5.6179547
96	0xc06eb79a	-3.7299562
97	0xbf3d4f45	-0.7394908
98	0x40dfef2d	6.9979463
99	0xc0371d93	-2.86118

hidden_layer2_u1.bias f4 [10]
0	0xc12fcc90	-10.987442
1	0x41a630be	20.7738
2	0xc10c8553	-8.78255
3	0xc10df1cd	-8.871533
4	0x3f46d6c3	0.7767145
5	0xc12d822e	-10.844282
6	0xc06479f2	-3.569943
7	0x403688bb	2.8520954
8	0xc13ea91b	-11.9162855
9	0xc09365ac	-4.606161

hidden_layer2_u1N.weight f4 [10]
0	0x3fdcecf7	1.7259816
1	0xbedff14c	-0.43738782
2	0x40208e16	2.5086722
3	0x3fe2b171	1.7710401
4	0x3dd77660	0.10520625
5	0x40732d8a	3.7996545
6	0x3e4ba0d9	0.19885577
7	0x40509a76	3.2594275
8	0x40198e31	2.3993037
9	0xbf2c9792	-0.6741878

hidden_layer2_u1N.bias f4 [10]
0	0xbfd29b8b	-1.6453718
1	0x3da0b34b	0.078466974
2	0xc013a29a	-2.3067994
3	0xc02cbfa7	-2.6991975
4	0x3fb36e1a	1.4017975
5	0xc056d62c	-3.356822
6	0xbdc97834	-0.0983738
7	0x40156f3f	2.334915
8	0xc0303010	-2.7529335
9	0xbf8aabdb	-1.0833696

hidden_layer2_u1N.running_mean f4 [10]
0	0x3d99beab	0.0750707
1	0x3f7b55ca	0.9817778
2	0x3d9027bb	0.07038828
3	0x3dbc0264	0.091801435
4	0x3f728f7c	0.9475019
5	0x3d911d9a	0.07085724
6	0x3f1cddc4	0.6127589
7	0x3f6ae780	0.9175949
8	0x3d8f0e5d	0.069851615
9	0x3e866e98	0.2625625

hidden_layer2_u1N.running_var f4 [10]
0	0x3d89b760	0.06724429
1	0x3c8e315e	0.017357524
2	0x3d834dbc	0.06411311
3	0x3da516a3	0.08060958
4	0x3cf28976	0.029606562
5	0x3d83e3fc	0.06439969
6	0x3e636343	0.22205834
7	0x3d8f5f2a	0.07000573
8	0x3d82df27	0.06390219
9	0x3e3dbbcd	0.18528672

output_layer_u1.weight f4 [1, 10]
0	0xbf6d0ead	-0.9260052
1	0xbe1528d0	-0.1456635
2	0xbfb705dd	-1.4298664
3	0x3fabcec5	1.3422476
4	0xc026f394	-2.6086168
5	0x4089738d	4.2953553
6	0xba8a3443	-0.001054414
7	0x403bf54e	2.9368472
8	0x3feca357	1.8487347
9	0x3e300200	0.17188263

hidden_layer1_u2.weight f4 [10, 3]
0	0xbeece828	-0.4627087
1	0xc0ef9959	-7.487469
2	0xbf6d0635	-0.92587596
3	0xc0a0e789	-5.0282636
4	0x40864873	4.196344
5	0xbf3d3c19	-0.73919827
6	0xbfe99e2e	-1.8251398
7	0x4131cc61	11.112397
8	0xc1226861	-10.150483
9	0x4033131e	2.7980418
10	0x401284c5	2.2893536
11	0xbed2ba1f	-0.41157624
12	0xc18f7274	-17.930885
13	0x40a210cc	5.0645504
14	0xbf4e8c61	-0.8068295
15	0x41254cf6	10.331289
16	0xc0d3703d	-6.607451
17	0xbd5dc463	-0.054142367
18	0xc18bfa1f	-17.49713
19	0x408f2df2	4.4743586
20	0x3d847cee	0.06469141
21	0x40bf47b9	5.977505
22	0xc133fe0b	-11.249522
23	0xbe86cb83	-0.26327142
24	0xc0cbc53c	-6.3678265
25	0xc0fd4b63	-7.9154525
26	0xbe89f7e1	-0.2694693
27	0x40008687	2.008211
28	0x40d238c2	6.5694284
29	0x3dfd8f95	0.12380902

hidden_layer1_u2.bias f4 [10]
0	0x4037b754	2.8705645
1	0x409c1eff	4.8787837
2	0x410a2005	8.632817
3	0xc0bebfa9	-5.960896
4	0x40131c25	2.2985928
5	0xc1041ab2	-8.256517
6	0x4028b5b6	2.6360908
7	0x40502954	3.2525225
8	0x40287618	2.6322079
9	0x3f45e1c5	0.7729762

hidden_layer1_u2N.weight f4 [10]
0	0x401c7331	2.4445307
1	0x40213551	2.5188792
2	0x404a99f2	3.165646
3	0x40716b2b	3.772166
4	0x404cfea2	3.2030416
5	0x4089884b	4.2978873
6	0x40f56a4b	7.669225
7	0x400b39fd	2.1754143
8	0x40a24579	5.0709805
9	0x405e09e4	3.4693537

hidden_layer1_u2N.bias f4 [10]
0	0xc08417bf	-4.1278987
1	0x40445630	3.0677605
2	0x3ff56ac9	1.9173213
3	0x4031cecb	2.7782466
4	0x4016678f	2.3500707
5	0xc0a6669b	-5.200025
6	0x408eaae9	4.458363
7	0xc0395046	-2.8955245
8	0x3ffdb966	1.9822204
9	0x3f542071	0.82862

hidden_layer1_u2N.running_mean f4 [10]
0	0x3e3e406e	0.18579265
1	0x3f76c794	0.9639828
2	0x3f798c74	0.9747994
3	0x3e1ec75e	0.1550574
4	0x3ecf7845	0.40521446
5	0x3d145dab	0.03622214
6	0x3ed84f5f	0.42248055
7	0x3e977b96	0.29586476
8	0x3d899658	0.06718129
9	0x3f7afc4c	0.98041224

hidden_layer1_u2N.running_var f4 [10]
0	0x3d89a78f	0.067214124
1	0x3be22a66	0.006902027
2	0x3c216183	0.009849909
3	0x3ccfa80c	0.025348686
4	0x3e2199f7	0.15781389
5	0x3c6d23a2	0.014473828
6	0x3e23e5bc	0.16005605
7	0x3e0f5acc	0.1399948
8	0x3cc25ec7	0.023726834
9	0x3aba0ec8	0.0014195079

hidden_layer2_u2.weight f4 [10, 10]
0	0x40f33806	7.600589
1	0xc101d3ec	-8.114239
2	0x3f8e0e1b	1.1098055
3	0xc095eebc	-4.6853924
4	0xbfbd4f73	-1.4789871
5	0x40926c48	4.575718
6	0x3f224ff8	0.6340327
7	0x403db223	2.9639976
8	0xbf5ec550	-0.87019825
9	0xbf8ac0ba	-1.0840065
10	0x41a542ea	20.657673
11	0xc0358b30	-2.8366203
12	0x40102de0	2.2528
13	0xc09c4ee0	-4.8846283
14	0x4078adb6	3.8856025
15	0x4196ab82	18.833744
16	0xc1978503	-18.939947
17	0x41036ea4	8.214512
18	0xc146d140	-12.426086
19	0xc11b3d01	-9.702394
20	0xc0c6e103	-6.2149673
21	0xc1693863	-14.576266
22	0xc0855dc7	-4.1676974
23	0x414e2978	12.885124
24	0xc1b2ff0e	-22.374538
25	0xc11c1212	-9.754412
26	0x40977d8f	4.734077
27	0x3fb394ba	1.4029763
28	0x41c1f49c	24.244438
29	0x418c35ee	17.526333
30	0x41a8907b	21.070547
31	0x409e5b11	4.9486165
32	0xc0e519c1	-7.159394
33	0xc0d8efd7	-6.7792773
34	0x412668e1	10.400605
35	0x419eae14	19.835
36	0xc0a16bfe	-5.0444326
37	0x40e3e952	7.1222315
38	0xc16c2c78	-14.760857
39	0x41122ee7	9.136451
40	0x401d22c9	2.455248
41	0x402c8d11	2.69611
42	0xbfd9ea12	-1.7024558
43	0x3c6d3b9e	0.014479546
44	0x3e58ef9a	0.2118515
45	0x410a1b57	8.631675
46	0xbfdda29c	-1.731525
47	0xbfb669a0	-1.4250984
48	0xc09da224	-4.9260426
49	0xbf8716e3	-1.055386
50	0xc0f9d4e3	-7.807237
51	0xbfb22cc7	-1.3919915
52	0x3fcc463b	1.5958933
53	0x410d572b	8.833781
54	0xc0d5a172	-6.6759577
55	0xc099e4e3	-4.8091903
56	0x40601a87	3.501619
57	0x3f9fc436	1.2481754
58	0x3e05e47d	0.13075443
59	0xc0acc318	-5.398815
60	0x4103517a	8.207392
61	0xbe352a54	-0.17691928
62	0xc0723290	-3.784336
63	0xc0c92bd9	-6.2866025
64	0x40018ea8	2.024332
65	0x4162b012	14.167986
66	0xbf70976d	-0.9398106
67	0xc0c6e91e	-6.2159567
68	0xc18fefb3	-17.99204
69	0x40244fe1	2.5673754
70	0xc14614ae	-12.380049
71	0x41205504	10.020756
72	0x414d3ac6	12.826849
73	0xc0c00485	-6.0005517
74	0x40b2346b	5.5688987
75	0xc10a1b7d	-8.631711
76	0x40c6f4ea	6.2173967
77	0xc1eb5751	-29.417635
78	0x4107d25f	8.48886
79	0x40ef9a02	7.48755
80	0x40dcd0a7	6.9004703
81	0xc020e5a6	-2.5140166
82	0xbf2be8ab	-0.671519
83	0x40279a84	2.618806
84	0x40866d2a	4.2008257
85	0x40003999	2.0035155
86	0xbfca2012	-1.5791037
87	0x410c1859	8.755944
88	0xc0aa96d4	-5.3309116
89	0x3f8128b5	1.0090548
90	0xc17ba753	-15.728351
91	0xbfece731	-1.8508054
92	0x412abce1	10.671113
93	0x40a82713	5.25477
94	0x40d18827	6.54787
95	0xc13a0c1e	-11.627958
96	0x41149488	9.2862625
97	0x41593214	13.574726
98	0x4040e592	3.0140119
99	0x40d75560	6.7291718

hidden_layer2_u2.bias f4 [10]
0	0xc0931ab6	-4.5970106
1	0x405cc769	3.449671
2	0x414210f0	12.129135
3	0xc0f46fec	-7.6386623
4	0xbf9287c5	-1.1447684
5	0xbfe2f12a	-1.7729847
6	0xc1417986	-12.092169
7	0x40b81c03	5.7534194
8	0xc145ed08	-12.370369
9	0x41211021	10.066438

hidden_layer2_u2N.weight f4 [10]
0	0x3fb9ca9c	1.4514956
1	0x4062d6c1	3.5443575
2	0xbeab21bb	-0.33424172
3	0x400d0171	2.203213
4	0xbf95462f	-1.1662043
5	0x403495d0	2.8216438
6	0x3e5097cd	0.20370407
7	0x3fa62365	1.2979552
8	0x40646581	3.5686953
9	0x3f70f7db	0.941282

hidden_layer2_u2N.bias f4 [10]
0	0xc023497f	-2.5513608
1	0xc064399c	-3.5660162
2	0x3ddb6840	0.107132435
3	0xc0284242	-2.629044
4	0xbf9f3e35	-1.2440859
5	0x40233242	2.5499425
6	0xc022bd47	-2.5428026
7	0x3fe7854b	1.8087553
8	0xbfe7af0f	-1.8100299
9	0x4014558d	2.3177216

hidden_layer2_u2N.running_mean f4 [10]
0	0x3d7edb43	0.062220823
1	0x3d841de6	0.06451015
2	0x3f6e99a7	0.93203205
3	0x3d1fc1e9	0.039003287
4	0x3d3df1b9	0.046373103
5	0x3f74093d	0.95326596
6	0x3d26b7b7	0.040702548
7	0x3f6ce0c3	0.9253046
8	0x3d286626	0.04111304
9	0x3f6e59d6	0.9310583

hidden_layer2_u2N.running_var f4 [10]
0	0x3d6a5494	0.057209566
1	0x3d74962f	0.05971354
2	0x3d644dfd	0.055738438
3	0x3d189ce7	0.03725901
4	0x3d2fe292	0.042940684
5	0x3d3125fd	0.04324912
6	0x3d1c0dde	0.038099162
7	0x3d8c5ca8	0.0685361
8	0x3d1bac52	0.038006134
9	0x3d81fdc6	0.063472316

output_layer_u2.weight f4 [1, 10]
0	0xbf8813fc	-1.0631099
1	0x40348955	2.820882
2	0xbda40bf6	-0.08010094
3	0x3f2cf2c7	0.6755795
4	0x3fa25206	1.2681282
5	0xc032756f	-2.7884176
6	0x3f1975d5	0.5994542
7	0x3dffbc96	0.12487142
8	0xc00dbcc2	-2.2146459
9	0xbdde52d2	-0.108556405

hidden_layer1_P.weight f4 [10, 3]
0	0xbf2d9536	-0.678058
1	0xbfea64ff	-1.8312072
2	0xc0f7dce2	-7.745713
3	0x3fec60f2	1.8467085
4	0x4045c929	3.0904028
5	0xc0fea0fc	-7.9571514
6	0x4010e6e9	2.2640936
7	0x40ca3df2	6.3200617
8	0x4123744d	10.215894
9	0x3eb77345	0.3583013
10	0x4110be12	9.046404
11	0x4115ead8	9.369835
12	0x3e9412db	0.28920636
13	0x40c2d42e	6.088401
14	0xc0ae9030	-5.455101
15	0xc12d7015	-10.839864
16	0x407d7ba5	3.9606717
17	0x3f808c90	1.0042896
18	0x40d3b43e	6.615752
19	0xbf18b452	-0.59650147
20	0xc135555c	-11.33334
21	0x3cd28d5d	0.025702173
22	0xc1124863	-9.142673
23	0xc1325956	-11.146811
24	0x3f39c23b	0.72562
25	0x410dcfdd	8.863248
26	0x413e83bf	11.907165
27	0xc12a8ea1	-10.6598215
28	0xc1348d10	-11.284439
29	0xbef7f645	-0.48430076

hidden_layer1_P.bias f4 [10]
0	0xc14adcba	-12.678888
1	0xc104bba3	-8.29581
2	0xbee3d578	-0.444988
3	0xbefefcfe	-0.49802393
4	0x40e73339	7.225003
5	0x40e05e93	7.0115447
6	0xc0ed9fd1	-7.425759
7	0x3f72f884	0.94910455
8	0xbe834b08	-0.25643182
9	0xbf507596	-0.8142942

hidden_layer1_PN.weight f4 [10]
0	0x3e48ea02	0.19620517
1	0x40ef01a6	7.468951
2	0x409a27e6	4.8173704
3	0xc0cbbcfd	-6.36682
4	0xc005d8cd	-2.0913575
5	0x412801df	10.500457
6	0xc0b55b5f	-5.6674037
7	0xc0ce5af6	-6.4486036
8	0x40ab5cca	5.355077
9	0x40ca5f87	6.324161

hidden_layer1_PN.bias f4 [10]
0	0x408b4410	4.3520584
1	0xc0b20b3e	-5.5638723
2	0x407c9df6	3.9471412
3	0xc03cbc1e	-2.9489818
4	0xc02ef045	-2.733415
5	0xc03aae95	-2.9169056
6	0x3ff7af2e	1.9350336
7	0x403156b3	2.7709167
8	0x4077433c	3.8634787
9	0xc081cfef	-4.0566325

hidden_layer1_PN.running_mean f4 [10]
0	0x33ea20d2	1.0902444e-07
1	0x3c10e400	0.008843422
2	0x3f7e16ec	0.99253726
3	0x3f7ce011	0.987794
4	0x3f7f4d40	0.9972725
5	0x3f669d5c	0.9008386
6	0x3ba75dfa	0.0051076384
7	0x3c85c438	0.016328916
8	0x3f7e1ad7	0.99259704
9	0x3b5bbd44	0.003352956

hidden_layer1_PN.running_var f4 [10]
0	0x2995415b	6.6282666e-14
1	0x3a59b688	0.00083050923
2	0x3a99e7c2	0.0011742043
3	0x3b310eaa	0.0027016797
4	0x38bed49f	9.09951e-05
5	0x3d266688	0.040625125
6	0x39adae31	0.00033126914
7	0x3ba03593	0.004889199
8	0x3ab2c5a8	0.0013639228
9	0x39c66f1c	0.00037848286

hidden_layer2_P.weight f4 [10, 10]
0	0xbff2b4b2	-1.8961394
1	0x40cb83e7	6.3598514
2	0xc1c7dc41	-24.982546
3	0x40a3df37	5.120998
4	0x3fa43697	1.282916
5	0x40cedaba	6.4642
6	0xc1520845	-13.127019
7	0xc1818b23	-16.192938
8	0xc1dfcd55	-27.97526
9	0x40dad062	6.8379374
10	0xc1124018	-9.140648
11	0x40714244	3.7696695
12	0xc1925f51	-18.296541
13	0x418b5de5	17.420847
14	0x40c4ccaa	6.1499834
15	0x4049fe5d	3.15615
16	0xc06b57f8	-3.6772442
17	0xc152e6d9	-13.181359
18	0xc17d44c3	-15.829288
19	0x40cef2ae	6.467124
20	0xc090a05a	-4.519574
21	0x3fffca52	1.9983618
22	0xc12a383c	-10.638729
23	0x41398888	11.595833
24	0x409311c7	4.59592
25	0x408cd835	4.4013925
26	0xc04e460f	-3.223026
27	0xc0255534	-2.5833254
28	0x40d49a07	6.643802
29	0x4201874c	32.382126
30	0x40cf3606	6.4753447
31	0xc197efdb	-18.992117
32	0x3fb62bd8	1.423213
33	0xc0844a70	-4.1340866
34	0xc09894dc	-4.7681713
35	0xc13a6e2c	-11.651897
36	0x40e6120e	7.189704
37	0x40063366	2.096887
38	0x3f2c0afc	0.6720426
39	0xc1031010	-8.1914215
40	0xc176cb5e	-15.42465
41	0x41803506	16.02589
42	0x3e990138	0.29883742
43	0x40b73c43	5.726106
44	0x413d598f	11.834365
45	0x4030b0af	2.760784
46	0x41410a30	12.064987
47	0xbfb0786c	-1.378675
48	0xbfcd4ebd	-1.6039654
49	0x3f940a9a	1.1565735
50	0xbfd6695d	-1.6750904
51	0xc0ae8c46	-5.454623
52	0x4172fd5a	15.186853
53	0xbfc80199	-1.5625488
54	0xbf976298	-1.1826963
55	0xc0cf2999	-6.473828
56	0xbf86a3d5	-1.0518748
57	0x408de6a7	4.434406
58	0x409ee545	4.965487
59	0xc118f33f	-9.559386
60	0x3e0d691e	0.1380963
61	0x40c60052	6.187539
62	0xc0cab1c7	-6.3342013
63	0x40e07025	7.0136895
64	0x40a93bf0	5.2885666
65	0x3eb1ee49	0.3475211
66	0x3e84aac8	0.25911546
67	0xc186c3cc	-16.845604
68	0xc206b524	-33.676895
69	0x414f4969	12.955422
70	0xc16b4b32	-14.705858
71	0x40dc3d93	6.8825164
72	0xc11defe1	-9.871064
73	0xc04ed27f	-3.2315977
74	0x416a1957	14.6311865
75	0x417f65ad	15.962323
76	0xc08ea91a	-4.4581423
77	0x40837b04	4.1087666
78	0xc0db82de	-6.859725
79	0x41bb8149	23.438128
80	0x409d2290	4.910469
81	0xc18a5f29	-17.296465
82	0x4053b99a	3.3082032
83	0xc0a7e37b	-5.2465186
84	0xbf9eceab	-1.240682
85	0xc11166fd	-9.087644
86	0x3d9c7e15	0.07641236
87	0x405ae655	3.4203084
88	0x4071b8f9	3.7769148
89	0xc11cb52d	-9.794232
90	0xbfb45ecc	-1.409143
91	0xc0435368	-3.0519657
92	0x41312d9d	11.073636
93	0xc1ac5ee5	-21.546335
94	0xbf874ebc	-1.0570903
95	0x4096d566	4.7135496
96	0xc0b45961	-5.6359105
97	0x41cb2122	25.391178
98	0x41671ab6	14.444021
99	0xc0d334a7	-6.6001773

hidden_layer2_P.bias f4 [10]
0	0xbff4bf98	-1.912097
1	0xc0dd2866	-6.9111814
2	0xc0abbe7d	-5.367003
3	0x40b91675	5.7839913
4	0xc14ff9b8	-12.9984665
5	0x4040b68f	3.0111425
6	0xc0a1f1f6	-5.0607862
7	0xc12461be	-10.273863
8	0x40b1aa84	5.552065
9	0x3fb2e09c	1.3974795

hidden_layer2_PN.weight f4 [10]
0	0x43cefe3c	413.9862
1	0x439fee2d	319.86075
2	0x43f0257f	480.29294
3	0x43676789	231.40443
4	0x43988dd3	305.108
5	0x43996d6d	306.8549
6	0x43e20b07	452.08615
7	0x436d8d3f	237.55174
8	0x434b854b	203.52068
9	0x43b2af77	357.37082

hidden_layer2_PN.bias f4 [10]
0	0x00000000	0.0
1	0x00000000	0.0
2	0x00000000	0.0
3	0x00000000	0.0
4	0x00000000	0.0
5	0x00000000	0.0
6	0x00000000	0.0
7	0x00000000	0.0
8	0x00000000	0.0
9	0x00000000	0.0

hidden_layer2_PN.running_mean f4 [10]
0	0x3d47411c	0.048646078
1	0x3d3d7f5c	0.046264037
2	0x3d19a0c2	0.037506826
3	0x3f72866b	0.94736356
4	0x3d2d9dff	0.042387005
5	0x3f7472b4	0.95487523
6	0x3d4a38c4	0.049370542
7	0x3ce13f19	0.027495908
8	0x3f7136ea	0.9422442
9	0x3f7039e9	0.93838364

hidden_layer2_PN.running_var f4 [10]
0	0x3d3a2ca8	0.045452744
1	0x3d30efcf	0.04319745
2	0x3d124071	0.035705987
3	0x3d4b16e4	0.049582377
4	0x3d25d249	0.040483747
5	0x3d2ea877	0.04264113
6	0x3d3d02f4	0.046145394
7	0x3cd7d1e9	0.02634521
8	0x3d5e6263	0.054293048
9	0x3d673557	0.056447353

output_layer_P.weight f4 [1, 10]
0	0xc34f614e	-207.3801
1	0xc3136e89	-147.43178
2	0xc3672fbf	-231.18651
3	0xc353a581	-211.6465
4	0x4335cd18	181.80115
5	0x4391ebfc	291.84363
6	0xc359b4ac	-217.70575
7	0x42f39fcd	121.81211
8	0xc341fa60	-193.97803
9	0x43a84d77	336.6052

hidden_layer1_phi.weight f4 [10, 3]
0	0xc00d1529	-2.2044165
1	0x3fa42e3d	1.2826611
2	0x3fac20e1	1.3447534
3	0x3f2af372	0.6677772
4	0x3e9400ce	0.28906864
5	0xbf5abe20	-0.8544636
6	0x3fdae7d3	1.7101997
7	0xc08f35d4	-4.475321
8	0x3dcd47c4	0.10023454
9	0x3fe5c3a3	1.7950329
10	0xbedbd4af	-0.42935702
11	0x3f03d48e	0.5149621
12	0xc1a7165c	-20.885918
13	0x41d4ee55	26.616373
14	0xbf725401	-0.9465943
15	0x408bd9ea	4.370351
16	0xbfbcb092	-1.4741385
17	0xbcb58dba	-0.022162307
18	0xbf47ea48	-0.7809186
19	0x3ef1a14c	0.47193372
20	0x3eec136d	0.4610857
21	0x3e8a73b2	0.27041394
22	0xbf106788	-0.56407976
23	0x3e2095c1	0.15682127
24	0xbfc26dfa	-1.5189812
25	0x3f577c87	0.8417439
26	0x3f736df7	0.9508967
27	0x407d01b4	3.953229
28	0x40862f72	4.1932917
29	0xbd860947	-0.06544738

hidden_layer1_phi.bias f4 [10]
0	0xc1110ae5	-9.06516
1	0x40047ebe	2.0702357
2	0xc02cdefd	-2.7011101
3	0x40c72ad2	6.223977
4	0x4114bca9	9.29606
5	0x40ef4c68	7.478077
6	0xc0903c32	-4.507348
7	0xbe93e47a	-0.2888525
8	0x40e97e3b	7.296659
9	0xc05a6f96	-3.4130607

hidden_layer1_phiN.weight f4 [10]
0	0x40d437ef	6.631828
1	0x3f03e38e	0.51519096
2	0x3f090126	0.5351738
3	0x3f0a42b5	0.54008037
4	0x3fbbe554	1.467936
5	0x40ce4cfc	6.4468975
6	0x3fc1836e	1.5118234
7	0x3f9901a4	1.1953626
8	0x3f82179b	1.0163454
9	0x3fcfb2d9	1.6226455

hidden_layer1_phiN.bias f4 [10]
0	0x3f4938ba	0.7860218
1	0x3fa5ce4f	1.2953585
2	0x3f8c952d	1.0983025
3	0x3e54db4e	0.20786783
4	0x3e763ef1	0.24047448
5	0xbf3b88ab	-0.73255414
6	0x4013704f	2.3037298
7	0xbf020d98	-0.5080199
8	0x3e5e8246	0.21729383
9	0x3f5605a3	0.8360235

hidden_layer1_phiN.running_mean f4 [10]
0	0x3a01fd69	0.00049587205
1	0x3f66f2ad	0.90214044
2	0x3cc418e2	0.023937646
3	0x3f7fb14b	0.998799
4	0x3f69780d	0.9119881
5	0x3f7fc08d	0.99903184
6	0x3c82aecd	0.015952492
7	0x3eb31a59	0.3498104
8	0x3f7fdd78	0.9994731
9	0x3f428d59	0.7599693

hidden_layer1_phiN.running_var f4 [10]
0	0x34b0835b	3.2878128e-07
1	0x3a6f1512	0.0009120266
2	0x3ac30d25	0.0014881237
3	0x34ed8bc4	4.4246383e-07
4	0x3d769286	0.06019833
5	0x3610ae88	2.1559263e-06
6	0x380e1fc3	3.388502e-05
7	0x3ba8bf06	0.005149725
8	0x341decc5	1.47079e-07
9	0x3d99d545	0.07511381

hidden_layer2_phi.weight f4 [10, 10]
0	0x3fa4d03f	1.2876052
1	0x3f3ca64d	0.73691255
2	0x41210d4a	10.065744
3	0x3e4b2645	0.19838817
4	0xc13534cf	-11.325393
5	0x40893739	4.287991
6	0xbf36f0a4	-0.7146094
7	0x3fc3d845	1.5300375
8	0x3f905194	1.1274896
9	0x3d7e0a05	0.062021274
10	0x4093c74a	4.6180773
11	0x4006b3ed	2.1047318
12	0xbc43879e	-0.011934189
13	0x3feb75c1	1.8395311
14	0x3f6adcd1	0.9174319
15	0x3f05aba3	0.5221502
16	0x4032a4f7	2.7913187
17	0x3f88eacf	1.0696658
18	0x3e9aebee	0.30258125
19	0x3cee7a21	0.02911097
20	0xbfc3a456	-1.5284526
21	0xbfb2d664	-1.3971677
22	0x3feee6ea	1.8664219
23	0xc0515de1	-3.271355
24	0xbf935fb7	-1.1513585
25	0x3fc6bc0a	1.5526135
26	0xc0213f22	-2.5194783
27	0xbf79f014	-0.97631955
28	0xbf66d8b3	-0.90174407
29	0x3f35474b	0.7081191
30	0x3eb7b845	0.35882774
31	0xc0c901e5	-6.2814813
32	0xc199b851	-19.214998
33	0x416f6228	14.961464
34	0x406159d8	3.5211086
35	0xc04c7e15	-3.1951954
36	0xc04e568e	-3.2240329
37	0xc0f0ecfd	-7.528929
38	0x403c4f37	2.942335
39	0x41f5e545	30.736948
40	0xbc0af6ec	-0.008481722
41	0xbc788b51	-0.015169934
42	0xbfc183ab	-1.5118307
43	0x3e4b1c86	0.198351
44	0x40e2f248	7.0920753
45	0xc057590d	-3.3648102
46	0x3ce1731f	0.027520714
47	0xbf005aa6	-0.5013832
48	0x3f3e4bdc	0.743345
49	0x3f08fef4	0.5351403
50	0xbe6c6585	-0.23085602
51	0xbd8b3b49	-0.06798417
52	0xc0403d55	-3.0037434
53	0xbe1f999c	-0.15585941
54	0xbefe004f	-0.4960961
55	0xc066fdc3	-3.6092384
56	0x3e4c5ae7	0.19956551
57	0xbf0c3d35	-0.54780895
58	0x3d163fcb	0.03668193
59	0x3ebc53da	0.36782724
60	0x3f502c22	0.8131734
61	0x3fb22fa2	1.3920786
62	0x3ea33581	0.31876758
63	0x3fd69c54	1.6766458
64	0x3f8e4c43	1.1117023
65	0xc074a960	-3.8228378
66	0x40158ffb	2.3369129
67	0x3f6d3000	0.9265137
68	0x3fd4ca71	1.662428
69	0x3e85b3e9	0.26113823
70	0xba4f471e	-0.00079070206
71	0xbe64564a	-0.22298542
72	0xbfcb4932	-1.5881712
73	0xbdb5cf7a	-0.08877464
74	0xbf3b7f91	-0.73241526
75	0x3f63b6bb	0.889507
76	0xbe86b28b	-0.26308092
77	0xbee733b2	-0.45156628
78	0xbf58effc	-0.8474119
79	0xbf0ee1b8	-0.5581317
80	0xc1bedc5c	-23.857597
81	0x4113b503	9.231692
82	0x40a6effc	5.216795
83	0xc0760df5	-3.8446019
84	0x40ab8560	5.360031
85	0x3fb14581	1.3849336
86	0x41869d8c	16.826927
87	0xbf8abd90	-1.08391
88	0x40dd721f	6.920181
89	0x3fc814a6	1.5631301
90	0xbdd7770c	-0.10520753
91	0x3e048a37	0.1294335
92	0xc06a7483	-3.6633613
93	0xbf2a8228	-0.6660485
94	0x3fd0b75b	1.6305956
95	0x4110471b	9.01736
96	0xbf765d90	-0.96236515
97	0x40b85fc8	5.761692
98	0xc0ba0033	-5.8125243
99	0x40e788fb	7.2354712

hidden_layer2_phi.bias f4 [10]
0	0x3faffd72	1.374922
1	0x404fbc40	3.2458649
2	0xbfb5aee0	-1.4193993
3	0xc11b2d53	-9.6985655
4	0xc0b77c99	-5.7339597
5	0x3f1bb4f8	0.6082301
6	0x401825fd	2.3773186
7	0xbe47c039	-0.19506921
8	0x40f9a1a0	7.8009796
9	0x3f4d9498	0.8030486

hidden_layer2_phiN.weight f4 [10]
0	0x3fea4177	1.8301228
1	0x40e3e240	7.1213684
2	0x40317a26	2.7730803
3	0x403f0f10	2.9852943
4	0x409f5e80	4.9802856
5	0x409a3617	4.819103
6	0x40f4ed13	7.6539397
7	0x404036fc	3.003356
8	0x41033943	8.20148
9	0x3ffc1513	1.9693931

hidden_layer2_phiN.bias f4 [10]
0	0xbf8abeea	-1.0839512
1	0xbf6ee13b	-0.93312424
2	0x3f383b4e	0.7196549
3	0x40569a85	3.3531811
4	0x3f9f92a1	1.2466623
5	0xbef31de5	-0.47483745
6	0xbfc75337	-1.557227
7	0xbf3fbaa6	-0.7489418
8	0xbfa639b2	-1.2986357
9	0x3faaa745	1.3332297

hidden_layer2_phiN.running_mean f4 [10]
0	0x3f2326e7	0.63731235
1	0x3f7fdf9d	0.9995058
2	0x3da0a1c9	0.07843358
3	0x3f139eea	0.5766436
4	0x3ec40fb3	0.38293228
5	0x3ec20479	0.37894037
6	0x3f70945c	0.9397638
7	0x3d5bc585	0.053655166
8	0x3f7a879a	0.9786316
9	0x3ed7b850	0.42132807

hidden_layer2_phiN.running_var f4 [10]
0	0x3e4060a6	0.18786868
1	0x369aef24	4.6173973e-06
2	0x3d7548b2	0.05988378
3	0x3e643188	0.2228452
4	0x3e332fe7	0.17498742
5	0x3e2c6324	0.16834694
6	0x3d178df2	0.037000604
7	0x3bddac92	0.0067649567
8	0x3c9f3112	0.019432578
9	0x3e5d20d8	0.2159456

output_layer_phi.weight f4 [1, 10]
0	0x3f3101fd	0.6914366
1	0x406c49d6	3.6920066
2	0x4004f2ee	2.0773273
3	0xbe725825	-0.23666437
4	0xc006445d	-2.0979226
5	0x4004a04f	2.0722845
6	0x401bd78b	2.4350307
7	0x3f422d40	0.75850296
8	0xb9c8e17b	-0.0003831497
9	0xbf505c0c	-0.8139045

hidden_layer1_m_D.weight f4 [10, 3]
0	0xc05ae87a	-3.4204392
1	0xc04bd45a	-3.184836
2	0xc03f652e	-2.9905505
3	0x3feb4776	1.8381183
4	0x4007871f	2.1176221
5	0x3cb0a0d1	0.021561058
6	0xbe637f9d	-0.2221665
7	0xbdffbf8a	-0.12487705
8	0xbe16f6b2	-0.14742544
9	0xc08a9be6	-4.3315306
10	0xbf80f88e	-1.0075853
11	0xbfd523fe	-1.6651609
12	0x4012315f	2.2842634
13	0x3ffb4612	1.9630759
14	0x3ff4ef21	1.9135476
15	0x4084d6b6	4.15121
16	0x3ee2bc87	0.4428446
17	0x3f17d38a	0.5930716
18	0xbfff2d47	-1.9935693
19	0xbd800501	-0.062509544
20	0x40a88081	5.2656865
21	0xc031d549	-2.778643
22	0xbfc8623d	-1.565498
23	0xbf9ad3bb	-1.2095865
24	0xbed5db6f	-0.41768977
25	0x40150328	2.3283176
26	0xbef6e7a0	-0.4822359
27	0xc04b9f5c	-3.1816015
28	0xc00d1ccd	-2.2048829
29	0xc000ba61	-2.0113757

hidden_layer1_m_D.bias f4 [10]
0	0x3f19cbac	0.60076404
1	0x3ba42ff5	0.0050105997
2	0x40505a9e	3.2555308
3	0x3ea3e2c2	0.3200894
4	0x3fb5d8f8	1.4206839
5	0x3f69389c	0.91102004
6	0x3e9b9720	0.30388737
7	0xbeeb652a	-0.4597562
8	0x40054267	2.0821779
9	0xbef24efa	-0.4732588

hidden_layer1_m_DN.weight f4 [10]
0	0x40275466	2.6145263
1	0x3f8f30a6	1.1186721
2	0x3fb07a5d	1.3787342
3	0x3fd2938b	1.6451277
4	0x3fc4b8a7	1.5368851
5	0x3fa01024	1.2504926
6	0x3f26a36b	0.65093106
7	0xbf3600cd	-0.7109497
8	0xbd1d12cc	-0.038348004
9	0x3ffe490c	1.9866042

hidden_layer1_m_DN.bias f4 [10]
0	0x404c3251	3.190571
1	0xc080b192	-4.021676
2	0x4070e4be	3.7639613
3	0xc0241972	-2.564053
4	0x4000634b	2.0060604
5	0x401e6492	2.4748883
6	0x4035222e	2.8302112
7	0xc05a89a1	-3.4146502
8	0x408745ea	4.2272844
9	0xc0124fdf	-2.286125

hidden_layer1_m_DN.running_mean f4 [10]
0	0x3cef5d6f	0.029219357
1	0x3f67f6e6	0.9061111
2	0x3f733a1a	0.9501053
3	0x3d85bcd8	0.0653016
4	0x3f7ccaa0	0.9874668
5	0x3f733d71	0.9501563
6	0x3f432a0f	0.7623605
7	0x3d24c3f1	0.040225927
8	0x3f75248e	0.95758903
9	0x3cae9d44	0.021315224

hidden_layer1_m_DN.running_var f4 [10]
0	0x3b79f08f	0.003813777
1	0x3c130715	0.008973856
2	0x37bf7191	2.2821858e-05
3	0x3bcda6c8	0.0062759854
4	0x39b24dc8	0.00034008757
5	0x3b1013f2	0.0021984545
6	0x3d38db68	0.045131117
7	0x3b16afc9	0.002299296
8	0x3ae62046	0.0017557226
9	0x3aad7ae9	0.0013235483

hidden_layer2_m_D.weight f4 [10, 10]
0	0x402879be	2.6324306
1	0xbffebc87	-1.9901284
2	0x3fbee623	1.4913982
3	0x3d89314e	0.06698857
4	0x3ced5597	0.028971476
5	0x3e18fdea	0.1494061
6	0xbd845b98	-0.064627826
7	0xbf76ad10	-0.9635782
8	0x3f9af61f	1.210636
9	0xbefcb5cf	-0.4935746
10	0x400fe319	2.248236
11	0xbfef578b	-1.8698591
12	0x3fbb07c3	1.4611744
13	0xbeeac02a	-0.45849735
14	0x3ec7870f	0.3897023
15	0x3d3deaaf	0.04636639
16	0xbdf9db61	-0.12200046
17	0xbf916b25	-1.1360823
18	0x3fa829a5	1.3137709
19	0xbe265b15	-0.16245683
20	0x40249c69	2.5720465
21	0xc0178fd8	-2.3681545
22	0x3fffce31	1.99848
23	0x3e93ab28	0.2884152
24	0x3d29f6aa	0.041495003
25	0x3e9e72f0	0.30947065
26	0x3e26691f	0.16251038
27	0xbf1d57f2	-0.6146232
28	0x3fc9d49d	1.576801
29	0xbdae99f3	-0.08525457
30	0x40265329	2.5988257
31	0xbfd73d3c	-1.6815562
32	0x3fdb0a84	1.7112584
33	0xbf110693	-0.56650656
34	0xbf695e74	-0.9115975
35	0x3f1e05c0	0.61727524
36	0x3e8e8938	0.27839065
37	0xbf3d6395	-0.73980075
38	0x4052c80f	3.2934606
39	0x3bd4d345	0.006494912
40	0x401ebd62	2.480309
41	0xc0143f1a	-2.3163514
42	0x3fedfd70	1.8592968
43	0xbe628196	-0.22119746
44	0x3dc07d29	0.093988724
45	0x3e84c232	0.2592941
46	0x3e35107b	0.17682068
47	0xbf691e79	-0.9106212
48	0x3fa12a5e	1.2591054
49	0xbe2e19b0	-0.17001987
50	0x401ea944	2.4790812
51	0xbfebe0b4	-1.8427949
52	0x40023283	2.034333
53	0xbe770f03	-0.2412682
54	0xbf883de0	-1.0643883
55	0x3f158964	0.58412766
56	0xbdf9867d	-0.12183855
57	0xbf6ddf92	-0.92919266
58	0x401ab64f	2.4173772
59	0xbdb98c15	-0.09059922
60	0x3fad92ce	1.3560426
61	0xbfecb7a2	-1.849354
62	0x3fd7f490	1.687151
63	0xbf29e24f	-0.66360945
64	0x401f2f1f	2.487251
65	0x3f6bdfe4	0.92138505
66	0x405eda1b	3.482062
67	0xc001e331	-2.0294917
68	0x3fc0546f	1.5025767
69	0xbfcfa5a2	-1.6222422
70	0x3ffe58c4	1.9870839
71	0xbffbbaa7	-1.9666337
72	0x3fb5951c	1.418613
73	0xbec58313	-0.38576564
74	0xbebb3677	-0.3656499
75	0xbdb6af65	-0.089201726
76	0xbd0fbf18	-0.03509435
77	0xbf983d8a	-1.189378
78	0x3fecaca0	1.8490181
79	0x3e877370	0.2645526
80	0xc03adf9f	-2.9198987
81	0x3fd33ca7	1.6502885
82	0xc01b9bc3	-2.431382
83	0x3f00357b	0.50081605
84	0x3f01d5d4	0.507169
85	0x3ee5d14c	0.44886243
86	0xbf1d45c1	-0.6143456
87	0x3ef64ea2	0.48106867
88	0xc00becd4	-2.1863298
89	0x3d95b184	0.07309249
90	0x401e9861	2.4780505
91	0xbfdc02cf	-1.7188357
92	0x3fdb805f	1.7148551
93	0xbe9621a2	-0.29322535
94	0xbf8aceba	-1.0844338
95	0x3f553db1	0.8329726
96	0xbdb303aa	-0.08740933
97	0xbf8346ce	-1.0255983
98	0x402a987b	2.6655567
99	0xbe8085c0	-0.25102043

hidden_layer2_m_D.bias f4 [10]
0	0x3fa8f6a7	1.3200272
1	0x3fc7c9e5	1.5608488
2	0x3fff8a2b	1.996404
3	0x3fa8d608	1.3190317
4	0x3fe439cd	1.7830139
5	0x3fea983e	1.8327711
6	0x40028340	2.0392609
7	0x40287b56	2.6325278
8	0x3ebda037	0.37036297
9	0x40099c0c	2.1501493

hidden_layer2_m_DN.weight f4 [10]
0	0x4138174b	11.505687
1	0x4059b9f9	3.4019759
2	0x417a1b7f	15.631713
3	0x415ee5d3	13.931109
4	0x404d4975	3.2076085
5	0x410a30d9	8.636926
6	0xbebcdd37	-0.36887524
7	0x41528372	13.157091
8	0x3f3133ed	0.6921986
9	0x41388b80	11.534058

hidden_layer2_m_DN.bias f4 [10]
0	0x00000000	0.0
1	0x00000000	0.0
2	0x00000000	0.0
3	0x00000000	0.0
4	0x00000000	0.0
5	0x00000000	0.0
6	0x00000000	0.0
7	0x00000000	0.0
8	0x00000000	0.0
9	0x00000000	0.0

hidden_layer2_m_DN.running_mean f4 [10]
0	0x3f7ffffc	0.99999976
1	0x3f7ffffc	0.99999976
2	0x3f7ffffc	0.99999976
3	0x3f7ffffc	0.99999976
4	0x3f7ffffc	0.99999976
5	0x3f7ffffc	0.99999976
6	0x3f7ffffc	0.99999976
7	0x3f7ffffc	0.99999976
8	0x2cca437b	5.748677e-12
9	0x3f7ffffc	0.99999976

hidden_layer2_m_DN.running_var f4 [10]
0	0x00000004	6e-45
1	0x00000004	6e-45
2	0x00000004	6e-45
3	0x00000004	6e-45
4	0x00000004	6e-45
5	0x00000004	6e-45
6	0x00000004	6e-45
7	0x00000004	6e-45
8	0x1ece8e57	2.1869969e-20
9	0x00000004	6e-45

output_layer_m_D.weight f4 [1, 10]
0	0x411809dd	9.502408
1	0xbed88fd8	-0.42297244
2	0x414bf3f5	12.74706
3	0x40fd271d	7.9110246
4	0xc0109b78	-2.259489
5	0x409af9b7	4.842983
6	0x3e80af8c	0.25133932
7	0x412417e3	10.255832
8	0x3e836d5e	0.25669378
9	0x4097cd2d	4.743796
