Diffuse_interface_Bubble_PINN_ver1/NNlayers_Bubble_1.pt (torch, 29422 bytes, 65 tensors)

hidden_layer1_u1.weight f4 [10, 3]
000000 f7 ae 91 c1 ca 77 c4 bf 7b e6 fb 3d 23 b0 5b 41
       -18.210432 -1.5349057 0.1229982 13.730502
000010 b1 69 c6 c0 cd 4f a8 bf c4 30 aa 41 72 77 aa c0
       -6.200402 -1.3149353 21.273811 -5.3270807
000020 2b 00 af bd ae 89 66 c1 a7 d1 53 3f a0 ba 38 3f
       -0.08544954 -14.408613 0.8274178 0.7215977
000030 51 b2 b6 c0 5b 7f c4 c0 1e 60 86 3e 35 62 89 c0
       -5.709267 -6.1405463 0.26245207 -4.293238
000040 56 6b da bf b6 76 cd 3c 5e eb 14 40 af 9e ec 40
       -1.7064006 0.02508102 2.3268657 7.3943706
000050 f7 de 9b be b8 4b 89 40 ee 84 0d c1 e6 12 f1 be
       -0.30443546 4.290493 -8.844954 -0.4708473
000060 8a f1 9a bf c4 17 f8 c1 a6 5f 42 41 e0 73 f4 c0
       -1.2104962 -31.011604 12.148352 -7.639145
000070 1f 38 03 41 a4 8d c1 be
       8.201201 -0.37803376

hidden_layer1_u1.bias f4 [10]
000000 f5 f4 d3 40 39 26 d8 3e 28 37 2b c0 22 95 03 bf
       6.623652 0.42216662 -2.6752415 -0.51399434
000010 aa 89 30 c0 bc a8 54 bf 8d c4 02 bf 27 14 00 c0
       -2.7584023 -0.8306997 -0.5108116 -2.00123
000020 6a fd dd be 15 51 09 41
       -0.43357402 8.582295

hidden_layer1_u1N.weight f4 [10]
000000 44 50 0f 40 ab e9 95 40 39 03 bf c0 9e 95 de 3f
       2.239274 4.684774 -5.9691434 1.738941
000010 0c 12 a9 c0 40 e3 93 40 e0 c7 6d 40 ee da 52 40
       -5.283453 4.6214905 3.7153244 3.2946124
000020 b6 d8 70 3f 01 8b 99 40
       0.94080675 4.7982183

hidden_layer1_u1N.bias f4 [10]
000000 57 d5 9f bd d2 98 ab bf 07 b8 75 40 90 2f 90 3f
       -0.07804363 -1.3406012 3.8393571 1.1264515
000010 26 d8 34 c0 43 a2 83 bf 72 8c 6c 3f 9b 18 1e c0
       -2.8256927 -1.0283893 0.924018 -2.4702518
000020 fa 9c f4 be 74 c7 bb bc
       -0.47776014 -0.022922255

hidden_layer1_u1N.running_mean f4 [10]
000000 40 59 a5 3e 10 e0 07 3f 34 ae 1a 3f 6d 60 dc 3d
       0.32294655 0.5307627 0.6042206 0.10760579
000010 82 b7 e6 3a 5e 94 01 3d c2 8d 72 3f 4d 44 83 3d
       0.0017602297 0.031635635 0.94747555 0.06409512
000020 7e 6b ea 3d 28 91 7e 3f
       0.11446284 0.9944024

hidden_layer1_u1N.running_var f4 [10]
000000 90 5e 0d 3e 04 15 19 3e df 39 28 3e e8 4a cc 3c
       0.13805604 0.14949423 0.16428326 0.024938062
000010 37 71 23 38 74 74 0a 3b 22 f0 18 3c 68 1b a0 3c
       3.8967668e-05 0.002112654 0.009334596 0.019544318
000020 30 13 70 3d c8 1e 1f 3a
       0.05861205 0.00060699554

hidden_layer2_u1.weight f4 [10, 10]
000000 28 f6 8a 40 70 a2 fc bf 78 62 36 c1 e7 07 87 c1
       4.3425484 -1.9737072 -11.39904 -16.878859
000010 28 67 5a 41 90 28 a7 be 34 c8 bf 40 05 77 0c 41
       13.650185 -0.32648134 5.993189 8.7790575
000020 76 91 b9 c0 c1 4a 1a c2 ec 10 41 c1 f5 7d 41 41
       -5.7990065 -38.573 -12.066631 12.093251
000030 f7 c8 08 41 ce 24 a9 3f 8a 21 b1 c1 5c cd e0 c0
       8.549064 1.3214357 -22.141376 -7.0250683
000040 e2 9e 2f 40 af 80 c7 c0 d5 a9 0d c1 b7 5c 82 40
       2.7440724 -6.2344584 -8.853963 4.0738177
000050 71 18 f2 40 34 f5 d6 bf 12 75 63 c1 30 d7 00 c1
       7.5654836 -1.679358 -14.216082 -8.052536
000060 15 64 6b 41 26 8f e2 3f 2d b2 d9 bf ba e6 95 40
       14.711934 1.7699935 -1.70075 4.684415
000070 08 41 22 41 56 a3 95 c1 df a4 82 c0 0b 18 30 c0
       10.140877 -18.704754 -4.082626 -2.7514675
000080 9c 84 80 c1 5e 0a c5 3c 3a f0 1a 41 cf ca be 3f
       -16.06475 0.024052795 9.683649 1.4905642
000090 42 2b 41 3f 3a 73 cd 40 ad 3d 7d 40 a5 ea c8 c1
       0.7545663 6.4203157 3.9568894 -25.114573
0000a0 71 86 80 3e 4d a6 eb bf a7 40 e6 be e6 f4 b4 3f
       0.2510257 -1.8410126 -0.449712 1.4137237
0000b0 f6 ee 9b bf d6 fe 02 c0 87 a6 99 bf d2 8a 07 c0
       -1.21823 -2.046804 -1.2003945 -2.117848
0000c0 70 b5 9e bf 65 a9 1a c0 95 7f 3d 41 77 c2 0a c0
       -1.239912 -2.416589 11.843648 -2.1681192
0000d0 1a 14 b5 c0 2d 01 b3 c0 e1 8b 2d 41 a0 7d b4 bf
       -5.658704 -5.5938935 10.84665 -1.4100838
0000e0 c2 55 ed 3f 34 b8 f9 40 de 81 b5 bf 4d e6 ad c1
       1.8541796 7.8037357 -1.4180257 -21.737452
0000f0 c7 0e ab c0 0b 28 2f 3e 15 56 b5 41 ec 75 1e 41
       -5.345554 0.17105119 22.667032 9.9037895
000100 29 de f2 c0 af 61 b0 40 7f 9f cf c0 d5 97 63 c0
       -7.589619 5.5119243 -6.4882197 -3.556142
000110 1c a7 4a 41 96 27 9d 41 c8 cc a4 3f fa 28 2c bf
       12.665798 19.64433 1.2874994 -0.67250025
000120 c5 eb e4 40 67 5e 1f 40 07 5c 19 c1 ad 90 2e 40
       7.1537805 2.4901369 -9.584968 2.7275803
000130 98 e8 f2 3f 26 d6 3d c0 d1 5e b3 bf 0b 17 a4 3f
       1.8977232 -2.9661956 -1.4013311 1.2819532
000140 57 df c1 3f 69 49 0f c1 32 16 69 c1 9d f1 c4 c0
       1.5146283 -8.955422 -14.567919 -6.154494
000150 30 66 64 41 54 c0 e2 3e 77 59 ad 3e b9 3a e9 40
       14.274948 0.4428736 0.3385732 7.2884183
000160 cd b8 b3 40 26 92 ac c1 c0 99 53 bf e9 90 2f 41
       5.6163087 -21.571362 -0.8265648 10.972878
000170 d2 ce c2 40 04 84 e7 c0 08 e2 96 bd 5f c6 b3 40
       6.0877466 -7.234865 -0.07367331 5.617965
000180 e2 b7 6e c0 5b 4e 3d bf 49 ef df 40 0d 1e 37 c0
       -3.7299733 -0.73947686 6.9979596 -2.8612092

hidden_layer2_u1.bias f4 [10]
000000 9b cc 2f c1 cc 30 a6 41 42 85 0c c1 c6 f1 0d c1
       -10.9874525 20.773827 -8.782534 -8.871527
000010 16 d6 46 3f 31 82 2d c1 f2 79 64 c0 d4 88 36 40
       0.7767042 -10.844285 -3.569943 2.8521013
000020 1b a9 3e c1 c6 65 93 c0
       -11.9162855 -4.6061735

hidden_layer2_u1N.weight f4 [10]
000000 20 ed dc 3f 76 f2 df be 32 8e 20 40 45 b1 e2 3f
       1.7259865 -0.4373967 2.508679 1.7710348
000010 87 74 d7 3d 76 2d 73 40 d8 a0 4b 3e 8c 9a 50 40
       0.10520273 3.7996497 0.19885576 3.2594328
000020 16 8e 19 40 36 98 2c bf
       2.3992972 -0.67419755

hidden_layer2_u1N.bias f4 [10]
000000 ca 9b d2 bf 24 af a0 3d b7 a2 13 c0 8a bf 2c c0
       -1.6453793 0.078459054 -2.3068063 -2.6991906
000010 db 6d b3 3f 0f d6 56 c0 5b 78 c9 bd 5c 6f 15 40
       1.40179 -3.356815 -0.09837409 2.3349218
000020 f3 2f 30 c0 9a ab 8a bf
       -2.7529266 -1.0833619

hidden_layer2_u1N.running_mean f4 [10]
000000 85 6d 97 3d 62 85 7a 3f 51 01 8f 3d 2d 5f ba 3d
       0.07393936 0.97859776 0.06982673 0.091001846
000010 b0 a2 72 3f 99 c3 90 3d d9 c4 1c 3f 00 ea 6a 3f
       0.9477949 0.07068557 0.61237866 0.91763306
000020 bc 3f 8f 3d 01 58 85 3e
       0.06994578 0.26043704

hidden_layer2_u1N.running_var f4 [10]
000000 d5 f0 87 3d 32 0d a7 3c 08 2c 83 3d a5 9e a3 3d
       0.06637732 0.020392034 0.06404883 0.079892434
000010 e8 3b ef 3c 6a 88 83 3d 52 d7 63 3e ce 15 8f 3d
       0.02920337 0.06422503 0.22250107 0.06986581
000020 7a b2 82 3d cf 3f 3d 3e
       0.06381698 0.18481372

output_layer_u1.weight f4 [1, 10]
000000 15 0f 6d bf c6 2a 15 be 17 06 b7 bf 8d ce ab 3f
       -0.9260114 -0.14567098 -1.4298733 1.3422409
000010 77 f3 26 c0 81 73 89 40 0f 1d 8b ba 6a f5 3b 40
       -2.60861 4.2953496 -0.0010613519 2.936854
000020 1e a3 ec 3f 41 00 30 3e
       1.848728 0.17187597

hidden_layer1_u2.weight f4 [10, 3]
000000 7b e8 ec be 63 99 ef c0 e0 05 6d bf 89 e7 a0 c0
       -0.4627112 -7.487474 -0.9258709 -5.0282636
000010 71 48 86 40 fa 3b 3d bf 69 9e e9 bf 61 cc 31 41
       4.196343 -0.7391964 -1.8251468 11.112397
000020 62 68 22 c1 2d 13 33 40 c0 84 12 40 39 ba d2 be
       -10.150484 2.7980454 2.2893524 -0.41157702
000030 74 72 8f c1 c6 10 a2 40 6c 8c 4e bf f6 4c 25 41
       -17.930885 5.0645475 -0.80683017 10.331289
000040 3f 70 d3 c0 bd bf 5d bd 1d fa 8b c1 f8 2d 8f 40
       -6.607452 -0.054137934 -17.497126 4.4743614
000050 6e 7e 84 3d b5 47 bf 40 0b fe 33 c1 7f cb 86 be
       0.06469427 5.9775033 -11.249522 -0.2632713
000060 49 c5 cb c0 5f 4b fd c0 a7 f8 89 be 85 86 00 40
       -6.3678327 -7.9154506 -0.2694752 2.0082104
000070 ac 38 d2 40 a8 92 fd 3d
       6.569418 0.12381488

hidden_layer1_u2.bias f4 [10]
000000 40 b7 37 40 ff 1e 9c 40 03 20 0a 41 a6 bf be c0
       2.8705597 4.8787837 8.632815 -5.9608946
000010 1c 1c 13 40 b0 1a 04 c1 c2 b5 28 40 4e 29 50 40
       2.2985907 -8.2565155 2.6360936 3.252521
000020 fd 75 28 40 aa e1 45 3f
       2.6322014 0.7729746

hidden_layer1_u2N.weight f4 [10]
000000 42 73 1c 40 50 35 21 40 07 9a 4a 40 2e 6b 71 40
       2.4445348 2.518879 3.165651 3.7721667
000010 9a fe 4c 40 51 88 89 40 51 6a f5 40 03 3a 0b 40
       3.2030396 4.29789 7.669228 2.1754158
000020 71 45 a2 40 e1 09 5e 40
       5.0709767 3.469353

hidden_layer1_u2N.bias f4 [10]
000000 b8 17 84 c0 29 56 44 40 f5 6a f5 3f ca ce 31 40
       -4.1278954 3.0677588 1.9173266 2.7782464
000010 97 67 16 40 94 66 a6 c0 e3 aa 8e 40 40 50 39 c0
       2.3500726 -5.2000217 4.45836 -2.895523
000020 4d b9 fd 3f 59 20 54 3f
       1.9822174 0.8286186

hidden_layer1_u2N.running_mean f4 [10]
000000 27 20 3d 3e 1f 97 76 3f 65 85 78 3f b0 61 1e 3e
       0.18469296 0.9632434 0.97078544 0.15466952
000010 13 61 cf 3e 49 2c 14 3d 9b 4f d8 3e 00 5e 97 3e
       0.4050375 0.036175046 0.42248234 0.29563904
000020 26 4a 89 3d b7 fe 7a 3f
       0.06703596 0.98044914

hidden_layer1_u2N.running_var f4 [10]
000000 74 f6 88 3d 4f 21 eb 3b f9 98 4a 3c ad 39 ce 3c
       0.06687632 0.0071756016 0.012365573 0.025173986
000010 2c 72 21 3e 48 c3 6c 3c 71 e5 23 3e 72 41 0f 3e
       0.1576621 0.014450856 0.16005494 0.13989809
000020 bf e6 c1 3c 6d 62 b9 3a
       0.023669599 0.0014143713

hidden_layer2_u2.weight f4 [10, 10]
000000 16 38 f3 40 c7 d3 01 c1 59 0f 8e 3f be ee 95 c0
       7.6005964 -8.114203 1.1098434 -4.6853933
000010 97 4f bd bf 3b 6c 92 40 b4 4f 22 3f 33 b2 3d 40
       -1.4789914 4.5757117 0.6340287 2.9640014
000020 17 c5 5e bf cc c0 8a bf eb 42 a5 41 3f 8b 35 c0
       -0.87019485 -1.0840087 20.657675 -2.836624
000030 5f 2d 10 40 e3 4e 9c c0 a8 ad 78 40 7f ab 96 41
       2.2527692 -4.8846297 3.8855991 18.833738
000040 05 85 97 c1 a7 6e 03 41 22 d1 46 c1 0c 3d 1b c1
       -18.93995 8.214515 -12.426058 -9.702404
000050 02 e1 c6 c0 5f 38 69 c1 cc 5d 85 c0 43 29 4e 41
       -6.214967 -14.576262 -4.1677 12.885074
000060 0f ff b2 c1 1b 12 1c c1 92 7d 97 40 a8 94 b3 3f
       -22.37454 -9.75442 4.7340784 1.4029741
000070 ac f4 c1 41 ed 35 8c 41 7b 90 a8 41 eb 5a 9e 40
       24.244469 17.52633 21.070547 4.9485984
000080 ce 19 e5 c0 e5 ef d8 c0 e1 68 26 41 1a ae 9e 41
       -7.1594 -6.779284 10.400605 19.83501
000090 ff 6b a1 c0 53 e9 e3 40 70 2c 6c c1 db 2e 12 41
       -5.044433 7.122232 -14.760849 9.136439
0000a0 e7 22 1d 40 cd 8c 2c 40 f0 e9 d9 bf a4 37 6d 3c
       2.4552553 2.6960938 -1.7024517 0.014478598
0000b0 68 ed 58 3e 58 1b 0a 41 de a2 dd bf 58 69 b6 bf
       0.21184313 8.631676 -1.7315328 -1.4250898
0000c0 fc a1 9d c0 49 17 87 bf e3 d4 f9 c0 8f 2c b2 bf
       -4.9260235 -1.0553981 -7.807237 -1.3919848
0000d0 92 46 cc 3f 2e 57 0d 41 70 a1 d5 c0 e6 e4 99 c0
       1.5959036 8.833784 -6.6759567 -4.8091917
0000e0 8b 1a 60 40 3b c4 9f 3f de e3 05 3e 11 c3 ac c0
       3.50162 1.248176 0.13075206 -5.398812
0000f0 79 51 03 41 19 2a 35 be 90 32 72 c0 d3 2b c9 c0
       8.207391 -0.1769184 -3.784336 -6.2865996
000100 a8 8e 01 40 12 b0 62 41 63 97 70 bf 1c e9 c6 c0
       2.024332 14.167986 -0.93981 -6.2159557
000110 b3 ef 8f c1 e5 4f 24 40 ae 14 46 c1 05 55 20 41
       -17.99204 2.5673764 -12.380049 10.020757
000120 c6 3a 4d 41 76 04 c0 c0 4b 34 b2 40 81 1b 0a c1
       12.826849 -6.0005445 5.5688834 -8.631715
000130 cc f4 c6 40 4d 57 eb c1 65 d2 07 41 f4 99 ef 40
       6.2173824 -29.417627 8.488866 7.487543
000140 a9 d0 dc 40 ad e5 20 c0 f1 e8 2b bf 88 9a 27 40
       6.900471 -2.5140183 -0.67152315 2.6188068
000150 28 6d 86 40 9a 39 00 40 18 20 ca bf 59 18 0c 41
       4.2008247 2.0035157 -1.5791044 8.755944
000160 cf 96 aa c0 9f 28 81 3f 5f a7 7b c1 1e e8 ec bf
       -5.3309093 1.0090522 -15.728362 -1.8508337
000170 0f bd 2a 41 6f 27 a8 40 b9 87 d1 40 05 0c 3a c1
       10.671157 5.2548137 6.5478177 -11.627934
000180 59 94 14 41 40 32 59 41 13 e6 40 40 2b 55 d7 40
       9.286218 13.574768 3.0140426 6.7291465

hidden_layer2_u2.bias f4 [10]
000000 ae 1a 93 c0 77 c7 5c 40 ed 10 42 41 eb 6f f4 c0
       -4.597007 3.4496744 12.129132 -7.638662
000010 84 87 92 bf 26 f1 e2 bf 86 79 41 c1 20 1c b8 40
       -1.1447606 -1.7729843 -12.092169 5.753433
000020 08 ed 45 c1 4e 10 21 41
       -12.370369 10.066481

hidden_layer2_u2N.weight f4 [10]
000000 d0 ca b9 3f b4 d6 62 40 9e 24 ab be 52 01 0d 40
       1.4515018 3.5443544 -0.33426374 2.2032056
000010 6d 46 95 bf b5 95 34 40 0a 97 50 3e 6d 23 a6 3f
       -1.1662117 2.8216374 0.20370117 1.2979561
000020 a1 65 64 40 56 f7 70 3f
       3.568703 0.94127405

hidden_layer2_u2N.bias f4 [10]
000000 9c 49 23 c0 7f 39 64 c0 70 5f db 3d 24 42 28 c0
       -2.5513678 -3.5660093 0.10711563 -2.629037
000010 f7 3d 9f bf 25 32 23 40 29 bd 22 c0 86 85 e7 3f
       -1.2440785 2.5499356 -2.5427954 1.8087623
000020 4d af e7 bf 6c 55 14 40
       -1.8100373 2.3177137

hidden_layer2_u2N.running_mean f4 [10]
000000 3e 4f 76 3d 83 48 81 3d 8a af 6f 3f 95 2f 24 3d
       0.060134165 0.06312659 0.93627226 0.04008444
000010 23 35 3a 3d 2e f9 73 3f 1d b9 28 3d 1b d3 6c 3f
       0.04546083 0.95302093 0.041192163 0.9250962
000020 79 f1 29 3d 7f 61 6f 3f
       0.041490052 0.9350814

hidden_layer2_u2N.running_var f4 [10]
000000 f4 5d 62 3d f3 0e 71 3d 12 44 5a 3d d5 57 1c 3d
       0.055265382 0.058852147 0.053287573 0.0381697
000010 e8 4f 2d 3d df 19 32 3d 1f ab 1d 3d a6 73 8c 3d
       0.042312533 0.043481704 0.038493272 0.06857996
000020 69 14 1d 3d 55 30 75 3d
       0.038349543 0.059860546

output_layer_u2.weight f4 [1, 10]
000000 39 14 88 bf 3b 89 34 40 2c 0b a4 bd 49 f2 2c 3f
       -1.0631171 2.820876 -0.08009943 0.675572
000010 e3 51 a2 3f 51 75 32 c0 5a 75 19 3f 38 bf ff 3d
       1.268124 -2.7884104 0.5994469 0.12487644
000020 e3 bc 0d c0 cd 4e de bd
       -2.2146537 -0.10854874

hidden_layer1_P.weight f4 [10, 3]
000000 c8 94 2d bf fb 64 ea bf e2 dc f7 c0 3f 60 ec 3f
       -0.6780515 -1.8312067 -7.745713 1.8466872
000010 7a c9 45 40 e0 a0 fe c0 03 e7 10 40 e3 3d ca 40
       3.0904222 -7.957138 2.2640998 6.3200545
000020 4d 74 23 41 c2 73 b7 3e 12 be 10 41 d8 ea 15 41
       10.215894 0.35830504 9.046404 9.369835
000030 26 11 94 3e 36 d4 c2 40 18 90 ae c0 0f 70 2d c1
       0.28919333 6.0884047 -5.4550896 -10.839858
000040 c9 7b 7d 40 cf 8c 80 3f 29 b4 d3 40 58 b4 18 bf
       3.9606802 1.0042971 6.615742 -0.5965018
000050 5c 55 35 c1 50 8b d2 3c 63 48 12 c1 56 59 32 c1
       -11.33334 0.025701195 -9.142673 -11.146811
000060 c4 c2 39 3f d5 cf 0d 41 bf 83 3e 41 a1 8e 2a c1
       0.72562814 8.86324 11.907165 -10.6598215
000070 19 8d 34 c1 c4 f7 f7 be
       -11.284448 -0.48431218

hidden_layer1_P.bias f4 [10]
000000 b4 dc 4a c1 98 bb 04 c1 58 d5 e3 be 4f fd fe be
       -12.678883 -8.295799 -0.44498706 -0.49802634
000010 50 33 e7 40 a2 5e e0 40 d1 9f ed c0 b5 f8 72 3f
       7.2250137 7.011552 -7.425759 0.94910747
000020 83 4b 83 be 41 76 50 bf
       -0.25643548 -0.8143044

hidden_layer1_PN.weight f4 [10]
000000 7b ec 48 3e bc 01 ef 40 e4 27 9a 40 ec bc cb c0
       0.1962146 7.4689617 4.8173695 -6.3668118
000010 95 d8 05 c0 e1 01 28 41 5f 5b b5 c0 ed 5a ce c0
       -2.091344 10.500459 -5.6674037 -6.4485993
000020 c1 5c ab 40 75 5f ca 40
       5.3550725 6.3241525

hidden_layer1_PN.bias f4 [10]
000000 2a 44 8b 40 50 0b b2 c0 f9 9d 7c 40 20 bc 3c c0
       4.352071 -5.563881 3.947142 -2.9489822
000010 51 f0 2e c0 b3 ae 3a c0 41 af f7 3f b3 56 31 40
       -2.7334177 -2.9169128 1.9350358 2.7709167
000020 34 43 77 40 fa cf 81 c0
       3.8634768 -4.056638

hidden_layer1_PN.running_mean f4 [10]
000000 35 05 e0 33 d4 a1 13 3c ec 39 7e 3f 9a 22 7d 3f
       1.043176e-07 0.009010751 0.9930713 0.9888092
000010 4c 39 7f 3f 1d ff 66 3f 04 cd 9d 3b 93 70 76 3c
       0.99696803 0.9023302 0.0048156995 0.015041488
000020 0f 42 7e 3f 1d 4f 5a 3b
       0.9931955 0.0033311315

hidden_layer1_PN.running_var f4 [10]
000000 78 94 8c 29 02 97 5a 3a 82 90 85 3a cb 1c 1e 3b
       6.243004e-14 0.0008338542 0.0010190161 0.0024126049
000010 d1 a9 d5 38 ac 55 22 3d 8e be b2 39 93 29 93 3b
       0.00010188262 0.039632484 0.0003409278 0.00449104
000020 31 ca 9c 3a 02 13 c1 39
       0.0011962113 0.0003682599

hidden_layer2_P.weight f4 [10, 10]
000000 9e b4 f2 bf e7 83 cb 40 3e dc c7 c1 37 df a3 40
       -1.896137 6.3598514 -24.98254 5.120998
000010 8a 36 a4 3f ba da ce 40 47 08 52 c1 23 8b 81 c1
       1.2829144 6.4642 -13.127021 -16.192938
000020 55 cd df c1 6f d0 da 40 20 40 12 c1 69 42 71 40
       -27.97526 6.8379436 -9.1406555 3.7696784
000030 51 5f 92 c1 e6 5d 8b 41 97 cc c4 40 49 fe 49 40
       -18.296541 17.420849 6.1499743 3.1561453
000040 1a 58 6b c0 de e6 52 c1 ca 44 7d c1 9d f2 ce 40
       -3.6772523 -13.181364 -15.829294 6.467116
000050 70 a0 90 c0 a9 ca ff 3f 45 38 2a c1 91 88 39 41
       -4.5195847 1.9983722 -10.638738 11.595841
000060 b0 11 93 40 1e d8 8c 40 3c 46 4e c0 61 55 25 c0
       4.595909 4.4013815 -3.2230368 -2.583336
000070 f1 99 d4 40 4c 87 01 42 69 36 cf 40 f7 ef 97 c1
       6.6437917 32.382126 6.475392 -18.99217
000080 e7 28 b6 3f fa 49 84 c0 3d 95 98 c0 05 6e 3a c1
       1.4231232 -4.1340303 -4.7682176 -11.65186
000090 ff 11 e6 40 a9 32 06 40 9b 07 2c 3f 3c 10 03 c1
       7.189697 2.096842 0.67199105 -8.191463
0000a0 50 cb 76 c1 0a 35 80 41 c6 02 99 3e 35 3c b7 40
       -15.424637 16.025898 0.29884928 5.7260995
0000b0 7b 59 3d 41 bf b0 30 40 2b 0a 41 41 37 78 b0 bf
       11.834346 2.7607877 12.064982 -1.3786687
0000c0 70 4e cd bf 11 0a 94 3f a5 6b d6 bf 89 8b ae c0
       -1.6039562 1.1565572 -1.67516 -5.454533
0000d0 89 fd 72 41 29 03 c8 bf b7 60 97 bf 74 2b cf c0
       15.186898 -1.5625964 -1.182639 -6.4740543
0000e0 c9 a6 86 bf d2 e6 8d 40 59 e4 9e 40 6d f3 18 c1
       -1.0519649 4.4344263 4.9653745 -9.55943
0000f0 dc 6a 0d 3e 44 00 c6 40 d7 b1 ca c0 34 70 e0 40
       0.13810295 6.1875324 -6.334209 7.0136967
000100 e3 3b a9 40 02 ed b1 3e 60 ab 84 3e cd c3 86 c1
       5.2885604 0.34751135 0.25912 -16.845606
000110 24 b5 06 c2 65 49 4f 41 32 4b 6b c1 93 3d dc 40
       -33.676895 12.955419 -14.705858 6.8825164
000120 e1 ef 1d c1 79 d2 4e c0 57 19 6a 41 ad 65 7f 41
       -9.871064 -3.2315962 14.6311865 15.962323
000130 1a a9 8e c0 04 7b 83 40 de 82 db c0 49 81 bb 41
       -4.4581423 4.1087666 -6.859725 23.438128
000140 ab 22 9d 40 2c 5f 8a c1 68 b9 53 40 5f e3 a7 c0
       4.910482 -17.29647 3.3081913 -5.2465053
000150 11 cf 9e bf 08 67 11 c1 e5 77 9c 3d 22 e6 5a 40
       -1.2406942 -9.087654 0.076400556 3.4202962
000160 c6 b8 71 40 37 b5 1c c1 d1 5e b4 bf 68 53 43 c0
       3.7769027 -9.794242 -1.4091436 -3.0519657
000170 9d 2d 31 41 e5 5e ac c1 bc 4e 87 bf 66 d5 96 40
       11.073636 -21.546335 -1.0570903 4.7135496
000180 60 59 b4 c0 22 21 cb 41 b6 1a 67 41 a7 34 d3 c0
       -5.63591 25.391178 14.444021 -6.6001773

hidden_layer2_P.bias f4 [10]
000000 84 bf f4 bf 78 28 dd c0 92 be ab c0 d8 16 b9 40
       -1.9120946 -6.91119 -5.367013 5.7840385
000010 aa f9 4f c1 6b b5 40 40 ea f1 a1 c0 be 61 24 c1
       -12.998453 3.0110729 -5.0607805 -10.273863
000020 9f aa b1 40 97 e0 b2 3f
       5.552078 1.3974789

hidden_layer2_PN.weight f4 [10]
000000 3c fe ce 43 2d ee 9f 43 7f 25 f0 43 89 67 67 43
       413.9862 319.86075 480.29294 231.40443
000010 d3 8d 98 43 6d 6d 99 43 07 0b e2 43 3f 8d 6d 43
       305.108 306.8549 452.08615 237.55174
000020 4b 85 4b 43 77 af b2 43
       203.52068 357.37082

hidden_layer2_PN.bias f4 [10]
000000 00 00 00 00 00 00 00 00 00 00 00 00 00 00 00 00
       0.0 0.0 0.0 0.0
000010 00 00 00 00 00 00 00 00 00 00 00 00 00 00 00 00
       0.0 0.0 0.0 0.0
000020 00 00 00 00 00 00 00 00
       0.0 0.0

hidden_layer2_PN.running_mean f4 [10]
000000 2c 7d 3c 3d 28 9b 26 3d a3 f5 20 3d 12 52 70 3f
       0.04601781 0.040675312 0.039296757 0.9387523
000010 37 78 40 3d 87 05 74 3f f6 9b 31 3d 99 49 f1 3c
       0.046989646 0.95320934 0.043361627 0.02945404
000020 dc 5f 6f 3f b5 32 71 3f
       0.93505645 0.94218

hidden_layer2_PN.running_var f4 [10]
000000 62 21 32 3d 13 0a 1d 3d 44 3d 18 3d 8e 2c 6a 3d
       0.043488868 0.038339686 0.037167802 0.057171397
000010 dd 63 35 3d 40 e2 34 3d bc 73 27 3d b7 f9 e3 3c
       0.04428469 0.04416108 0.040881857 0.027829034
000020 7f 2b 77 3d 2b 4d 5a 3d
       0.060344215 0.05329625

output_layer_P.weight f4 [1, 10]
000000 4e 61 4f c3 89 6e 13 c3 bf 2f 67 c3 81 a5 53 c3
       -207.3801 -147.43178 -231.18651 -211.6465
000010 18 cd 35 43 fc eb 91 43 ac b4 59 c3 cd 9f f3 42
       181.80115 291.84363 -217.70575 121.81211
000020 60 fa 41 c3 77 4d a8 43
       -193.97803 336.6052

hidden_layer1_phi.weight f4 [10, 3]
000000 34 15 0d c0 2a 2e a4 3f b6 20 ac 3f 1a f3 2a 3f
       -2.2044191 1.2826588 1.3447483 0.66777194
000010 61 02 94 3e e9 bc 5a bf 39 ea da 3f eb 32 8f c0
       0.28908065 -0.85444504 1.7102729 -4.4749656
000020 22 48 cd 3d b4 c5 e5 3f 20 cf db be 06 d5 03 3f
       0.10023524 1.7950959 -0.4293146 0.5149692
000030 57 16 a7 c1 56 ee d4 41 66 4b 72 bf 45 da 8b 40
       -20.885908 26.616375 -0.946463 4.370394
000040 f8 ae bc bf a7 44 b5 bc 1b e9 47 bf 95 a5 f1 3e
       -1.4740896 -0.022127463 -0.78090066 0.47196642
000050 d5 14 ec 3e 68 70 8a 3e 19 68 10 bf ec 96 20 3e
       0.46109644 0.27038884 -0.5640884 0.15682572
000060 ab 71 c2 bf c5 7d 57 3f 78 72 73 3f c1 04 7d 40
       -1.5190939 0.84176284 0.9509654 3.9534152
000070 6b 2f 86 40 c2 03 86 bd
       4.1932883 -0.065436855

hidden_layer1_phi.bias f4 [10]
000000 e6 0a 11 c1 f2 7e 04 40 6e dc 2c c0 49 2b c7 40
       -9.065161 2.0702481 -2.700954 6.224034
000010 c3 bc 14 41 b8 4c ef 40 10 3c 90 c0 fd e1 93 be
       9.296084 7.478115 -4.507332 -0.28883353
000020 6a 7d e9 40 cc 6d 5a c0
       7.2965593 -3.4129515

hidden_layer1_phiN.weight f4 [10]
000000 e9 37 d4 40 b3 e3 03 3f a4 0b 09 3f db 3e 0a 3f
       6.631825 0.51519316 0.5353339 0.5400216
000010 94 e6 bb 3f ad 4c ce 40 b0 83 c1 3f 45 01 99 3f
       1.4679742 6.44686 1.5118313 1.1953512
000020 f3 1a 82 3f cc b2 cf 3f
       1.0164474 1.622644

hidden_layer1_phiN.bias f4 [10]
000000 a2 38 49 3f 3b ce a5 3f 3d 9e 8c 3f 45 d2 54 3e
       0.7860204 1.2953562 1.098579 0.20783336
000010 94 5b 76 3e fa 8b 3b bf 30 70 13 40 f7 0d 02 bf
       0.24058372 -0.7326046 2.3037224 -0.5080256
000020 c8 88 5e 3e 9e 19 56 3f
       0.21731865 0.8363284

hidden_layer1_phiN.running_mean f4 [10]
000000 2a 31 01 3a b0 b3 66 3f 28 b2 c4 3c 2b b1 7f 3f
       0.00049282855 0.9011793 0.024010733 0.9987971
000010 09 6c 69 3f 90 c0 7f 3f 4e f9 82 3c 14 50 b3 3e
       0.91180474 0.999032 0.015988018 0.35022032
000020 17 de 7f 3f 7e 88 42 3f
       0.9994826 0.7598952

hidden_layer1_phiN.running_var f4 [10]
000000 01 4a a5 34 15 d1 76 3a ab 92 c4 3a a5 d5 ff 34
       3.078749e-07 0.0009415311 0.0014997324 4.7652898e-07
000010 3d 57 77 3d 0b 6d 10 36 66 17 07 38 94 a7 ab 3b
       0.06038593 2.1521143e-06 3.22083e-05 0.0052384827
000020 b9 f0 14 34 4a da 99 3d
       1.3871148e-07 0.075123385

hidden_layer2_phi.weight f4 [10, 10]
000000 96 ce a4 3f ca a4 3c 3f 12 0d 21 41 69 0c 4b 3e
       1.2875545 0.7368895 10.065691 0.19828953
000010 1a 35 35 c1 46 37 89 40 81 f4 36 bf 81 d8 c3 3f
       -11.325464 4.2879972 -0.71466833 1.5300447
000020 af 4f 90 3f 02 0b 7e 3d 3d c7 93 40 12 b4 06 40
       1.1274318 0.062022217 4.618071 2.1047406
000030 33 7e 43 bc 00 76 eb 3f bf dc 6a 3f 18 ac 05 3f
       -0.011931944 1.8395386 0.9174308 0.5221572
000040 15 a5 32 40 ed ea 88 3f bf eb 9a 3e 86 ce ee 3c
       2.7913258 1.0696694 0.30257985 0.029151212
000050 b3 9a c3 bf 09 cc b2 bf b1 f0 ee 3f 59 58 51 c0
       -1.5281585 -1.3968517 1.8667203 -3.2710173
000060 81 6b 93 bf c6 c6 c6 3f 56 39 21 c0 8b db 79 bf
       -1.1517183 1.5529411 -2.5191245 -0.9760062
000070 00 e9 66 bf 97 5a 35 3f 49 b9 b7 3e a7 01 c9 c0
       -0.9019928 0.70841354 0.3588355 -6.2814517
000080 47 b8 99 c1 37 62 6f 41 0b 5a 61 40 9f 7d 4c c0
       -19.21498 14.961478 3.5211208 -3.1951673
000090 6f 56 4e c0 01 ed f0 c0 51 4f 3c 40 4f e5 f5 41
       -3.2240255 -7.528931 2.942341 30.736967
0000a0 e4 28 09 bc 33 2d 78 bc 0d 7d c1 bf b1 26 4b 3e
       -0.0083715655 -0.015147495 -1.5116287 0.19838978
0000b0 32 f3 e2 40 13 59 57 c0 62 cb e2 3c 39 5b 00 bf
       7.092187 -3.3648117 0.027684871 -0.50139195
0000c0 29 58 3e 3f 07 ff 08 3f 8c 79 6c be 2b 47 8b bd
       0.7435327 0.5351414 -0.23093241 -0.068006836
0000d0 77 3f 40 c0 1f a8 1f be 78 1f fe be b5 fd 66 c0
       -3.0038736 -0.15591477 -0.49633384 -3.609235
0000e0 ed 39 4c 3e 8f 3c 0c bf e2 b3 15 3d d8 53 bc 3e
       0.19943972 -0.54779905 0.036548503 0.36782718
0000f0 1b 31 50 3f ce 33 b2 3f e3 3c a3 3e 47 a1 d6 3f
       0.8132493 1.392206 0.3188239 1.6767968
000100 3a 4f 8e 3f d6 a6 74 c0 a4 93 15 40 97 38 6d 3f
       1.1117928 -3.8226829 2.3371363 0.92664474
000110 3a ce d4 3f d1 c9 85 3e ca b0 54 ba a5 4c 64 be
       1.6625435 0.26130536 -0.0008113502 -0.22294863
000120 0c 4f cb bf 88 97 b5 bd 1b 7f 3b bf b4 bb 63 3f
       -1.5883498 -0.08866793 -0.7324082 0.8895829
000130 6f b5 86 be 9c 32 e7 be a6 f1 58 bf bc dd 0e bf
       -0.26310298 -0.451558 -0.84743726 -0.5580709
000140 5c dc be c1 03 b5 13 41 ff ef a6 40 c7 0d 76 c0
       -23.857597 9.231692 5.2167964 -3.844591
000150 59 85 ab 40 80 45 b1 3f 8c 9d 86 41 92 bd 8a bf
       5.360028 1.3849335 16.826927 -1.0839102
000160 1f 72 dd 40 b2 14 c8 3f 5f 62 d7 bd e0 9c 04 3e
       6.920181 1.5631316 -0.1051681 0.12950468
000170 ca 71 6a c0 66 75 2a bf d4 b7 d0 3f 35 47 10 41
       -3.6631951 -0.66585386 1.63061 9.017385
000180 14 59 76 bf b2 5f b8 40 30 ff b9 c0 1b 89 e7 40
       -0.9622967 5.7616816 -5.812401 7.2354865

hidden_layer2_phi.bias f4 [10]
000000 16 fb af 3f 5c bc 4f 40 4d a4 b5 bf 44 2d 1b c1
       1.37485 3.2458715 -1.4190766 -9.698551
000010 ad 7b b7 c0 88 a5 1b 3f 8b 28 18 40 db bd 47 be
       -5.733847 0.60799456 2.3774745 -0.19506018
000020 a0 a1 f9 40 80 a0 4d 3f
       7.8009796 0.8032303

hidden_layer2_phiN.weight f4 [10]
000000 00 42 ea 3f 35 e2 e3 40 bf 7c 31 40 3b 0f 3f 40
       1.8301392 7.121363 2.773239 2.9853046
000010 a0 5e 9f 40 f7 35 9a 40 f3 ec f4 40 04 3a 40 40
       4.980301 4.8190875 7.6539245 3.003541
000020 43 39 03 41 b8 13 fc 3f
       8.20148 1.9693518

hidden_layer2_phiN.bias f4 [10]
000000 97 be 8a bf 95 e0 6e bf f4 3b 38 3f 5b 9a 56 40
       -1.0839413 -0.93311435 0.7196648 3.353171
000010 4c 92 9f 3f 9b 1c f3 be e2 52 c7 bf 00 ba 3f bf
       1.2466521 -0.47482762 -1.5572169 -0.7489319
000020 fb 39 a6 bf ef a6 aa 3f
       -1.2986444 1.3332194

hidden_layer2_phiN.running_mean f4 [10]
000000 85 71 23 3f 72 de 7f 3f cc 85 a0 3d 20 95 13 3f
       0.6384509 0.999488 0.0783802 0.5764942
000010 00 0b c4 3e c5 ef c1 3e d0 5b 70 3f 85 60 5b 3d
       0.38289642 0.37878242 0.93890095 0.053558845
000020 09 3a 7b 3f f4 e4 d7 3e
       0.9813543 0.42166865

hidden_layer2_phiN.running_var f4 [10]
000000 41 de 3f 3e 84 29 b3 36 f1 93 71 3d 7d 10 64 3e
       0.18737127 5.3394488e-06 0.05897898 0.22271915
000010 0a 36 33 3e d3 55 2c 3e 98 8d 17 3d 68 27 db 3b
       0.17501083 0.16829614 0.03700027 0.006688047
000020 54 89 85 3c 48 6b 5d 3e
       0.016300835 0.21622956

output_layer_phi.weight f4 [1, 10]
000000 31 06 31 3f 6e 49 6c 40 c6 f7 04 40 de 5c 72 be
       0.6915007 3.6919818 2.077623 -0.23668239
000010 a9 44 06 c0 10 a0 04 40 2a d6 1b 40 17 31 42 3f
       -2.0979407 2.0722694 2.4349465 0.75856155
000020 6e ac c8 b9 2c 48 50 bf
       -0.00038275443 -0.81360126

hidden_layer1_m_D.weight f4 [10, 3]
000000 7a e8 5a c0 5a d4 4b c0 2e 65 3f c0 76 47 eb 3f
       -3.4204392 -3.184836 -2.9905505 1.8381183
000010 1f 87 07 40 d1 a0 b0 3c 9d 7f 63 be 8a bf ff bd
       2.1176221 0.021561058 -0.2221665 -0.12487705
000020 b2 f6 16 be e6 9b 8a c0 8e f8 80 bf fe 23 d5 bf
       -0.14742544 -4.3315306 -1.0075853 -1.6651609
000030 5f 31 12 40 12 46 fb 3f 21 ef f4 3f b6 d6 84 40
       2.2842634 1.9630759 1.9135476 4.15121
000040 87 bc e2 3e 8a d3 17 3f 47 2d ff bf 01 05 80 bd
       0.4428446 0.5930716 -1.9935693 -0.062509544
000050 81 80 a8 40 49 d5 31 c0 3d 62 c8 bf bb d3 9a bf
       5.2656865 -2.778643 -1.565498 -1.2095865
000060 6f db d5 be 28 03 15 40 a0 e7 f6 be 5c 9f 4b c0
       -0.41768977 2.3283176 -0.4822359 -3.1816015
000070 cd 1c 0d c0 61 ba 00 c0
       -2.2048829 -2.0113757

hidden_layer1_m_D.bias f4 [10]
000000 ac cb 19 3f f5 2f a4 3b 9e 5a 50 40 c2 e2 a3 3e
       0.60076404 0.0050105997 3.2555308 0.3200894
000010 f8 d8 b5 3f 9c 38 69 3f 20 97 9b 3e 2a 65 eb be
       1.4206839 0.91102004 0.30388737 -0.4597562
000020 67 42 05 40 fa 4e f2 be
       2.0821779 -0.4732588

hidden_layer1_m_DN.weight f4 [10]
000000 66 54 27 40 a6 30 8f 3f 5d 7a b0 3f 8b 93 d2 3f
       2.6145263 1.1186721 1.3787342 1.6451277
000010 a7 b8 c4 3f 24 10 a0 3f 6b a3 26 3f cd 00 36 bf
       1.5368851 1.2504926 0.65093106 -0.7109497
000020 cc 12 1d bd 0c 49 fe 3f
       -0.038348004 1.9866042

hidden_layer1_m_DN.bias f4 [10]
000000 51 32 4c 40 92 b1 80 c0 be e4 70 40 72 19 24 c0
       3.190571 -4.021676 3.7639613 -2.564053
000010 4b 63 00 40 92 64 1e 40 2e 22 35 40 a1 89 5a c0
       2.0060604 2.4748883 2.8302112 -3.4146502
000020 ea 45 87 40 df 4f 12 c0
       4.2272844 -2.286125

hidden_layer1_m_DN.running_mean f4 [10]
000000 59 51 e7 3c 90 f8 67 3f a1 34 73 3f 55 12 85 3d
       0.028237032 0.9061365 0.9500218 0.06497637
000010 0f de 7c 3f 3c 40 73 3f 6d 52 44 3f 93 d1 22 3d
       0.98776335 0.9501989 0.7668827 0.039750647
000020 d6 08 75 3f 9f 75 aa 3c
       0.9571661 0.02080804

hidden_layer1_m_DN.running_var f4 [10]
000000 b2 98 6a 3b d3 f8 12 3c b9 b4 c4 37 f7 da c4 3b
       0.003579658 0.008970457 2.3449176e-05 0.006007548
000010 09 21 a7 39 d0 f0 0e 3b 4e 3a 36 3d 32 e8 10 3b
       0.00031877335 0.0021811016 0.044489197 0.0022111055
000020 76 ef eb 3a 28 e2 a1 3a
       0.0018000442 0.0012350725

hidden_layer2_m_D.weight f4 [10, 10]
000000 be 79 28 40 87 bc fe bf 23 e6 be 3f 4e 31 89 3d
       2.6324306 -1.9901284 1.4913982 0.06698857
000010 97 55 ed 3c ea fd 18 3e 98 5b 84 bd 10 ad 76 bf
       0.028971476 0.1494061 -0.064627826 -0.9635782
000020 1f f6 9a 3f cf b5 fc be 19 e3 0f 40 8b 57 ef bf
       1.210636 -0.4935746 2.248236 -1.8698591
000030 c3 07 bb 3f 2a c0 ea be 0f 87 c7 3e af ea 3d 3d
       1.4611744 -0.45849735 0.3897023 0.04636639
000040 61 db f9 bd 25 6b 91 bf a5 29 a8 3f 15 5b 26 be
       -0.12200046 -1.1360823 1.3137709 -0.16245683
000050 69 9c 24 40 d8 8f 17 c0 31 ce ff 3f 28 ab 93 3e
       2.5720465 -2.3681545 1.99848 0.2884152
000060 aa f6 29 3d f0 72 9e 3e 1f 69 26 3e f2 57 1d bf
       0.041495003 0.30947065 0.16251038 -0.6146232
000070 9d d4 c9 3f f3 99 ae bd 29 53 26 40 3c 3d d7 bf
       1.576801 -0.08525457 2.5988257 -1.6815562
000080 84 0a db 3f 93 06 11 bf 74 5e 69 bf c0 05 1e 3f
       1.7112584 -0.56650656 -0.9115975 0.61727524
000090 38 89 8e 3e 95 63 3d bf 0f c8 52 40 45 d3 d4 3b
       0.27839065 -0.73980075 3.2934606 0.006494912
0000a0 62 bd 1e 40 1a 3f 14 c0 70 fd ed 3f 96 81 62 be
       2.480309 -2.3163514 1.8592968 -0.22119746
0000b0 29 7d c0 3d 32 c2 84 3e 7b 10 35 3e 79 1e 69 bf
       0.093988724 0.2592941 0.17682068 -0.9106212
0000c0 5e 2a a1 3f b0 19 2e be 44 a9 1e 40 b4 e0 eb bf
       1.2591054 -0.17001987 2.4790812 -1.8427949
0000d0 83 32 02 40 03 0f 77 be e0 3d 88 bf 64 89 15 3f
       2.034333 -0.2412682 -1.0643883 0.58412766
0000e0 7d 86 f9 bd 92 df 6d bf 4f b6 1a 40 15 8c b9 bd
       -0.12183855 -0.92919266 2.4173772 -0.09059922
0000f0 ce 92 ad 3f a2 b7 ec bf 90 f4 d7 3f 4f e2 29 bf
       1.3560426 -1.849354 1.687151 -0.66360945
000100 1f 2f 1f 40 e4 df 6b 3f 1b da 5e 40 31 e3 01 c0
       2.487251 0.92138505 3.482062 -2.0294917
000110 6f 54 c0 3f a2 a5 cf bf c4 58 fe 3f a7 ba fb bf
       1.5025767 -1.6222422 1.9870839 -1.9666337
000120 1c 95 b5 3f 13 83 c5 be 77 36 bb be 65 af b6 bd
       1.418613 -0.38576564 -0.3656499 -0.089201726
000130 18 bf 0f bd 8a 3d 98 bf a0 ac ec 3f 70 73 87 3e
       -0.03509435 -1.189378 1.8490181 0.2645526
000140 9f df 3a c0 a7 3c d3 3f c3 9b 1b c0 7b 35 00 3f
       -2.9198987 1.6502885 -2.431382 0.50081605
000150 d4 d5 01 3f 4c d1 e5 3e c1 45 1d bf a2 4e f6 3e
       0.507169 0.44886243 -0.6143456 0.48106867
000160 d4 ec 0b c0 84 b1 95 3d 61 98 1e 40 cf 02 dc bf
       -2.1863298 0.07309249 2.4780505 -1.7188357
000170 5f 80 db 3f a2 21 96 be ba ce 8a bf b1 3d 55 3f
       1.7148551 -0.29322535 -1.0844338 0.8329726
000180 aa 03 b3 bd ce 46 83 bf 7b 98 2a 40 c0 85 80 be
       -0.08740933 -1.0255983 2.6655567 -0.25102043

hidden_layer2_m_D.bias f4 [10]
000000 a7 f6 a8 3f e5 c9 c7 3f 2b 8a ff 3f 08 d6 a8 3f
       1.3200272 1.5608488 1.996404 1.3190317
000010 cd 39 e4 3f 3e 98 ea 3f 40 83 02 40 56 7b 28 40
       1.7830139 1.8327711 2.0392609 2.6325278
000020 37 a0 bd 3e 0c 9c 09 40
       0.37036297 2.1501493

hidden_layer2_m_DN.weight f4 [10]
000000 4b 17 38 41 f9 b9 59 40 7f 1b 7a 41 d3 e5 5e 41
       11.505687 3.4019759 15.631713 13.931109
000010 75 49 4d 40 d9 30 0a 41 37 dd bc be 72 83 52 41
       3.2076085 8.636926 -0.36887524 13.157091
000020 ed 33 31 3f 80 8b 38 41
       0.6921986 11.534058

hidden_layer2_m_DN.bias f4 [10]
000000 00 00 00 00 00 00 00 00 00 00 00 00 00 00 00 00
       0.0 0.0 0.0 0.0
000010 00 00 00 00 00 00 00 00 00 00 00 00 00 00 00 00
       0.0 0.0 0.0 0.0
000020 00 00 00 00 00 00 00 00
       0.0 0.0

hidden_layer2_m_DN.running_mean f4 [10]
000000 fc ff 7f 3f fc ff 7f 3f fc ff 7f 3f fc ff 7f 3f
       0.99999976 0.99999976 0.99999976 0.99999976
000010 fc ff 7f 3f fc ff 7f 3f fc ff 7f 3f fc ff 7f 3f
       0.99999976 0.99999976 0.99999976 0.99999976
000020 21 37 a5 2c fc ff 7f 3f
       4.6957026e-12 0.99999976

hidden_layer2_m_DN.running_var f4 [10]
000000 04 00 00 00 04 00 00 00 04 00 00 00 04 00 00 00
       6e-45 6e-45 6e-45 6e-45
000010 04 00 00 00 04 00 00 00 04 00 00 00 04 00 00 00
       6e-45 6e-45 6e-45 6e-45
000020 d2 e8 0d 1e 04 00 00 00
       7.512624e-21 6e-45

output_layer_m_D.weight f4 [1, 10]
000000 dd 09 18 41 d8 8f d8 be f5 f3 4b 41 1d 27 fd 40
       9.502408 -0.42297244 12.74706 7.9110246
000010 78 9b 10 c0 b7 f9 9a 40 8c af 80 3e e3 17 24 41
       -2.259489 4.842983 0.25133932 10.255832
000020 5e 6d 83 3e 2d cd 97 40
       0.25669378 4.743796
