Sharp_interface_Bubble_PINN_ver1/NNlayers_Bubble_2.pt (torch, 28938 bytes, 52 tensors)

hidden_layer1_u1.weight f4 [10, 3]
00000000: 0574 f3be 57c7 09bf 300d 2fbe 9a06 e63e
00000010: 164e 20be 5efb cc3e 6982 fa3c fedc ecbd
00000020: 8063 e13c 24ad 3e3e ff22 153f d663 efbe
00000030: 7817 98be 72c0 c6bb 0605 063f 9cf5 fb3e
00000040: 2fa2 953e 8a16 b83e 20c0 b53e fe44 b1be
00000050: 3faa e3be 168c 8ebe e9d1 08bf b681 0cbf
00000060: 3beb 023f 1ffc c73e 6e6a 61be d79a 343e
00000070: 3178 aabe 4840 debe
-0.47549453 -0.53819793 -0.17094874 0.44926912 -0.15654787 0.40035528 0.030579763 -0.115655884
0.027513266 0.18620735 0.58256525 -0.46755856 -0.29705405 -0.0060654217 0.52351415 0.49210823
0.292253 0.35954696 0.35498142 -0.3462295 -0.44465825 -0.27841252 -0.534453 -0.54885423
0.51140183 0.3905954 -0.22013256 0.17637192 -0.33294824 -0.43408418

hidden_layer1_u1.bias f4 [10]
00000000: e4fe 18bf 8c8a b6be 40c1 eb3e c86e bf3d
00000010: ae0e fe3e 2a2a 773e f99e d0be d7f2 af3e
00000020: 842c 9ebe ade9 00bf
-0.5976393 -0.35652578 0.46045876 0.09347302 0.49620575 0.24137178 -0.40746287 0.3436496
-0.30893338 -0.5035656

hidden_layer1_u1N.weight f4 [10]
00000000: 962a 843f d9af 843f 36c2 763f e83d 843f
00000010: 8b2c 743f d191 7e3f b6ff 753f 69cc 813f
00000020: 7d28 843f f911 843f
1.0325496 1.0366164 0.9639009 1.0331392 0.9538047 0.9944125 0.9609331 1.0140506
1.0324856 1.0317985

hidden_layer1_u1N.bias f4 [10]
00000000: 7941 433d cfc0 25bc 5bc8 1d3d 6c86 5e3d
00000010: 98b0 ddbd 48c2 943d ec8e a03c 0247 dd3d
00000020: 4b41 4cbb d068 633b
0.04766986 -0.01011677 0.038521152 0.054327413 -0.10824698 0.07263619 0.0195994 0.10804559
-0.0031166847 0.0034699924

hidden_layer1_u1N.running_mean f4 [10]
00000000: 6109 523e 7140 dd3e 00b1 163f 9113 2d3f
00000010: 7f4b 173f 4a1e 303f 9087 b53e cdcb d23e
00000020: 2ba9 143f a816 a23e
0.2051139 0.43213227 0.5886383 0.6760798 0.5909957 0.6879622 0.35454988 0.41171113
0.5807063 0.3165791

hidden_layer1_u1N.running_var f4 [10]
00000000: b528 323b de22 c53a 7d12 8439 98c4 a23b
00000010: d6c7 d839 0d40 023b d223 263b 6ae7 ac3b
00000020: 97a0 753b abd5 e53a
0.0027184908 0.0015040298 0.00025190777 0.0049672835 0.0004134762 0.0019874603 0.002535094 0.00527661
0.0037479752 0.0017534991

hidden_layer2_u1.weight f4 [10, 10]
00000000: 8381 97be 1bb1 94be fbea 453e da5e 63be
00000010: 663b 3bbe 74a7 963e b2fb 563e b760 9ebe
00000020: 623f 1dbe f50b 8b3c ec05 e1bd 23bf 283a
00000030: 8639 8a3e c05e 6ebd 6748 7e3e d45e 96be
00000040: 09d3 0b3e 64f1 65be 9f63 433e f5ce 7dbe
00000050: bffa efbd d26a 253e bd80 95be 5b7f 14be
00000060: 5cbc 8bbe 29b8 98be 4e94 4ebd 98d4 093e
00000070: 8395 8d3d 4651 9d3e f846 1a3d 226d b73e
00000080: 99e3 5abe ecf5 26be 5aa2 823e 3997 23be
00000090: cdc2 08be 494b 073e ab7a 32bd 153c 40bc
000000a0: 5361 bcbe 3c20 423e 6cab 1dbe 8980 a1bd
000000b0: 5e92 8f3d a0d2 2e3e 9810 2ebe 274e e83d
000000c0: 5fc9 b43e 2546 5f3d 3cc0 833e 7d60 253e
000000d0: 008d 22be 353d 65bd 1107 4a3e 8370 bebd
000000e0: de12 21bc 8de9 0f3e ea44 923e 4f25 603e
000000f0: 5305 843e d32d 82be d74c fa3d 9dfc 40be
00000100: 7b73 22be f505 40be b14f 3a3e 615e 193d
00000110: eb61 993e 7ab3 6ebd 7784 0dbe d473 99bd
00000120: b942 66be 1536 f5bd 07f3 723e cd63 66bd
00000130: 9cbb 4fbe aa84 02be 5a86 02bd 88da 68be
00000140: 890d 95bd b724 903e acea 6b3e ba23 9b3e
00000150: 8b49 29bd ceb0 bcbc 2df6 b8bd 5293 563e
00000160: b406 b4bb 5786 283e acb6 073e bba4 073e
00000170: 0675 41bd 96dd acbc cee3 8ebd 5cad 7d3e
00000180: aa82 b0bd 3fd5 20bd cf3d 9abe acf2 a83e
-0.29590997 -0.2904137 0.19327919 -0.22204152 -0.18284377 0.29424632 0.20994452 -0.30933163
-0.1535621 0.016973475 -0.10987458 0.0006437173 0.26997012 -0.05819583 0.24832307 -0.29369223
0.13654722 -0.22455364 0.19080971 -0.24785979 -0.11717748 0.1615403 -0.29199782 -0.14501707
-0.27292144 -0.29828003 -0.050434403 0.13460004 0.06913283 0.3072607 0.037665337 0.3582545
-0.21375884 -0.16304749 0.2551449 -0.15975656 -0.1335556 0.13212313 -0.043574017 -0.011733075
-0.36793002 0.18957609 -0.15397424 -0.07885844 0.07010339 0.17072535 -0.16998518 0.113430314
0.35309884 0.054510254 0.257326 0.16150089 -0.158741 -0.055966575 0.19729258 -0.09298804
-0.009831158 0.14053936 0.28568202 0.21889232 0.25785312 -0.25425586 0.12221687 -0.18846364
-0.15864365 -0.18752272 0.18194462 0.037443522 0.29957518 -0.05827663 -0.13820063 -0.074927956
-0.2248639 -0.11973206 0.2372552 -0.05624752 -0.20286411 -0.1274592 -0.03186641 -0.22739613
-0.07277972 0.2815301 0.23038739 0.30300695 -0.0413299 -0.023033526 -0.09031329 0.20954636
-0.005493963 0.16457497 0.13253278 0.13246433 -0.047230743 -0.021101754 -0.06977044 0.24773163
-0.08618672 -0.039265867 -0.3012528 0.32997644

hidden_layer2_u1.bias f4 [10]
00000000: 477b cc3d bddb 9d3d d90e 443e 84eb bb3d
00000010: 1ce2 0c3e 318e dc3d 4f8d f3bd d8a8 813d
00000020: 0567 12be f041 62be
0.09984451 0.077079274 0.19146289 0.091757804 0.13758129 0.10769308 -0.11892187 0.063310325
-0.14297111 -0.22095466

hidden_layer2_u1N.weight f4 [10]
00000000: 9638 713f 2ee8 833f 7989 773f 7bc5 743f
00000010: 9878 803f 1474 793f a78f 7b3f 3b93 833f
00000020: 04b1 833f f8a1 773f
0.9422697 1.0305231 0.9669414 0.9561383 1.0036802 0.97442746 0.9826607 1.0279306
1.0288396 0.9673152

hidden_layer2_u1N.bias f4 [10]
00000000: b77b c03b 2f2d da3b daae ec3b 4a37 d1bb
00000010: 22cf afbb 66d0 ccbb 3586 a3bb 33e1 e03b
00000020: 8fc0 dabb e126 f13b
0.005874123 0.0066582183 0.0072229924 -0.006384765 -0.0053652683 -0.006250429 -0.004990364 0.0068627833
-0.006675787 0.007359371

hidden_layer2_u1N.running_mean f4 [10]
00000000: 6f02 063f 657f 003f 7e4d 0b3f 2dae 023f
00000010: ec3e 073f f4ca 053f ed93 f33e 5b75 ff3e
00000020: a5dd f33e dc25 e83e
0.52347463 0.5019439 0.5441512 0.5104702 0.52830386 0.52262807 0.47573796 0.49894223
0.4763004 0.45341384

hidden_layer2_u1N.running_var f4 [10]
00000000: 45ab 2f3c 05ab 2f3b c6e7 583c bdf8 543c
00000010: c8f1 083d cc49 2a3c bc5f 273c b2c0 0f3d
00000020: 7587 4b3c 4514 5f3c
0.010721986 0.0026804816 0.013238853 0.012998757 0.033433706 0.010393571 0.010215696 0.035095878
0.012422432 0.0136156725

output_layer_u1.weight f4 [1, 10]
00000000: 5c1c 6dbb 01bc d5bd 10ef 77be fe17 c33d
00000010: 1146 553d bd3e c33d d2c1 4e3d b300 cabd
00000020: 99a2 b43d 85ff 87be
-0.0036180234 -0.104362495 -0.24212289 0.095260605 0.052068774 0.09533451 0.05047781 -0.098634146
0.088200755 -0.26562133

hidden_layer1_u2.weight f4 [10, 3]
00000000: bd51 e6be 9994 bbbe c49d 9c3e 7f99 3f3d
00000010: 5413 723e 60f2 cbbc 493b eabe 8cf2 713e
00000020: 1f26 a0be 75e8 13bf 0d69 033f 300b e5bd
00000030: 1fca b0be cb4a 083f 34d3 e23e 0e76 0f3f
00000040: af4e f43e 040e 0bbf 4945 f83d fce1 acbd
00000050: f86b ad3d b4f6 b83e ffd6 abbe ee35 02be
00000060: c5a1 1bbe 2336 223e e043 e13e a75c 12bf
00000070: e981 093f 9da6 f3be
-0.44984236 -0.3663681 0.30589116 0.046777245 0.23640186 -0.024895847 -0.45748356 0.2362768
-0.31279084 -0.57776576 0.5133217 -0.111837745 -0.34529206 0.53239125 0.4430176 0.5603951
0.4771628 -0.5431826 0.1212259 -0.084415406 0.08467859 0.3612572 -0.33562467 -0.12715885
-0.15198429 0.15840964 0.43997097 -0.57172626 0.5371385 -0.47588053

hidden_layer1_u2.bias f4 [10]
00000000: 2c6b 49be 0671 a7be e71d 8ebe 53ae ce3e
00000010: cfd5 ffbe 73f5 5d3e 8499 d4be a5ff 6ebe
00000020: b428 58be 99a6 a43e
-0.19669789 -0.32703418 -0.2775719 0.40367374 -0.4996781 0.21675663 -0.41523373 -0.23339708
-0.21109277 0.32158354

hidden_layer1_u2N.weight f4 [10]
00000000: 95d0 833f fdf6 7b3f a730 7b3f aee4 813f
00000010: 66e7 7d3f 8a78 763f d275 833f adce 813f
00000020: 3537 833f ad59 783f
1.0298029 0.9842375 0.9812111 1.0147913 0.9918121 0.9627768 1.0270331 1.0141197
1.0251223 0.97011834

hidden_layer1_u2N.bias f4 [10]
00000000: 0bc8 98bc a931 35bb 7705 89bc 9d50 013d
00000010: 7345 97bd b014 8a3d ba82 9cbd f314 38bd
00000020: cca5 883d bf76 013d
-0.018650075 -0.0027648008 -0.016726239 0.03157102 -0.07386293 0.06742227 -0.076421216 -0.044941854
0.06672248 0.031607386

hidden_layer1_u2N.running_mean f4 [10]
00000000: c473 a23e b8e2 f73e a117 dd3e 2651 263f
00000010: aef5 f23e 67a1 373f ffee c83e a8a5 cd3e
00000020: c3df f23e 161b 223f
0.31728947 0.4841516 0.4318209 0.6496757 0.47453064 0.71730655 0.3924484 0.40165448
0.47436342 0.6332258

hidden_layer1_u2N.running_var f4 [10]
00000000: 6aff 263b bf3a 8d3a 4e69 0c3b b5e5 b83b
00000010: 62f4 c53b f83b 713b 5157 5539 493d 303b
00000020: be48 243a 104c cd3b
0.0025481828 0.0010774954 0.0021425071 0.0056426176 0.0060410956 0.0036809426 0.00020345791 0.0026891998
0.0006266943 0.006265171

hidden_layer2_u2.weight f4 [10, 10]
00000000: 5a95 e43d 9449 923d 79af 503d 3a31 6d3e
00000010: 30b0 e03d 0816 913e c5e3 68be 026f 6abe
00000020: 0248 453e 9cb2 58be 144d 2dbe 9510 12be
00000030: a487 023e 99b6 36be b8b4 983e b5c1 e23c
00000040: ddc0 733e ea2e 8c3e 8b61 4e3e baab 1fbe
00000050: 40a2 88be 2d30 383e 62d6 823e 831d 9bbe
00000060: 165d 74be 96b5 2d3e 1dd7 84be dad4 843e
00000070: 97ad 373d da5e f43d 60ca c9bd eef6 6c3e
00000080: 101b edbc f42e 0fbe ac76 5cbe 0a5f 81be
00000090: bb23 983e 95cb 263e 5c4b 613e cadf 123e
000000a0: 8ae5 1cbc c6f3 34bd 743a 34be 0c8e 393e
000000b0: 26e4 26bd f778 913e 2345 76be 1e95 9cbe
000000c0: 4936 6e3e 2449 70be d53c 72be b7f8 20be
000000d0: b15a 8fbe 805a 7a3e 680b 8dbe 7666 903e
000000e0: 2812 60be 8170 05bb a2d9 303e d9dd 1a3e
000000f0: a020 a0bd c4c9 b93d 4cfb 48be b406 16be
00000100: c75d 2e3e c936 8dbd 6a23 843e ed39 4f3e
00000110: 4ed3 773c eab1 a3bd 9677 98bd 10db 753e
00000120: 7abf 88be 1fea 3abe 4cab 0bbe 1c47 9abe
00000130: 8967 11be b6ad 6c3e 5c43 293c 073d 41be
00000140: d967 cd3d 43af c83d 278c 53be c8f6 853e
00000150: 02c9 3cbe 8819 803e 75d0 dc3d bc7f 993e
00000160: b575 c5bd 76bc 283e b6e4 3cbe ae26 f7bd
00000170: e349 973e 0661 0f3e cd0d 84bd d5ee 3c3e
00000180: 9542 29be 9d0a 0ebe 90f0 9b3e 8727 86bd
0.11161299 0.0714294 0.050948594 0.2316331 0.10971105 0.2833712 -0.22743137 -0.22893909
0.1926575 -0.21161884 -0.16923934 -0.14264138 0.12747055 -0.17843093 0.29825377 0.027680257
0.2380404 0.27379543 0.20154397 -0.15592852 -0.26686287 0.17987128 0.25554186 -0.30295953
-0.23863634 0.16963801 -0.25945368 0.25943643 0.044843283 0.11932154 -0.09853053 0.23141071
-0.028943568 -0.13982755 -0.21529645 -0.25267822 0.2971476 0.16288598 0.22001404 0.14343181
-0.009576211 -0.044177793 -0.17600423 0.18120593 -0.040744923 0.284126 -0.24049811 -0.30582517
0.23262896 -0.23465401 -0.23656018 -0.15719877 -0.2799888 0.24448586 -0.27547765 0.28203171
-0.21881926 -0.0020361247 0.1727052 0.1512369 -0.07818723 0.09071687 -0.19627112 -0.14650995
0.1702796 -0.06895215 0.2580827 0.2023694 0.015126063 -0.07992919 -0.07444684 0.24009347
-0.26708585 -0.18253373 -0.13639563 -0.30132377 -0.14199652 0.2311314 0.010331001 -0.18870936
0.10029573 0.097990535 -0.20658933 0.26164842 -0.18436053 0.2501948 0.107819475 0.29980266
-0.096415915 0.16478142 -0.18446621 -0.120679244 0.2954856 0.14001855 -0.06447945 0.18450482
-0.16529305 -0.13871236 0.30456972 -0.06550508

hidden_layer2_u2.bias f4 [10]
00000000: 0842 8e3e 536d 783e 2d57 883e 4ed7 143d
00000010: b68b 65be 708c 8b3e 1b76 84be be62 943d
00000020: 451b e7bd 024e 983d
0.27784753 0.24260454 0.2662901 0.036338143 -0.22416577 0.27255583 -0.25871357 0.07245396
-0.11284498 0.07436754

hidden_layer2_u2N.weight f4 [10]
00000000: 4b3f 7a3f 5a2c 7b3f 09cb 763f b62f 7b3f
00000010: 86b3 813f 1a63 813f a712 823f 2b02 7a3f
00000020: dd19 803f e374 823f
0.9775283 0.9811455 0.9640356 0.98119676 1.0132911 1.0108368 1.0161942 0.9765956
1.0007893 1.0191921

hidden_layer2_u2N.bias f4 [10]
00000000: cd1a 133c c42f 14bc e380 133c 81e5 13bc
00000010: 0510 10bc cd8c 12bc ea4f 0f3c 197b 12bc
00000020: 18e2 113c b4f6 12bc
0.008978558 -0.009044591 0.009002897 -0.009026886 -0.008792882 -0.008944702 0.00874708 -0.008940482
0.008904003 -0.008969951

hidden_layer2_u2N.running_mean f4 [10]
00000000: 7f03 113f c037 0c3f d559 123f a355 013f
00000010: 6081 ee3e 9eb1 153f a651 dc3e 3520 033f
00000020: 9134 f43e c4ca 063f
0.5664596 0.5477257 0.5716832 0.50521296 0.4658308 0.5847415 0.43031043 0.5122102
0.47696355 0.52653146

hidden_layer2_u2N.running_var f4 [10]
00000000: 14c3 333d bbc2 a73b d20b 333c a093 0a3c
00000010: 63c8 c83c 540f 743c 0b6b b13c 1d24 f53c
00000020: 05ea 0a3c 401b 3e3d
0.043887213 0.005119649 0.010928111 0.008458048 0.024509614 0.014896233 0.021657487 0.029924447
0.008478646 0.046412706

output_layer_u2.weight f4 [1, 10]
00000000: e070 6abe dc5c 293e 32af 30be d966 503e
00000010: dfa9 ad3d 6be2 8d3e 8e63 94bd 33b9 9c3d
00000020: 35ec ddbd e5f1 183e
-0.22894621 0.1653933 -0.17254332 0.20351733 0.08479666 0.27711806 -0.07245551 0.076525114
-0.108360685 0.14936025

hidden_layer1_P.weight f4 [10, 3]
00000000: 6693 a8be f6a2 833e 7471 173e a0ee d93c
00000010: 4278 87be b6e3 9abe 4038 fabd 7874 c0bd
00000020: e836 fe3e 96a0 b73e 86e5 ccbe 967a 0c3f
00000030: 40c5 1abd 4c0e 523e 6604 0fbe 8ed1 41be
00000040: c803 bc3e 98b2 b83e 4269 35be 16e5 033f
00000050: 88ea e93d 70a6 743d a442 74be 3045 c03d
00000060: b470 2f3e 8c91 f3be aad7 9ebe ec77 0c3f
00000070: 5cd5 303e 76ea 52be
-0.32924956 0.25710267 0.14789373 0.026603043 -0.26458937 -0.30251855 -0.1221776 -0.09397215
0.49651265 0.35864705 -0.40018862 0.5487455 -0.03778577 0.20513266 -0.13966522 -0.18927595
0.36721635 0.36073756 -0.17715934 0.5152143 0.114216864 0.05972904 -0.23853546 0.093881965
0.17132837 -0.4757198 -0.31023914 0.54870486 0.1726889 -0.20597252

hidden_layer1_P.bias f4 [10]
00000000: 0008 163c 58a2 053e 08da 8f3e 98a4 cb3d
00000010: d82b 87bd 9600 ca3e 75b1 f5be caf7 9c3e
00000020: 4c27 8cbe f003 5f3d
0.009157181 0.1305021 0.28096032 0.09943503 -0.066001594 0.39453572 -0.4798695 0.30657798
-0.2737373 0.054447114

hidden_layer1_PN.weight f4 [10]
00000000: 0000 803f 0000 803f 0000 803f 0000 803f
00000010: 0000 803f 0000 803f 0000 803f 0000 803f
00000020: 0000 803f 0000 803f
1.0 1.0 1.0 1.0 1.0 1.0 1.0 1.0
1.0 1.0

hidden_layer1_PN.bias f4 [10]
00000000: f8f3 27ad f3f1 8f2f 7d3a ccae b955 22af
00000010: 39d0 af2e 12da 9d2e f167 132e 6b02 802f
00000020: 14bd 2baf 7a43 872f
-9.547023e-12 2.6183464e-10 -9.2872356e-11 -1.4764269e-10 7.9950664e-11 7.1782705e-11 3.351625e-11 2.3284782e-10
-1.5619533e-10 2.4604302e-10

hidden_layer1_PN.running_mean f4 [10]
00000000: f05f 073f 390f ee3e 657f 093f 0ac0 f23e
00000010: 2884 073f c231 2a3f fe8c fb3e 302c 063f
00000020: 569d ac3e 3c93 1e3f
0.52880764 0.4649599 0.53710014 0.4741214 0.5293603 0.66482174 0.49131006 0.52411175
0.33713788 0.6194341

hidden_layer1_PN.running_var f4 [10]
00000000: 0ad0 f53a 5100 b13a 17fd 7d39 aafa 7a3b
00000010: 10d9 583a 6b29 133b d94b ac3b 150f 943a
00000020: 6e8f 6c3b 0340 e33a
0.0018754017 0.0013504123 0.00024222244 0.003829638 0.0008272091 0.0022455107 0.005258065 0.0011295999
0.0036096233 0.0017337803

hidden_layer2_P.weight f4 [10, 10]
00000000: 240b 7abe 69c7 893e 863a a1bd a07e 8a3d
00000010: d2e0 60be 8871 05bd f56f 9e3e 0350 913e
00000020: 308b b2bd fc0d f03d 3222 a8bd 6b90 9f3e
00000030: b81a 66be 392d 813e b805 6ebd a6d5 d4bd
00000040: 2782 03be 3278 7f3e c0e8 4e3d fe03 97bd
00000050: 62a7 6d3e ab37 06be 40bb 013c 98cb 75bd
00000060: 6538 05be 7c30 a1bd 8aba 643e cfc1 853e
00000070: 5073 8a3c 8078 203b 3691 48be 50d0 993c
00000080: 6ad8 42be 0a43 433e cfc1 933e 0cac e73d
00000090: 98c0 e0bd e48d b13d 52e5 91be 0300 2bbe
000000a0: c2ba 513e f575 4abe aaf0 0a3e 58d4 31bd
000000b0: da7b a6bd c6dd 023e 8023 e43d 41ac a0be
000000c0: 35b9 6cbe 7148 20be 5bca 98be afc0 8bbe
000000d0: 52e2 473e 6198 9b3e 8a55 97be 107f 2f3d
000000e0: 8a42 9abe ca15 7dbe 46e8 613e 3aff 98be
000000f0: 4cb1 b73d 22e7 9ebe fe0d 583e e8da 96be
00000100: 1686 6d3e e288 633e ed92 94be defd 67be
00000110: 588f 4cbd 321e 4b3e d0dd 2f3d d053 a03d
00000120: dbe6 8dbe 5049 d13c 18df be3d 4e7c 1d3e
00000130: 42fb 7fbe 4ce1 9f3d 0447 223e 444d a2bd
00000140: d094 653d 7042 5bbe 765f 5cbe ee6a 9bbd
00000150: 60d4 96be e09c b33c aedb c5bd e0de 853c
00000160: cedb 49be c27a 7a3e cdd1 2bbe 39ef 9abe
00000170: 00c8 62b9 a320 963e 0a6f bebd 52ce 163e
00000180: 90a2 2d3d d8fd 62bd fc42 113e 184e 98bd
-0.24418312 0.2690995 -0.078724906 0.06762433 -0.21960762 -0.032578975 0.3094479 0.28381357
-0.08717954 0.11721417 -0.08209647 0.3116487 -0.2247113 0.25229815 -0.058110923 -0.10392313
-0.12842618 0.24948195 0.050514936 -0.07373808 0.23208383 -0.13107173 0.007918179 -0.060008615
-0.13009794 -0.07870576 0.22336784 0.26124427 0.016900688 0.0024485886 -0.19586644 0.018776089
-0.19027868 0.19068542 0.28858802 0.11312112 -0.10974234 0.086696416 -0.2849527 -0.16699223
0.20481399 -0.1977156 0.13568369 -0.043415397 -0.081290916 0.12779912 0.111395836 -0.3138142
-0.23117526 -0.15652634 -0.29841885 -0.27295443 0.19519928 0.30389693 -0.2955745 0.042845786
-0.3012889 -0.24715343 0.22061262 -0.29882222 0.089693636 -0.31035715 0.21099088 -0.29463887
0.23195681 0.22220185 -0.29018345 -0.22655436 -0.04994139 0.19835737 0.042936146 0.07828486
-0.2771519 0.025547653 0.093198955 0.1537945 -0.24998191 0.07806644 0.15847403 -0.079248935
0.05605012 -0.21412063 -0.2152079 -0.075887546 -0.29458904 0.02192539 -0.09661041 0.016341627
-0.19712755 0.24460891 -0.16779251 -0.30260637 -0.00021627545 0.29321775 -0.09298523 0.14727142
0.04239136 -0.055417866 0.14185709 -0.0743677

hidden_layer2_P.bias f4 [10]
00000000: 3032 f3bc 4360 813e 28be 1b3e be57 a9bd
00000010: 4444 9ebe 3198 8b3e 0d6c 46be c0c5 a5bb
00000020: 7c66 d3bd 897c 883e
-0.029687017 0.25268754 0.15209258 -0.082686886 -0.30911458 0.2726455 -0.19377156 -0.005058974
-0.10322282 0.26657513

hidden_layer2_PN.weight f4 [10]
00000000: 0000 803f 0000 803f 0000 803f 0000 803f
00000010: 0000 803f 0000 803f 0000 803f 0000 803f
00000020: 0000 803f 0000 803f
1.0 1.0 1.0 1.0 1.0 1.0 1.0 1.0
1.0 1.0

hidden_layer2_PN.bias f4 [10]
00000000: f87d a9a5 61db e6a4 a31d a124 592c 83a5
00000010: c0c0 0aa4 14c0 a124 9907 30a5 f192 86a5
00000020: 2047 3724 30c7 2625
-2.9402186e-16 -1.0011824e-16 6.9872826e-17 -2.2754929e-16 -3.0087246e-17 7.014801e-17 -1.5268141e-16 -2.3344866e-16
3.9742045e-17 1.4465692e-16

hidden_layer2_PN.running_mean f4 [10]
00000000: 288b fc3e 4ca7 0c3f 3ea4 093f 2388 f53e
00000010: 786d e03e 01a0 0d3f 8944 ec3e d05a ff3e
00000020: 63b0 f33e c0ce 103f
0.49324918 0.54942775 0.5376624 0.47955427 0.43833518 0.5532227 0.46146038 0.49873972
0.4759551 0.56565475

hidden_layer2_PN.running_var f4 [10]
00000000: 60f2 b03c 5ba2 593d eaf1 f43a 56c9 173b
00000010: b536 413d 70cb 553d 23cb 483d d60d 183b
00000020: 3b40 6d3c 4bae 103b
0.021599948 0.05313335 0.0018687819 0.0023160777 0.047171313 0.052195966 0.04902185 0.0023201606
0.014480646 0.0022076543

output_layer_P.weight f4 [1, 10]
00000000: 1dcc 9b3e b800 d83d 14ca 95bd 1e78 773e
00000010: f065 fe3c 386b 97bd 18df 1e3e 8651 7c3e
00000020: d837 2abd bbb2 18be
0.30429164 0.10547012 -0.07313934 0.24166915 0.031054467 -0.07393497 0.15514791 0.24640474
-0.041557163 -0.1491193

hidden_layer1_rho.weight f4 [10, 3]
00000000: ad80 9d3e f336 b1bf a878 30be 1f10 f63e
00000010: c3b9 293f 1b9a d5be 9c3f 01bf 5b19 b1be
00000020: eda6 8e3d ac6e 2c3f 599f e63d 4a76 033e
00000030: c7f6 2abf fda0 743e 31ef 20bf 0538 1c3e
00000040: e020 0bbe 5ea6 90be 7772 c8be c316 ae3e
00000050: 3536 b83e 50ae 45bf 9a8f 5abe 4023 a83e
00000060: d206 84bf 931a 07bf 340f 08bf 2bb5 5abe
00000070: 72aa 2140 d646 d0bd
0.30762234 -1.3844894 -0.17233527 0.48059174 0.66299075 -0.41719136 -0.50487685 -0.34589657
0.06965432 0.6735637 0.11260862 0.12838092 -0.667828 0.23889537 -0.6286498 0.15255745
-0.1358676 -0.28251928 -0.3914983 0.3400174 0.35978857 -0.77219105 -0.21343842 0.32839394
-1.0314581 -0.52774924 -0.531482 -0.21358173 2.5260282 -0.10169761

hidden_layer1_rho.bias f4 [10]
00000000: e905 8c3e 2fbc 1d3f 7720 9b3f 1b0a e03f
00000010: 6b4e 34c0 e173 e5bf b827 1540 7b5e 363f
00000020: d6a4 07c0 5033 80bf
0.2734826 0.6161527 1.2119282 1.7503084 -2.8172863 -1.7925988 2.3305492 0.71237916
-2.1194358 -1.0015659

hidden_layer1_rhoN.weight f4 [10]
00000000: a31b a13f fe36 d03f 74b3 893f c668 b53f
00000010: 138b bd3f 2b4a a43f 08bb 993f c43c ae3f
00000020: 2875 983f 2b39 b03f
1.2586559 1.6266782 1.075789 1.4172599 1.4808067 1.2835134 1.2010202 1.3612294
1.1910753 1.3767446

hidden_layer1_rhoN.bias f4 [10]
00000000: a75a 1cbf b37c 603f 8309 2c3f ca84 453d
00000010: ad64 993f 75d5 93bf 7b80 4bbe cee6 633f
00000020: 44e3 e9bf 2c6f 833c
-0.61075824 0.87690276 0.67202014 0.04822234 1.1983849 -1.1549517 -0.1987323 0.89024055
-1.8272481 0.016044222

hidden_layer1_rhoN.running_mean f4 [10]
00000000: 6760 983e a099 4f3f c27c 253f 8620 663f
00000010: 04df 543d ad2c 093e 262b 6c3f ee1c 083f
00000020: 1abc 2f3d f3e4 3a3f
0.2976105 0.8109379 0.6464349 0.89893377 0.051970497 0.13395949 0.9225334 0.53169143
0.042903997 0.730056

hidden_layer1_rhoN.running_var f4 [10]
00000000: 5116 b73c 9bf3 603b f630 353b db41 a739
00000010: 9652 1039 3bfb df38 a9de 8539 8403 683b
00000020: 6f27 9739 a399 453d
0.022349508 0.0034324888 0.0027647591 0.00031901788 0.00013763676 0.00010680264 0.00025533632 0.0035402486
0.00028830345 0.048242223

hidden_layer2_rho.weight f4 [10, 10]
00000000: aa02 8cbf cf2d c73f 8806 3d3e 4a20 393f
00000010: d122 db3f 8046 2ec0 345a 153f 2484 f03d
00000020: 39a0 14c0 11d5 3e3f 352d f23e 39e3 603f
00000030: 4703 d5bf 5535 7b40 2cf5 bcbf fbda a03f
00000040: bfa7 24bf 3ed3 28c0 811c 1fbf 1a34 9fbd
00000050: 9915 a1c0 261b 8940 fdc8 00c0 4b58 0b3f
00000060: 0ec1 3240 5b3e 1dc0 421b 2540 7f64 a7bf
00000070: 91eb 87bf 82b4 7540 02c8 99bd 974b b83d
00000080: a01d eb3e 6d6b f73c 4d7f b6be 02ff a6bd
00000090: 1484 7c3e beff 663d 6f3a a5bd 5453 33be
000000a0: 932f 2a3e c309 29be 91c8 a53e 225a 483e
000000b0: 4e10 2cbe 998a 7ebe 21ae be3e 9a84 dbbd
000000c0: 88dc 02be 2a73 69bb d129 56c0 4d54 8440
000000d0: a946 febf d870 4b40 cf30 0b3e e9f3 20bf
000000e0: 14cc 873f a0c1 f6bf 426e f3bf b535 2640
000000f0: b4ff 82be f542 1a3e 3718 b23d 9811 04be
00000100: 98d1 323e 103d cd3d d935 bdbe 0959 4fbe
00000110: 5ed3 563e 0189 c3bc 7caf 733f 9e3a 423e
00000120: 17f8 a1be 2035 b13f 54a1 4cc0 0bbd 2240
00000130: 31ab c8bf 193a 1bbf 026a 2abf 9a15 81bf
00000140: 6d34 48be dd33 0cbe d715 5d3d 3226 cabd
00000150: acfa 60be 52b1 b0be f26a 203e 12c3 00bd
00000160: d966 71be f450 b3bd c240 393f 1c00 9f3e
00000170: 2258 833e f6f4 c83f 16fe b8bf 4619 aa3f
00000180: ab64 aebf ed90 b4be 6deb cfbf 3758 9cbf
-1.0938313 1.5560855 0.18459523 0.72314894 1.712 -2.723053 0.58340764 0.11743954
-2.3222792 0.74543864 0.47300115 0.87846714 -1.6641625 3.9251301 -1.476232 1.2566828
-0.6431846 -2.6378932 -0.6215287 -0.077736095 -5.0338864 4.284564 -2.0122674 0.544316
2.7930331 -2.4569309 2.5797887 -1.3077544 -1.0618764 3.8391423 -0.075088516 0.089987926
0.4592104 0.030202592 -0.35643998 -0.08154108 0.24659759 0.05639624 -0.08067786 -0.17512256
0.1661971 -0.1650763 0.32379583 0.19565633 -0.16803095 -0.24857558 0.37242225 -0.10718651
-0.12779438 -0.0035621622 -3.3463023 4.1352906 -1.9865314 3.1787624 0.13592838 -0.6287218
1.0609155 -1.927784 -1.9018023 2.597028 -0.2558571 0.15064605 0.08696025 -0.12897336
0.17462766 0.100214124 -0.36955145 -0.20248808 0.20979068 -0.02386904 0.9518964 0.18967673
-0.3163459 1.3844337 -3.1973467 2.5427883 -1.5677243 -0.60635525 -0.66568005 -1.0084717
-0.19551249 -0.1369166 0.053975906 -0.098705664 -0.21970624 -0.34510285 0.15665796 -0.031436034
-0.2357439 -0.08755675 0.7236444 0.3105477 0.25653177 1.5699756 -1.4452541 1.3288963
-1.3624471 -0.3526682 -1.6243721 -1.2214421

hidden_layer2_rho.bias f4 [10]
00000000: 09f5 a13f 8c52 93bf f1de 533e 2486 e33d
00000010: eaf1 7f3f 14b6 233e 1b44 35bd b7b6 b23e
00000020: 5e88 433e 85a9 8f3f
1.2652904 -1.1509566 0.20690514 0.1110957 0.99978507 0.15987426 -0.044254404 0.34905025
0.19094989 1.1223608

hidden_layer2_rhoN.weight f4 [10]
00000000: cc8d d240 4b5d 8840 ee52 8840 303d 5d40
00000010: 28c3 6c40 04d2 5d40 6136 6a40 14ec 9140
00000020: 06cc 7640 70af 5a40
6.579809 4.2613883 4.2601233 3.4568596 3.6994114 3.4659433 3.659569 4.560068
3.8562026 3.4169579

hidden_layer2_rhoN.bias f4 [10]
00000000: 9aa1 c3bf 69a6 933f d8da d23f 21a2 babf
00000010: 9ff3 93bf 236d 903f 4007 923f fd52 b9bf
00000020: 8dc5 ccbf ab92 babf
-1.5283692 1.1535159 1.6473036 -1.4580728 -1.1558722 1.1283306 1.1408463 -1.4478451
-1.5997788 -1.457601

hidden_layer2_rhoN.running_mean f4 [10]
00000000: 0de8 523f d803 c13e aecc 2a3f 1122 163f
00000010: dd40 413f c0bf 223f e627 f33e 1ee2 a63e
00000020: 6318 2b3f 70de 063f
0.8238533 0.37698245 0.66718566 0.5864573 0.754896 0.6357384 0.47491378 0.3259439
0.66834086 0.5268316

hidden_layer2_rhoN.running_var f4 [10]
00000000: 674f 003e 2255 573e 5475 553e 257c de3b
00000010: bf86 463a 8c35 613e 6065 333a c735 453e
00000020: f042 063c 6619 563e
0.1253029 0.2102857 0.20845538 0.0067897015 0.00075731793 0.21993083 0.0006843414 0.19258796
0.00819467 0.20908126

output_layer_rho.weight f4 [1, 10]
00000000: d816 5740 ee90 56c0 43c1 3ac0 9ec5 dc3f
00000010: 76c3 1140 8b01 2dc0 f3af 0bc0 cfae 3640
00000020: 1785 fb3f 3f49 2640
3.3607693 -3.3525958 -2.9180458 1.7247808 2.277555 -2.7032192 -2.182614 2.8544195
1.9649991 2.5982206
