Sharp_interface_Bubble_PINN_ver1/NNlayers_Bubble_0.pt (torch, 28938 bytes, 52 tensors)

hidden_layer1_u1.weight f4 [10, 3]
0	0xbec88c20	-0.39169407
1	0xbf008ae9	-0.5021196
2	0x3dc51320	0.096227884
3	0x3de53e57	0.11193531
4	0xbc024e10	-0.007953182
5	0xbe310656	-0.17287573
6	0xbdd9e521	-0.10639406
7	0x3eba15b1	0.36344674
8	0xbee52dc2	-0.44761473
9	0x3ebe50f1	0.37171128
10	0xbef198b7	-0.47186825
11	0xbe8a7ea5	-0.27049747
12	0x3f1dc9e2	0.61636174
13	0x3db9d709	0.09074218
14	0x3eb9d484	0.3629495
15	0xbf05d1bf	-0.5227317
16	0xbedb4c1b	-0.428315
17	0x3e64b6bc	0.22335333
18	0xbde0b5f1	-0.109722026
19	0x3e4fbf5c	0.20287842
20	0xbec9b6d0	-0.39397287
21	0xbeec4826	-0.46148795
22	0xbeba0d2d	-0.36338177
23	0xbe67f6ac	-0.22652692
24	0x3e3a71ff	0.18207549
25	0xbe40868a	-0.18801323
26	0x3e865886	0.26239413
27	0xbeec4578	-0.4614675
28	0x3ea8e13d	0.32984343
29	0xbe46f584	-0.19429594

hidden_layer1_u1.bias f4 [10]
0	0x3e4e7a8c	0.20163935
1	0xbecc4bd7	-0.3990161
2	0xbef8e0f4	-0.48609126
3	0x3d373b47	0.044734266
4	0x3d780f12	0.060561247
5	0x3d48418c	0.048890635
6	0x3e37f54e	0.1796467
7	0x3f07e64b	0.53085774
8	0x3d612140	0.05496335
9	0xbdf3fee8	-0.11913854

hidden_layer1_u1N.weight f4 [10]
0	0x3f82c2a5	1.0215651
1	0x3f7927c8	0.97326326
2	0x3f88d8c6	1.0691154
3	0x3f7d3b60	0.98918724
4	0x3f76f7e7	0.9647202
5	0x3f82dd68	1.0223818
6	0x3f847527	1.0348252
7	0x3f7d1c57	0.9887137
8	0x3f8886db	1.0666155
9	0x3f828f36	1.0199955

hidden_layer1_u1N.bias f4 [10]
0	0xbdae5a06	-0.08513264
1	0x3d82e28e	0.06390868
2	0x3d816740	0.063185215
3	0xbd09febf	-0.03369021
4	0x3d671e17	0.05642518
5	0x3c00f380	0.007870555
6	0xbdc175aa	-0.09446271
7	0xbc9cfc55	-0.01916329
8	0xbca76547	-0.020434035
9	0x3d801e39	0.062557645

hidden_layer1_u1N.running_mean f4 [10]
0	0x3ec4ae44	0.38414204
1	0x3ed2b298	0.4115188
2	0x3ee5ef7b	0.44909272
3	0x3ee24413	0.44192562
4	0x3f1dfa93	0.6171047
5	0x3eb3fc6b	0.35153517
6	0x3f13289d	0.57483846
7	0x3ef71639	0.48259142
8	0x3efd1086	0.4942667
9	0x3efaabe6	0.48959273

hidden_layer1_u1N.running_var f4 [10]
0	0x3ba3db74	0.005000526
1	0x387efc44	6.079326e-05
2	0x3b2d46a8	0.002643982
3	0x3ba105ca	0.00491402
4	0x3ae60703	0.0017549697
5	0x3b8379a2	0.0040123025
6	0x3a604af6	0.0008556092
7	0x3b68708e	0.0035467478
8	0x3a6601ec	0.000877409
9	0x3b5089a6	0.0031820326

hidden_layer2_u1.weight f4 [10, 10]
0	0x3cbb70a4	0.02288086
1	0xbe143dca	-0.14476696
2	0xbe0686bb	-0.13137333
3	0xbda122fd	-0.078680016
4	0xbb4393c0	-0.0029842705
5	0xbd76cd46	-0.060254358
6	0xbe89e1c1	-0.2693005
7	0x3ea18a22	0.315507
8	0x3e94a313	0.29030666
9	0xbe8c05da	-0.27348214
10	0xbe9ebef5	-0.31005064
11	0xbe51f24a	-0.20502582
12	0xbde84096	-0.11340444
13	0x3e9720e4	0.2951728
14	0x3db41f6b	0.08795055
15	0x3df8b8d3	0.121446274
16	0xbd743957	-0.059624996
17	0x3e81d666	0.25358886
18	0x3e818b98	0.25301814
19	0x3cee06d3	0.029055988
20	0x3e1682df	0.14698361
21	0x3db4f469	0.0883568
22	0xbda230c2	-0.07919456
23	0xbe41f093	-0.18939428
24	0xbdfa736e	-0.12229048
25	0xbe434b7e	-0.19071767
26	0xbe8ca04f	-0.27466056
27	0xbe1b57e3	-0.15170245
28	0x3e6ec442	0.23317054
29	0xbe2f4bb2	-0.17118719
30	0xbe2c56c1	-0.16829969
31	0xbe7d3fe3	-0.24731402
32	0xbce0794a	-0.027401585
33	0xbdbef7fa	-0.093246415
34	0x3c8a02a4	0.016846962
35	0x3e76e731	0.2411163
36	0xbe97bc46	-0.2963583
37	0xbc3e9548	-0.011632271
38	0x3e2bcf83	0.16778378
39	0xbe780a8c	-0.24222773
40	0xbe0f1687	-0.13973437
41	0x3e7afb06	0.2450982
42	0xbe1b74b1	-0.15181233
43	0x3e63a3d4	0.22230464
44	0xbccca16f	-0.024979321
45	0x3dbd4fae	0.09243713
46	0x3e71a063	0.23596339
47	0x3e9d6e3f	0.30748174
48	0xbd093272	-0.033495374
49	0x3e3f3a58	0.186746
50	0xbe1f01a9	-0.15527977
51	0xbd605f49	-0.05477837
52	0x3e4fa225	0.20276697
53	0xbe30ed57	-0.17278038
54	0x3cee5bfe	0.0290966
55	0xbd6e209b	-0.058136564
56	0x3e938eec	0.28819978
57	0xbe3e395e	-0.18576571
58	0x3d29ebd8	0.041484684
59	0xbcfe7607	-0.03106214
60	0x3e8453c4	0.25845158
61	0x3d3c39de	0.045953624
62	0xbe9dd8e9	-0.30829552
63	0xbe46a766	-0.19399795
64	0x3dffde14	0.1249353
65	0x3eafaaf4	0.34310114
66	0xbe4337cb	-0.19064252
67	0xbe14dac5	-0.14536579
68	0x3e5d9f2f	0.21642755
69	0x3e3a1548	0.1817218
70	0xbe53ac3f	-0.20671175
71	0x3d0f9f56	0.035064064
72	0x3e130175	0.14356025
73	0x3e7828b7	0.24234281
74	0xbde95311	-0.11392797
75	0x3e9439ad	0.28950253
76	0x3ea48159	0.32129934
77	0xbdf509dc	-0.11964771
78	0x3d3fcd3d	0.04682659
79	0x3eaecc17	0.34140083
80	0xbeab09c2	-0.33405882
81	0xbda35ef8	-0.07977098
82	0x3e11b0af	0.14227556
83	0x3dfc960a	0.12333305
84	0xbe33e5b2	-0.1756809
85	0xbdf2c569	-0.11854059
86	0xbd14f5b4	-0.036367133
87	0xbe3ee04f	-0.18640254
88	0xbe4335ba	-0.19063464
89	0x3e3dd7b7	0.1853932
90	0xbe89ed01	-0.26938632
91	0x3df412a1	0.11917616
92	0x3e2194e8	0.1577946
93	0xbdb7af2e	-0.0896896
94	0x3e701784	0.2344647
95	0x3e0c07a1	0.13674785
96	0x3d29d1c0	0.0414598
97	0xbdb80a0c	-0.08986291
98	0x3d748a23	0.05970205
99	0x3e72283c	0.2364816

hidden_layer2_u1.bias f4 [10]
0	0xbe85ad23	-0.26108655
1	0x3e52084d	0.20510979
2	0x3c2b2dea	0.0104479585
3	0x3e015e6d	0.12633677
4	0xbe2646ef	-0.16237997
5	0x3d507291	0.05089051
6	0x3e942ef8	0.28942084
7	0x3dc26515	0.09491936
8	0x3d65e4bb	0.056126337
9	0x3ee62bb0	0.44955206

hidden_layer2_u1N.weight f4 [10]
0	0x3f782074	0.9692452
1	0x3f79d978	0.97597456
2	0x3f8264c5	1.0187002
3	0x3f7a9d5f	0.9789638
4	0x3f80e143	1.0068744
5	0x3f79f306	0.9763645
6	0x3f7a6f01	0.9782563
7	0x3f79dda7	0.9760384
8	0x3f7995dc	0.9749429
9	0x3f7b3fd5	0.98144275

hidden_layer2_u1N.bias f4 [10]
0	0x3c26c8f2	0.010179745
1	0x3c6a9ffa	0.014320368
2	0x3bd8a382	0.0066112885
3	0xbb3b68e8	-0.0028596465
4	0x3b36d25e	0.0027896385
5	0xbb2c5e57	-0.0026301348
6	0xbbf349ca	-0.007424568
7	0x3c230c45	0.009951656
8	0x3b6b2894	0.003588234
9	0x3aa5a710	0.001263829

hidden_layer2_u1N.running_mean f4 [10]
0	0x3ee3aa8e	0.4446606
1	0x3f0bedcd	0.5465973
2	0x3f009b38	0.50236845
3	0x3f082d6b	0.531943
4	0x3eeab81c	0.4584359
5	0x3f02d066	0.5109924
6	0x3f106dd7	0.564176
7	0x3f06251e	0.52400386
8	0x3f052dfd	0.520233
9	0x3f1d158c	0.61361

hidden_layer2_u1N.running_var f4 [10]
0	0x3d4c393e	0.049859278
1	0x3cb7863c	0.022402875
2	0x3c8b9156	0.017037075
3	0x3ca7491b	0.020420602
4	0x3b2c45d9	0.002628675
5	0x3d32b60c	0.043630645
6	0x3cf74708	0.030185238
7	0x3c92fc35	0.017942527
8	0x3d1a5628	0.03767982
9	0x3ccae809	0.024768846

output_layer_u1.weight f4 [1, 10]
0	0xbbb95cb5	-0.0056568035
1	0x3e4eb4b6	0.20186123
2	0x3da6c63d	0.0814328
3	0xbd890387	-0.06690126
4	0xbd0393a8	-0.032123238
5	0xbd9717e4	-0.07377604
6	0xbde8f032	-0.113739386
7	0x3de195c1	0.110148914
8	0x3d7ab31d	0.061205972
9	0xbd20d760	-0.039267898

hidden_layer1_u2.weight f4 [10, 3]
0	0x3edebc87	0.4350321
1	0x3f0d3620	0.55160713
2	0x3ea9b576	0.33146256
3	0x3efa6b44	0.48909962
4	0x3f062bbe	0.52410495
5	0x3e9c90e8	0.30579305
6	0x3ea4aa97	0.321614
7	0x3f080919	0.5313888
8	0x3eeab218	0.45839
9	0xbc8864e8	-0.016649678
10	0x3eb3d572	0.35123783
11	0x3e775080	0.24151802
12	0x3f062c6e	0.52411544
13	0xbde75af8	-0.11296648
14	0xbea1187d	-0.31463996
15	0xbd91113f	-0.070833676
16	0xbe6005a3	-0.2187715
17	0xbdb452e0	-0.0880487
18	0x3ed59a44	0.41719258
19	0x3ede6e0e	0.4344334
20	0x3e9f6cc8	0.3113768
21	0x3dbe6651	0.09296859
22	0xbee6b0a5	-0.45056644
23	0x3f0d68f8	0.55238295
24	0x3e5841e0	0.2111888
25	0xbe85d894	-0.26141798
26	0x3d1fbd30	0.038998783
27	0x3ef2f906	0.47455615
28	0x3ec37ccc	0.3818115
29	0xbd00bc80	-0.031429768

hidden_layer1_u2.bias f4 [10]
0	0xbe428601	-0.18996431
1	0xbedbeeaf	-0.4295554
2	0xbd78052e	-0.060551815
3	0xbee81aeb	-0.45333037
4	0xbe43a64a	-0.19106403
5	0x3e953f27	0.29149744
6	0xbee38289	-0.44435528
7	0xbb9b0c01	-0.0047316556
8	0x3f06f096	0.52710855
9	0xbf0bafc0	-0.5456505

hidden_layer1_u2N.weight f4 [10]
0	0x3f82a711	1.0207235
1	0x3f7c8f2f	0.9865598
2	0x3f7a5ae2	0.97794926
3	0x3f827433	1.0191711
4	0x3f810cd7	1.0082043
5	0x3f832c93	1.0247978
6	0x3f78812e	0.9707211
7	0x3f82cedf	1.0219382
8	0x3f81c6f4	1.0138841
9	0x3f834f36	1.0258548

hidden_layer1_u2N.bias f4 [10]
0	0x3ae1f2e7	0.0017238528
1	0xbcce7d4e	-0.025206234
2	0xbc83b224	-0.016076155
3	0x3cc62c2d	0.024190987
4	0xbbb545b6	-0.005531992
5	0xbc3ae948	-0.011408158
6	0xbcc74dd4	-0.024329104
7	0xbc513cc3	-0.012770834
8	0x3c6405da	0.013917411
9	0x3c8b8f97	0.017036242

hidden_layer1_u2N.running_mean f4 [10]
0	0x3f237881	0.6385575
1	0x3f155988	0.5833974
2	0x3f26e405	0.6519168
3	0x3ef27080	0.47351456
4	0x3ef9daed	0.4879984
5	0x3f0261bf	0.509304
6	0x3f0cff48	0.5507703
7	0x3ed1ed7a	0.41001493
8	0x3f17f5c3	0.5935938
9	0x3f044be0	0.51678276

hidden_layer1_u2N.running_var f4 [10]
0	0x3bbb3628	0.005713243
1	0x3bc4db7d	0.0060076104
2	0x3ba047b6	0.004891361
3	0x3b205d8d	0.0024469823
4	0x3ad14309	0.0015965413
5	0x3a805bb3	0.0009792953
6	0x3b8f42bf	0.0043719704
7	0x3b79c560	0.003811203
8	0x3ac24250	0.0014820788
9	0x3b7d9858	0.003869554

hidden_layer2_u2.weight f4 [10, 10]
0	0xbe80fb27	-0.25191614
1	0xbe634db3	-0.22197609
2	0x3cda1062	0.02661914
3	0xbe88f003	-0.26745614
4	0x3e2b75dd	0.1674418
5	0x3e9c46cc	0.30522764
6	0x3e2d3de8	0.16918147
7	0xbe469b88	-0.19395268
8	0xbea38392	-0.31936318
9	0xbe2211b8	-0.15827072
10	0x3d436b6f	0.04770988
11	0xbe53ba18	-0.20676458
12	0x3e8505c6	0.25980967
13	0xbe23bea9	-0.159907
14	0xbe84c78a	-0.25933486
15	0xbe3afbd9	-0.18260135
16	0xbdd93c77	-0.10607236
17	0xbc9123f4	-0.01771734
18	0xbd2c2d7c	-0.042035565
19	0x3e909df4	0.2824551
20	0xbe869129	-0.26282623
21	0x3d8dbc0f	0.06920635
22	0x3e5c900b	0.21539323
23	0x3cd92210	0.0265055
24	0xbe6dc286	-0.23218736
25	0x3d3646ac	0.04450099
26	0xbd63106a	-0.055435576
27	0x3e05d590	0.13069749
28	0xbe242d4d	-0.16032906
29	0xbe83a9e4	-0.25715554
30	0x3e3d4dce	0.18486711
31	0x3e4ee46a	0.2020432
32	0x3e1a5b8d	0.15073986
33	0xbe97fb0c	-0.2968372
34	0x3e8efe78	0.2792852
35	0x3e29a285	0.16565903
36	0x3e66ae6d	0.22527476
37	0x3d3e890f	0.046517428
38	0xbcbfda30	-0.02341947
39	0xbc045386	-0.008076554
40	0xbc7e432c	-0.015518945
41	0xbd90adb1	-0.07064379
42	0xbe8cf659	-0.27531698
43	0x3e4e3ca1	0.20140316
44	0xbd900a68	-0.07033235
45	0xbd3dcef2	-0.046339937
46	0xbe5dc3a5	-0.21656664
47	0xbe3342ed	-0.17505999
48	0xbde244e7	-0.11048298
49	0x3d998cf0	0.07497585
50	0xbe35aab0	-0.17740893
51	0xbde8cf81	-0.11367703
52	0xbe6c6f36	-0.23089299
53	0xbde2314e	-0.110445604
54	0xbd973996	-0.073840305
55	0x3e223947	0.15842162
56	0x3d997294	0.07492557
57	0xbe827e0e	-0.25486797
58	0x3e84ad6c	0.2591356
59	0x3e86302e	0.26208633
60	0xbcf45e66	-0.029830169
61	0x3e46f89f	0.19430779
62	0x3d65a7ac	0.056068107
63	0xbe67925f	-0.2261443
64	0xbcc74f62	-0.024329845
65	0xbe5df1c9	-0.21674265
66	0xbd51c958	-0.051217407
67	0x3e0d5ace	0.1380417
68	0xbe579f05	-0.21056755
69	0xbe12be4f	-0.1433041
70	0xbe04edc3	-0.12981324
71	0x3e9f9cb9	0.31174257
72	0x3d0bd922	0.03414262
73	0x3d516f40	0.051131487
74	0x3c6abe80	0.014327645
75	0x3e81793f	0.25287816
76	0xbdd6e3ab	-0.10492643
77	0xbe089693	-0.1333869
78	0x3e4e5781	0.20150568
79	0xbe15f012	-0.14642361
80	0x3e6c7a83	0.2309361
81	0xbd50f625	-0.05101599
82	0x3db9d1ce	0.0907322
83	0xbdac0165	-0.083987035
84	0x3e1c0369	0.15235676
85	0xbe989a68	-0.29805303
86	0x3d2297bd	0.03969549
87	0xbe508036	-0.20361409
88	0xbe8e3cc5	-0.27780738
89	0x3e0ca76b	0.1373574
90	0x3b25199d	0.0025192269
91	0xbe84e361	-0.25954726
92	0x3e17328d	0.14765377
93	0xbe6cc293	-0.23121099
94	0x3e77f5cb	0.24214856
95	0xbe96a353	-0.29421481
96	0x3e7fe2a4	0.249888
97	0xbe7cf5cc	-0.24703139
98	0xbe618adf	-0.22025631
99	0xbe3981fb	-0.1811599

hidden_layer2_u2.bias f4 [10]
0	0x3e65c918	0.22439992
1	0xbe56198c	-0.20908183
2	0x3c617462	0.013760658
3	0xbe6ef054	-0.23333865
4	0xbe9607c7	-0.2930281
5	0x3e02e949	0.12784304
6	0x3dc94025	0.09826688
7	0xbe8949d4	-0.2681414
8	0x3e7c1e00	0.24620819
9	0xbe1f1947	-0.15536986

hidden_layer2_u2N.weight f4 [10]
0	0x3f7a610b	0.97804326
1	0x3f78e333	0.9722168
2	0x3f809ef3	1.0048507
3	0x3f7b9be4	0.98284745
4	0x3f7c9eb3	0.98679656
5	0x3f8307e8	1.0236788
6	0x3f7beb9e	0.984064
7	0x3f8320ae	1.0244348
8	0x3f81f910	1.0154133
9	0x3f827efa	1.0195

hidden_layer2_u2N.bias f4 [10]
0	0x3c8a7590	0.016901761
1	0xbc8aa936	-0.01692639
2	0xbc8b5dbc	-0.01701247
3	0xbc85104f	-0.016243128
4	0x3c8715df	0.016489921
5	0xbc815eba	-0.01579224
6	0x3c695b09	0.014242896
7	0xbc7398e3	-0.014867994
8	0x3c80793e	0.015682813
9	0x3c5a1055	0.013309558

hidden_layer2_u2N.running_mean f4 [10]
0	0x3f0c2cb0	0.5475569
1	0x3ee794b3	0.45230636
2	0x3f002060	0.500494
3	0x3ee17489	0.44034222
4	0x3ede110a	0.43372375
5	0x3f088a9e	0.53336513
6	0x3f0555c2	0.5208398
7	0x3edde3b5	0.4333779
8	0x3f0ca30c	0.5493629
9	0x3eebd318	0.4605949

hidden_layer2_u2N.running_var f4 [10]
0	0x3cac4dcc	0.02103319
1	0x3c44d42c	0.012013476
2	0x3c4c15b6	0.012456348
3	0x3c8144fe	0.015779968
4	0x3bd584ac	0.00651606
5	0x3c273638	0.010205798
6	0x3a3e504d	0.00072598906
7	0x3ba486ff	0.0050209756
8	0x3d48b9dd	0.049005378
9	0x3c128ddc	0.008944955

output_layer_u2.weight f4 [1, 10]
0	0x3e8d855d	0.2764081
1	0xbe8ce27d	-0.27516547
2	0xbe9be575	-0.304485
3	0xbe1f1f7f	-0.15539359
4	0x3e4a3c42	0.19749549
5	0xbdfdc181	-0.123904236
6	0x3d25511b	0.04036055
7	0xbd903002	-0.07040407
8	0x3de9cf07	0.114164405
9	0x3cc74e35	0.024329284

hidden_layer1_P.weight f4 [10, 3]
0	0x3e76c5b0	0.2409885
1	0x3e84dd86	0.2595026
2	0x3c1faf00	0.009746313
3	0xbd935d58	-0.07195538
4	0x3e27cbec	0.16386384
5	0xbe2c7c3c	-0.16844267
6	0x3ee68160	0.4502058
7	0x3f0b1674	0.54331136
8	0xbe964801	-0.2935181
9	0x3eff0f50	0.4981637
10	0x3ea373fc	0.31924427
11	0x3efe71f0	0.49696302
12	0xbee674d1	-0.45011
13	0xbf018d0e	-0.5060586
14	0xbed90664	-0.42387688
15	0x3ed318e6	0.41229934
16	0xbed9b18e	-0.42518276
17	0xbeb9c63a	-0.36284047
18	0x3ed40cb0	0.4141593
19	0x3ee5eb28	0.44905972
20	0x3ee96f8c	0.45592916
21	0xbefe223c	-0.49635494
22	0xbf08dc64	-0.5346129
23	0x3ebecba4	0.3726474
24	0x3de0c730	0.10975492
25	0xbea7526b	-0.32680067
26	0x3cdc7dc0	0.026915431
27	0x3edec998	0.4351318
28	0xbf082405	-0.5317996
29	0xbdb94f34	-0.0904831

hidden_layer1_P.bias f4 [10]
0	0x3eb8c36c	0.36086595
1	0xbebbc818	-0.36676097
2	0xbf01a0b4	-0.5063584
3	0x3e5378b4	0.20651513
4	0x3e26fa04	0.16306311
5	0x3ddbecc0	0.10738516
6	0x3f050dce	0.5197419
7	0x3b5a8d00	0.0033348203
8	0xbe3195e4	-0.17342335
9	0xbe9107bc	-0.28326213

hidden_layer1_PN.weight f4 [10]
0	0x3f800000	1.0
1	0x3f800000	1.0
2	0x3f800000	1.0
3	0x3f800000	1.0
4	0x3f800000	1.0
5	0x3f800000	1.0
6	0x3f800000	1.0
7	0x3f800000	1.0
8	0x3f800000	1.0
9	0x3f800000	1.0

hidden_layer1_PN.bias f4 [10]
0	0x2f555bee	1.9404897e-10
1	0x2f6b474e	2.1398458e-10
2	0x2fb2aa1e	3.2498887e-10
3	0xaf4206f4	-1.7646667e-10
4	0x2f0f517e	1.3034726e-10
5	0xaf81ac50	-2.35874e-10
6	0xb016000a	-5.456974e-10
7	0xafa8206e	-3.0582065e-10
8	0x2f94b90d	2.705253e-10
9	0x2fe4c0da	4.1609988e-10

hidden_layer1_PN.running_mean f4 [10]
0	0x3f2ce6eb	0.6753985
1	0x3ee00da1	0.43760398
2	0x3f0ed80d	0.5579842
3	0x3f2fd716	0.6868757
4	0x3eb96bfb	0.36215195
5	0x3ef1ad56	0.47202557
6	0x3f4348c9	0.76282936
7	0x3ea63c25	0.32467762
8	0x3ec9b104	0.39392865
9	0x3eb94232	0.36183316

hidden_layer1_PN.running_var f4 [10]
0	0x3aa1fd7f	0.0012358873
1	0x3a107d03	0.0005511792
2	0x3bd29b0a	0.0064271735
3	0x3b18e327	0.0023328753
4	0x3ba40144	0.0050050337
5	0x3b8f24a0	0.0043683797
6	0x3b2241dc	0.0024758494
7	0x3ba754e6	0.005106556
8	0x3b031731	0.0020002837
9	0x3bb3a8de	0.005482777

hidden_layer2_P.weight f4 [10, 10]
0	0x3c553600	0.013013363
1	0x3e245792	0.1604903
2	0xbe447e9e	-0.19188926
3	0x3e2eae14	0.17058593
4	0x3d83243c	0.064033955
5	0xbe43782e	-0.19088814
6	0xbd9aa0a4	-0.07550171
7	0x3e02d1a8	0.1277529
8	0x3e000cd8	0.125049
9	0xbe18addf	-0.14910077
10	0xbe818798	-0.25298762
11	0x3dc78b28	0.09743339
12	0xbd7bea80	-0.061502934
13	0x3d507538	0.05089304
14	0xbb706900	-0.0036683679
15	0xbd05a3b8	-0.032626837
16	0x3e7dfaaa	0.24802652
17	0x3e7771ee	0.24164554
18	0xbd43ce18	-0.04780397
19	0xbe9ac95b	-0.30231747
20	0xbd386670	-0.045019567
21	0xbe5c69a6	-0.21524677
22	0x3dec2b30	0.11531675
23	0x3e30400a	0.17211929
24	0xbe4e0505	-0.20119102
25	0xbce39240	-0.027779698
26	0xbe9410a2	-0.2891894
27	0x3d3d60b8	0.046234816
28	0x3b994880	0.004677832
29	0xbe53acaa	-0.20671335
30	0x3e81ac4b	0.25326762
31	0xbe8cbbc2	-0.27486998
32	0xbe95b97a	-0.2924307
33	0x3e8181b1	0.2529426
34	0xbe8a4bf2	-0.27011067
35	0xbe19cb0c	-0.15018862
36	0x3daae7e4	0.08345011
37	0xbe608844	-0.21926981
38	0xbe6188b2	-0.22024801
39	0x3e9872a5	0.29774967
40	0xbd90d356	-0.07071559
41	0xbe878a79	-0.26472834
42	0x3da6bc34	0.08141366
43	0x3e19cf44	0.15020472
44	0xbe442e58	-0.19158304
45	0x3e360434	0.17775041
46	0x3e05d268	0.13068545
47	0x3e85ac31	0.26107934
48	0xbe223b7f	-0.15843008
49	0xbdf46c58	-0.119347274
50	0xbcd7e860	-0.026355922
51	0xbc20c880	-0.009813428
52	0x3d7cbe68	0.061705023
53	0xbe880f33	-0.26574096
54	0x3e9af841	0.30267528
55	0xbea0b824	-0.31390488
56	0x3e3ffc06	0.18748483
57	0xbe839ddf	-0.25706384
58	0xbe356a1e	-0.17716262
59	0x3e66e94a	0.2254993
60	0xbd964674	-0.073376566
61	0xbd3b81e8	-0.045778185
62	0xbd810520	-0.06299806
63	0xbe6e924e	-0.23297998
64	0x3e8d5e07	0.276108
65	0xbe839d38	-0.25705886
66	0x3e969cd3	0.29416522
67	0xbe29f2a3	-0.16596465
68	0x3e130aa2	0.14359525
69	0xbe27778d	-0.16354199
70	0xbe19ea5b	-0.15030806
71	0x3d369c08	0.044582397
72	0x3cef4770	0.029208869
73	0xbe84e820	-0.25958347
74	0xbe5cef28	-0.21575606
75	0x3e1e8288	0.15479481
76	0xbc5074e0	-0.012723178
77	0xbe5b2b0e	-0.21403143
78	0x3e5bf1d6	0.21478972
79	0x3c0fdbe0	0.00878045
80	0xbe1d0742	-0.153348
81	0xbe764e8a	-0.24053398
82	0xbe3169e8	-0.17325556
83	0x3db08fc8	0.08621174
84	0x3e1040ae	0.14087173
85	0x3e7b21b6	0.24524578
86	0x3e271908	0.16318142
87	0x3e8c1119	0.27356794
88	0x3e30d6fe	0.17269513
89	0xbe1a31ec	-0.15058106
90	0x3d5feb78	0.05466792
91	0xbd86a820	-0.06575036
92	0xbe0ff54b	-0.14058416
93	0x3e1d217a	0.15344802
94	0xbe84955d	-0.25895205
95	0x3e345af6	0.17612824
96	0x3c3ff6e0	0.011716574
97	0x3dcf12c8	0.10111004
98	0xbe548bc2	-0.20756438
99	0xbe9a0f11	-0.3008962

hidden_layer2_P.bias f4 [10]
0	0xbe938ce2	-0.28818423
1	0x3cb77a90	0.02239731
2	0xbe9e4817	-0.30914375
3	0x3e60bf4a	0.21947971
4	0xbe2c150c	-0.16804904
5	0x3e4fa302	0.20277026
6	0xbe0c2917	-0.1368755
7	0xbe88f78c	-0.26751363
8	0xbe18a251	-0.14905669
9	0xbdfe3816	-0.12413041

hidden_layer2_PN.weight f4 [10]
0	0x3f800000	1.0
1	0x3f800000	1.0
2	0x3f800000	1.0
3	0x3f800000	1.0
4	0x3f800000	1.0
5	0x3f800000	1.0
6	0x3f800000	1.0
7	0x3f800000	1.0
8	0x3f800000	1.0
9	0x3f800000	1.0

hidden_layer2_PN.bias f4 [10]
0	0xa4c5ab73	-8.572558e-17
1	0x251f92ae	1.3840749e-16
2	0xa4bbe66d	-8.148868e-17
3	0xa3cb4bff	-2.204149e-17
4	0xa51737c3	-1.3116055e-16
5	0xa3cbef2c	-2.2110597e-17
6	0x23d81245	2.3426504e-17
7	0x24ffa4a0	1.1086751e-16
8	0xa44ba59d	-4.4158888e-17
9	0xa4ff068d	-1.1059972e-16

hidden_layer2_PN.running_mean f4 [10]
0	0x3edbf4c4	0.4296018
1	0x3f016729	0.50548035
2	0x3ed8d348	0.42348695
3	0x3f0cf359	0.5505882
4	0x3eeabdee	0.4584803
5	0x3f0cbb30	0.54973125
6	0x3eeecb82	0.4663964
7	0x3ede8bb1	0.4346595
8	0x3ef03507	0.46915457
9	0x3ef0fa05	0.4706575

hidden_layer2_PN.running_var f4 [10]
0	0x3b839277	0.0040152627
1	0x3bf1c4eb	0.007378211
2	0x3a0a7486	0.00052816456
3	0x3cc6bd89	0.0242603
4	0x3b111ad5	0.0022141237
5	0x3b766d63	0.003760182
6	0x3b899a85	0.0041993284
7	0x3b895a7b	0.0041916943
8	0x3d2b7a3c	0.04186462
9	0x3c4499ce	0.0119995605

output_layer_P.weight f4 [1, 10]
0	0x3e1b2f10	0.15154672
1	0xbe877ba4	-0.26461518
2	0x3dfa4d08	0.12221724
3	0x3d1f7890	0.038933337
4	0x3e8ce0f3	0.27515373
5	0x3d20f560	0.039296508
6	0xbd288438	-0.04114172
7	0xbe46ba54	-0.19407016
8	0x3dba6980	0.09102154
9	0x3e3c7916	0.18405566

hidden_layer1_rho.weight f4 [10, 3]
0	0x3de8c7e8	0.11366254
1	0xbf80c85d	-1.0061146
2	0xbf837076	-1.0268695
3	0x3db8951b	0.090128146
4	0x3f5eac26	0.8698143
5	0x3f84f64d	1.0387665
6	0x3e97a421	0.29617408
7	0x3d9d6bd3	0.076865815
8	0xbe75457d	-0.23952289
9	0x3f0b1473	0.5432808
10	0x3c78c844	0.015184466
11	0xbdc2a577	-0.09504216
12	0x3f2cd5b2	0.67513573
13	0xbf015ed6	-0.50535333
14	0xbf4367f2	-0.7633048
15	0x3e7ee9e4	0.2489391
16	0xbf77581c	-0.9661882
17	0xbeb66214	-0.35621703
18	0xbe2f5825	-0.17123468
19	0x3f82adc7	1.0209283
20	0x3d8428a3	0.06453063
21	0xbca65581	-0.020304443
22	0x4020d3b0	2.5129204
23	0x3ed40426	0.41409415
24	0x3f10bd69	0.56539017
25	0x3e93403d	0.28759947
26	0xbdf0f093	-0.11764636
27	0x3ed41e12	0.41429192
28	0x3d9e7e57	0.07738941
29	0xbe4c4513	-0.19948225

hidden_layer1_rho.bias f4 [10]
0	0xc03d5028	-2.9580173
1	0x404e16b5	3.220136
2	0xc02f591b	-2.7398136
3	0x40293a43	2.644181
4	0x3f7d1a0c	0.9886787
5	0xc034c09e	-2.8242564
6	0x404907af	3.141094
7	0xbf69c5c6	-0.91317403
8	0xc03fb681	-2.9955142
9	0x3f7532cf	0.9578065

hidden_layer1_rhoN.weight f4 [10]
0	0x3f8b21d4	1.0869699
1	0x3f8d161d	1.1022373
2	0x3fa3ce0b	1.2797254
3	0x3fab6995	1.3391596
4	0x3f87a2cd	1.0596558
5	0x3f8ecbee	1.1155984
6	0x3fa65255	1.2993876
7	0x3f957c6b	1.1678594
8	0x3f929bad	1.1453758
9	0x401d7341	2.4601595

hidden_layer1_rhoN.bias f4 [10]
0	0x3ea4566c	0.32097185
1	0x3f3946d7	0.7237372
2	0x3e36deeb	0.17858474
3	0xbf5eebac	-0.87078357
4	0xbeea271d	-0.45732966
5	0x3e189523	0.14900641
6	0xbf8e1875	-1.1101214
7	0x3fbf8b23	1.4964336
8	0x3fc560a3	1.5420116
9	0xbf017c24	-0.5058005

hidden_layer1_rhoN.running_mean f4 [10]
0	0x3cbaf83f	0.022823451
1	0x3f7b8a4e	0.9825791
2	0x3d987a76	0.074452326
3	0x3f72e598	0.9488158
4	0x3f2f70c7	0.6853146
5	0x3cf10aa5	0.029424021
6	0x3f7ac88e	0.9796227
7	0x3f3d6fd4	0.7399876
8	0x3da96ac2	0.082723156
9	0x3f461fdf	0.7739238

hidden_layer1_rhoN.running_var f4 [10]
0	0x391a8e4d	0.00014739596
1	0x388b013c	6.6282664e-05
2	0x382d4c9d	4.1317766e-05
3	0x38636ef6	5.4224358e-05
4	0x3baf1e80	0.005344212
5	0x396f6844	0.00022831658
6	0x38fecfa8	0.00012150343
7	0x3d3d0356	0.04614576
8	0x39997aa1	0.000292738
9	0x39f40a05	0.00046546772

hidden_layer2_rho.weight f4 [10, 10]
0	0x3fb23f9f	1.3925666
1	0xc00f0f23	-2.2352989
2	0xc00f0681	-2.234772
3	0xbfa77bf3	-1.3084701
4	0x3f55ea13	0.83560294
5	0x3f417536	0.75569475
6	0xbf54b447	-0.8308758
7	0xc018db49	-2.388384
8	0xc00c1a78	-2.1891155
9	0xc0182d53	-2.3777664
10	0xbe530e0e	-0.2061083
11	0x3d95d73b	0.073164426
12	0xbd24ae2d	-0.04020517
13	0x3e443368	0.19160235
14	0x3e44a92c	0.19205159
15	0xbe9d287f	-0.3069496
16	0x3de11c95	0.1099178
17	0xbe76cb2c	-0.24100941
18	0xbe618df7	-0.22026812
19	0xbb29a923	-0.0025888167
20	0x3ebd3b40	0.36959267
21	0xbf39df70	-0.72606564
22	0x3f26faad	0.6522625
23	0x3fd62857	1.6731061
24	0x3f79b522	0.9754201
25	0x3f508f45	0.8146861
26	0xbeebddad	-0.46067563
27	0xc08e9c9c	-4.4566174
28	0xbf281b70	-0.65666866
29	0x3f93b087	1.1538247
30	0xbe5d2732	-0.21596983
31	0x3da6dcd5	0.08147589
32	0xbe1e033a	-0.15430918
33	0x3e4ee310	0.20203805
34	0xbcffbcf2	-0.031218026
35	0xbe262b38	-0.16227424
36	0x3e1490b4	0.14508325
37	0xbec9d067	-0.3941681
38	0xbedaf7e9	-0.42767265
39	0x3e2b35cb	0.16719739
40	0x3d862161	0.06549335
41	0xbfac7d0e	-1.3475664
42	0xbfffb5e7	-1.9977387
43	0xbfae9062	-1.3637812
44	0x3e8f740b	0.2801822
45	0xbf054e8d	-0.52072984
46	0x3f2aa3cc	0.66656184
47	0xbfba0ca6	-1.453511
48	0xc01cd640	-2.4505768
49	0xbf98db0f	-1.1941851
50	0x4008db03	2.1383674
51	0xbfe19299	-1.7622863
52	0x3f3357e8	0.7005601
53	0x3f8b4a1b	1.088199
54	0x400c59e1	2.1929858
55	0x402c3a9d	2.6910775
56	0xc0300486	-2.750276
57	0xbfe64a29	-1.7991382
58	0xbf42062e	-0.7579068
59	0x3f109946	0.56483877
60	0xbd59df5e	-0.053191535
61	0x3d009c43	0.031399023
62	0xbec00481	-0.37503436
63	0x3e90c982	0.28278738
64	0x3de91819	0.113815494
65	0xbdf6629c	-0.12030527
66	0x3d3e7d54	0.04650624
67	0xbef677ca	-0.48138267
68	0xbec42cf1	-0.38315538
69	0xbda3a6e3	-0.079908155
70	0x3e3604c2	0.17775252
71	0x3e8ee546	0.27909297
72	0xbfb58357	-1.4180707
73	0xc07a428d	-3.910312
74	0xbe979577	-0.2960622
75	0xbe6709aa	-0.2256228
76	0xbf423e37	-0.7587618
77	0x3f8d9428	1.1060839
78	0xbe73743a	-0.23774806
79	0xc02bafbb	-2.6826007
80	0x403f0517	2.9846857
81	0xc0514d74	-3.2703524
82	0xc01ac436	-2.4182258
83	0xbf5e9e06	-0.86959875
84	0x4040f1bb	3.014754
85	0x40170b07	2.360048
86	0xc01185af	-2.2737844
87	0xc01d85b0	-2.4612846
88	0xbffe8567	-1.9884461
89	0xbff6d0b7	-1.9282445
90	0xbdd86bce	-0.10567437
91	0x3e494234	0.1965416
92	0xbe6f6bf4	-0.23381025
93	0x3ec43332	0.3832031
94	0x3df3ad04	0.118982345
95	0xbdefa094	-0.1170055
96	0x3ea08ba3	0.31356534
97	0xbed576ad	-0.41692105
98	0xbd94dea9	-0.072690316
99	0xbd2d852a	-0.042363323

hidden_layer2_rho.bias f4 [10]
0	0xbf5d6157	-0.86476654
1	0x3f8c9ae3	1.0984768
2	0xbfee8e9e	-1.8637273
3	0x3f654362	0.89555943
4	0xbfb729b4	-1.4309602
5	0x3fa9b79a	1.3259156
6	0x3eae6996	0.3406493
7	0x3f3ccffa	0.7375485
8	0xbf4be972	-0.79653084
9	0x3f41e61e	0.75741756

hidden_layer2_rhoN.weight f4 [10]
0	0x40764982	3.8482366
1	0x40ae0062	5.4375467
2	0x4096ca77	4.712215
3	0x40580d01	3.3757937
4	0x407f1ac8	3.9860096
5	0x40749b67	3.821985
6	0x4097a0d6	4.7383833
7	0x40809395	4.0180154
8	0x40758a74	3.8365755
9	0x408343ef	4.1020427

hidden_layer2_rhoN.bias f4 [10]
0	0xbfe7e484	-1.8116612
1	0xbffa7796	-1.9567745
2	0x3fc2ef4b	1.5229276
3	0xbfafd189	-1.373582
4	0x3fbfc266	1.4981201
5	0xbfccb7ea	-1.5993626
6	0xbfcb57fc	-1.5886226
7	0xbfaef765	-1.3669249
8	0xbfdc0cd2	-1.7191412
9	0xbfd36fad	-1.6518456

hidden_layer2_rhoN.running_mean f4 [10]
0	0x3eb6653c	0.3562411
1	0x3efa8e2c	0.48936594
2	0x3e03bfb1	0.12866093
3	0x3e9c8b51	0.3057504
4	0x3e727fe8	0.23681605
5	0x3ecfee99	0.40611723
6	0x3e7d64f2	0.24745539
7	0x3f2eb197	0.6823973
8	0x3ebeb877	0.3725011
9	0x3eb0a74f	0.34502646

hidden_layer2_rhoN.running_var f4 [10]
0	0x3e56c090	0.20971894
1	0x3af5685f	0.0018723122
2	0x3dbe7892	0.09300341
3	0x3a3bb4ce	0.0007160426
4	0x3e1d60c1	0.1536894
5	0x3e652f27	0.22381268
6	0x3cf218d8	0.029552862
7	0x3e447964	0.19186932
8	0x3e5f878f	0.21829055
9	0x3a850ed2	0.0010151512

output_layer_rho.weight f4 [1, 10]
0	0x403233d6	2.7844138
1	0x401aefe5	2.420892
2	0xc04a99dc	-3.1656408
3	0x3ff5328f	1.9156054
4	0xc03c38b1	-2.9409602
5	0x402ba2a1	2.681801
6	0x401fe02a	2.498057
7	0x4068a45f	3.6350324
8	0x403841cb	2.8790157
9	0x4000ab39	2.0104506
