Sharp_interface_Bubble_PINN_ver1/NSpde_afterIC_.pt (torch, 28418 bytes, 52 tensors)

hidden_layer1_u1.weight f4 [10, 3]
000000 32 86 89 3d c6 46 c6 3e 2a 5a 59 bd e0 fb 88 3e
       0.06715049 0.3872587 -0.053064503 0.26754665
000010 99 a8 15 bf e3 bf d6 bd 56 e0 0f 3f de 73 d8 3d
       -0.58460385 -0.10485818 0.56201684 0.10568975
000020 94 79 38 be b8 87 c6 be 81 34 de 3b 8a 32 d3 3d
       -0.18015128 -0.3877542 0.0067811613 0.10312374
000030 5d 1d db 3e 56 3b 4c bf 14 72 69 be ce f1 fb 3e
       0.4279584 -0.7977804 -0.22797424 0.4920792
000040 f2 cc 9e 3d 22 d2 00 be 93 16 2b 3e e0 99 24 3f
       0.07753934 -0.1258016 0.1670783 0.64297295
000050 ec c0 96 be 39 79 39 3f 08 7a a5 3d 65 ef a1 be
       -0.29444063 0.72450596 0.08079916 -0.31627956
000060 05 a1 42 3f 75 97 40 3d 03 b8 a5 be 63 d4 8d be
       0.76026946 0.04701944 -0.32366952 -0.277011
000070 f3 df c1 be e3 eb 87 3e
       -0.37866172 0.26547155

hidden_layer1_u1.bias f4 [10]
000000 b6 81 20 be 0f 60 1c 3f e6 29 d8 be b3 75 5b 3e
       -0.15674481 0.61084074 -0.42219466 0.21431617
000010 81 df bc be 17 3d cc 3e f0 1b ac 3e 10 b1 fb bd
       -0.3688927 0.39890358 0.33615065 -0.12289631
000020 3f 88 27 be c1 35 a1 be
       -0.16360568 -0.31486323

hidden_layer1_u1N.weight f4 [10]
000000 d3 7a 96 3f 3c 33 44 3f 3f 45 67 3f be 50 6a 3f
       1.1756233 0.7664068 0.90340036 0.9152945
000010 5e f5 57 3f 43 2a 53 3f e8 70 71 3f a9 5f 9a 3f
       0.84358776 0.8248636 0.94312906 1.2060443
000020 e7 a7 7a 3f 78 80 88 3f
       0.9791245 1.0664206

hidden_layer1_u1N.bias f4 [10]
000000 a2 85 4f bc 77 8d 12 3b 8a 00 8f 3d 90 74 1b 3c
       -0.012666138 0.0022362152 0.06982525 0.00948824
000010 e4 b9 aa 3d 4f 1a b8 bc 50 dd 06 3d b9 f4 42 3e
       0.08336237 -0.022473482 0.032925904 0.19038667
000020 94 4a 64 3d 0f e9 2b ba
       0.055735186 -0.0006557861

hidden_layer1_u1N.running_mean f4 [10]
000000 93 cc 0f 3f 7c 4c 0a 3f c1 1d f9 3e 19 5e 02 3f
       0.5617153 0.54022956 0.48655513 0.5092483
000010 d2 e2 93 3e 81 4e 2b 3f 3b e2 3a 3f bc 6e 12 3f
       0.28883988 0.6691666 0.7300145 0.5720022
000020 57 d9 0e 3f 01 4e 9f 3e
       0.55800384 0.311142

hidden_layer1_u1N.running_var f4 [10]
000000 74 83 50 3b 0a 0b f0 3b 5a 78 fe 3a 49 6c 4d 3a
       0.0031816633 0.0073255347 0.001941453 0.0007836265
000010 55 c3 14 3c 23 1d 93 3a f4 ce b3 3b ad a2 37 3b
       0.009079774 0.0011223893 0.005487317 0.0028020546
000020 08 43 44 3b 3f 61 2c 3b
       0.002994718 0.002630308

hidden_layer2_u1.weight f4 [10, 10]
000000 31 55 84 bd 9a 9a 8b 3e 98 32 7a 3e 21 ca 59 3d
       -0.064615615 0.2726639 0.24433362 0.05317128
000010 f3 e0 aa bd cb 23 71 3e 70 9a 2b 3e 68 2f 9a 3e
       -0.08343687 0.2354881 0.16758132 0.30114293
000020 9c 94 88 3e 8e bc 6b 3d 86 56 65 be dc ba 81 3e
       0.2667588 0.057552867 -0.22396287 0.25337875
000030 5b ca 8a be 85 0b 23 be 6c 58 a8 3d f3 a6 e9 bb
       -0.2710751 -0.15922363 0.0821999 -0.0071304976
000040 f9 26 64 be 90 d4 05 be e2 ae 2d 3d b5 d3 7b 3e
       -0.22280492 -0.13069367 0.04240311 0.24592479
000050 d9 66 a2 be 83 3b 88 be 05 7b 8a 3e 35 0b 6f 3e
       -0.31719092 -0.26607904 0.2704698 0.23344119
000060 fd e8 60 3d c8 84 57 3d c1 ab 90 be 15 2b 19 be
       0.054909695 0.052616864 -0.28256038 -0.1495784
000070 15 9d 10 be 4a eb ab 3e 38 73 7e 3d 98 5f 0d 3d
       -0.14122422 0.3357795 0.0621216 0.034514993
000080 ee ce 81 3d eb be 95 be 12 a2 5c 3e 98 d2 ed bd
       0.06338297 -0.2924722 0.215462 -0.11612433
000090 fc f4 0e be 32 e8 a3 3e c6 72 ab 3d 4d 5e 70 bc
       -0.13960642 0.32013088 0.08371501 -0.014670921
0000a0 f9 bb 7b 3e 6f c1 de bc 52 be 58 3e 76 2d 32 3e
       0.24583425 -0.027191846 0.21166351 0.17400154
0000b0 be 6a 93 be 6b a2 b0 3e d7 32 86 3e 2e 0e 12 bd
       -0.28792375 0.34498915 0.26210663 -0.035658054
0000c0 ce 62 38 bd da ba 9c be d5 b5 b2 3e 95 86 3b be
       -0.045016102 -0.30611306 0.34904352 -0.18313058
0000d0 23 4c af 3d 31 dd 90 be da d2 26 be 32 1a 2d be
       0.08559444 -0.28293756 -0.16291371 -0.16904524
0000e0 ff de b2 3e 9d 30 1a bd d2 f0 4c 3e 2e e3 50 be
       0.34935758 -0.037644017 0.2001374 -0.20399162
0000f0 88 af bb bd b8 d0 2a 3e 8d 1b b6 bd 91 d9 80 3d
       -0.09164339 0.16681182 -0.08891974 0.062914975
000100 31 4a 95 3e 05 ac e7 bd 4f e9 a7 be 25 50 33 3d
       0.29158166 -0.11312107 -0.32795188 0.043777604
000110 ad 54 0e bd e4 d6 d3 3e 09 e5 9b 3e a1 4a 9e 3d
       -0.034748722 0.41374886 0.30448177 0.07729078
000120 8f b2 cb bc 62 8a 4f 3c 34 b0 19 be 13 67 14 bd
       -0.024865417 0.01266727 -0.15008622 -0.03623111
000130 1d 14 ee 3e b5 9e 35 3e b1 c6 2d be e8 b8 83 be
       0.4649972 0.17736323 -0.16970326 -0.2572701
000140 d0 2c a3 be e1 c2 83 3c 4a d9 54 3e 7a 2e 2e be
       -0.31870127 0.016084136 0.20786014 -0.17009917
000150 68 2a da 3c 64 65 41 3e a2 3b 48 3e 81 6f 6e 3e
       0.026631549 0.18886334 0.19553998 0.23284723
000160 bb fe 2b be 46 01 8c 3e 3f 05 90 bd ec ac 28 be
       -0.1679639 0.27344722 -0.070322506 -0.16472214
000170 00 ed b7 3d e9 4a 43 3e c0 35 e3 3c 9e 2a 61 3d
       0.08980751 0.19071545 0.027735591 0.054972284
000180 1a 43 5c 3e 59 e2 95 be 70 ee 01 bf c0 42 30 3e
       0.21509972 -0.29274252 -0.5075445 0.17212963

hidden_layer2_u1.bias f4 [10]
000000 fd 36 45 3e aa 6c 22 be fd d2 ae bd 07 74 7c bd
       0.19259258 -0.15861765 -0.085363366 -0.06163409
000010 b7 d3 49 3e 7b d5 72 3e 76 f0 cd bd d8 33 ca ba
       0.19709669 0.23714249 -0.1005563 -0.0015426828
000020 e0 15 86 3d cc b9 07 3e
       0.06547141 0.1325447

hidden_layer2_u1N.weight f4 [10]
000000 39 f7 64 3f b8 3b b6 3f 09 59 51 3f fc cd 6d 3f
       0.8943973 1.4236975 0.8177648 0.9289243
000010 58 55 ab 3f 4e f4 b0 3f 41 9c 12 40 9d 37 86 3f
       1.338542 1.3824556 2.290787 1.0485722
000020 f8 70 7a 3f 63 a2 79 3f
       0.97828627 0.9751341

hidden_layer2_u1N.bias f4 [10]
000000 fa c6 21 bf 75 dc 51 bf 68 64 08 3f 45 c8 12 bf
       -0.6319424 -0.81977016 0.5327821 -0.5733684
000010 cc 24 18 3f 04 dc 46 3f c3 d5 ef c0 d3 20 2b 3f
       0.5943115 0.7767947 -7.494844 0.6684696
000020 e3 41 24 3f f4 65 6b bf
       0.64163035 -0.91952443

hidden_layer2_u1N.running_mean f4 [10]
000000 35 6f 0e 3f cd 43 ec 3e fb 4f f4 3e 0e 1d 01 3f
       0.5563844 0.46145478 0.4771727 0.5043496
000010 fb 97 08 3f 7c 81 0b 3f 9a 91 f7 3e 53 61 01 3f
       0.53356904 0.5449445 0.48353273 0.5053913
000020 9b 36 07 3f df 6b 03 3f
       0.52817696 0.51336473

hidden_layer2_u1N.running_var f4 [10]
000000 b8 b4 3a 3d 6d cc 6a 3d a6 44 24 3d 39 3d f0 3c
       0.045582503 0.057323862 0.04010453 0.029326068
000010 58 52 8b 3d 4c 77 89 3d a2 44 8c 3d dc a0 6d 3d
       0.06802815 0.06712207 0.06849028 0.058014736
000020 ca df 97 3c 3c ba 37 3d
       0.018539328 0.04485534

output_layer_u1.weight f4 [1, 10]
000000 03 14 e1 3f fa a5 f3 3f f4 e8 e0 bf c6 b9 df 3f
       1.7584232 1.9035027 -1.7571092 1.7478569
000010 5b 72 df bf 6b db ed bf 90 8c f1 40 82 bd e2 bf
       -1.7456774 -1.8582586 7.5484085 -1.7714083
000020 5c e1 e0 bf a0 df 01 40
       -1.7568774 2.029274

hidden_layer1_u2.weight f4 [10, 3]
000000 d5 33 80 be 62 8b 9c be a3 d1 8e 3d fd cd ff be
       -0.25039545 -0.3057509 0.06973579 -0.49961844
000010 7a ec 3d be 7c 49 40 3e 97 41 5f 3d 33 1f c5 be
       -0.1854724 0.18778032 0.05450591 -0.38500366
000020 c5 2f 64 bd 9a bf 57 3e 1e d3 af be 2f 9a 7b bd
       -0.05570962 0.21069184 -0.34340757 -0.061426338
000030 d4 58 0a 3e 07 00 4f 3f 6a 1a e6 be 7e b3 4c bd
       0.13510448 0.80859417 -0.44942027 -0.049975865
000040 cc 46 06 3f a7 de 89 be 3b 59 44 be b1 ca 24 3f
       0.5245178 -0.26927683 -0.19174664 0.6437178
000050 92 cc 7e 3d e9 65 39 3e 5d 80 0d bf e5 e8 81 3e
       0.062206812 0.18105282 -0.5527399 0.25372997
000060 a9 18 af be ce b8 97 3d 75 61 48 3d 50 63 ef be
       -0.34198502 0.074082956 0.048921067 -0.46755457
000070 7f 58 24 be 71 84 92 3e
       -0.16049384 0.2861667

hidden_layer1_u2.bias f4 [10]
000000 c6 47 56 3f 52 95 1a bf 08 22 b4 be 09 40 8e be
       0.8370327 -0.60384095 -0.35182214 -0.2778323
000010 8d cd 3f 3f a1 02 a9 be 53 cc d7 3e 5c d4 74 3e
       0.7492302 -0.33009818 0.42148075 0.23909134
000020 33 9f f6 3e ce b0 1f 3d
       0.48168334 0.038986973

hidden_layer1_u2N.weight f4 [10]
000000 9d c1 8a 3f bd 78 5a 3f d4 0e 8d 3f 2c dc 54 3f
       1.0840336 0.8534048 1.102015 0.83148456
000010 eb f2 64 3f ba 6d 94 3f 20 86 8c 3f 1a ee 80 3f
       0.89433163 1.1595986 1.0978432 1.0072663
000020 54 6f 7d 3f ac 3d 81 3f
       0.98998 1.0096946

hidden_layer1_u2N.bias f4 [10]
000000 89 ae 83 be 0e 68 70 3d be cf 8f bd de 8c 05 3e
       -0.25719097 0.058692984 -0.070220456 0.13042018
000010 9d 56 d7 3c 3d 57 18 3e 3a e4 85 3d 19 f1 29 be
       0.026286418 0.14877029 0.065376714 -0.16595878
000020 43 2c 02 3e b6 d6 4b bc
       0.12712197 -0.012441328

hidden_layer1_u2N.running_mean f4 [10]
000000 a8 47 1a 3f fa a3 88 3e 99 7b aa 3e a5 68 c0 3e
       0.6026559 0.26687604 0.33297423 0.37579837
000010 8e 99 51 3f c6 ef 08 3f da 6e 37 3f 7a 4d e7 3e
       0.8187493 0.53490865 0.7165352 0.45176297
000020 10 96 18 3f 6d 59 d6 3e
       0.5960398 0.418651

hidden_layer1_u2N.running_var f4 [10]
000000 4f fe 11 3b 91 9f ab 3a fa 2a 24 3b ad 3b 1b 3b
       0.0022276824 0.0013093819 0.002505003 0.0023686693
000010 ca 03 9b 3b eb 4b bd 3b 83 86 bb 3b 37 ce d1 3b
       0.0047306763 0.0057768724 0.005722822 0.0064027566
000020 b2 fd 2a 3a 7c a6 dc 3a
       0.0006522789 0.0016834284

hidden_layer2_u2.weight f4 [10, 10]
000000 b2 5e 5f 3c 46 cf 17 3e 03 39 8c be d2 53 41 bd
       0.013633417 0.14825162 -0.27387246 -0.047199078
000010 d2 60 e6 bb 6c 46 a7 3e cb cd d3 3d 8d 17 03 3e
       -0.007030585 0.32670915 0.10341986 0.12801953
000020 a2 1c 12 3d 73 79 8a be 57 34 a0 3e 8b 62 7a 3d
       0.035671838 -0.27045783 0.31289932 0.061129134
000030 27 3e d5 3e ae 4c 06 be 9a 7b a2 be f6 ba 01 3d
       0.4164898 -0.13115188 -0.31734926 0.03167244
000040 92 c9 61 bd 22 ad cc 3d 7f 65 9d bc 69 b0 27 3e
       -0.055123873 0.0999396 -0.019213436 0.16375889
000050 fb d2 83 3e bb 4c b3 3d cb d3 2b bd 08 d9 13 be
       0.25746903 0.087548696 -0.04195003 -0.1443826
000060 d7 a6 57 3d 02 8d 01 be 75 60 03 3d 18 35 24 be
       0.052649345 -0.12651446 0.03207441 -0.16035879
000070 f9 2c d1 3e 4c 28 78 3d 24 25 6c 3e e4 97 3a be
       0.40854624 0.060585305 0.23061043 -0.18222004
000080 bd 60 4a 3e 05 bf 11 be d2 60 aa bc a0 25 b6 be
       0.19763465 -0.14233024 -0.02079812 -0.3557558
000090 e2 d3 a7 bc a2 64 b5 3e 79 63 68 be 7c 16 b2 3e
       -0.020486776 0.3542834 -0.22694196 0.3478278
0000a0 db b2 65 3e 26 59 f9 3d f3 35 ff 3d 53 cd 48 3d
       0.22431509 0.12175207 0.12461462 0.049023937
0000b0 fc 51 17 bd 87 28 ae be b5 c3 ba bb 3e 98 9a 3d
       -0.03694342 -0.34015295 -0.0056995996 0.07548569
0000c0 6f 35 9f bc 65 8f 49 3e 70 02 12 bf 12 5a 85 be
       -0.019434659 0.19683607 -0.5703497 -0.2604528
0000d0 af 42 a5 3d b4 d5 be 3d db 55 65 3e 87 7c 99 3e
       0.080693595 0.093181044 0.22396033 0.2997782
0000e0 78 fd 83 3e 26 4f 51 3e 30 aa 02 bb 40 1f af 3d
       0.2577932 0.20440349 -0.0019937865 0.08550882
0000f0 43 49 e3 3e 5d 81 b4 bd 23 bf 8c 3d a7 bf bf 3d
       0.44391832 -0.088137366 0.06872394 0.09362727
000100 ad fe 96 be 49 68 d2 3d 16 ef 25 3d 5d d7 88 3e
       -0.29491177 0.10273797 0.040511213 0.2672681
000110 bd f3 d3 3d ea af af 3d 2b 0f 82 3e 5f 5a 8a 3e
       0.10349224 0.08578475 0.25402197 0.27022073
000120 a4 a9 c1 3e 0e cc 9b bd 8f f9 72 be be a9 72 be
       0.37824738 -0.0760728 -0.23728012 -0.23697564
000130 15 05 1d be 6f 9b 3d bd 7c 12 64 3e ca 0f 9b bd
       -0.1533397 -0.04629081 0.22272676 -0.07571371
000140 3c 0c 5d be 2a 0d 24 3d 25 70 17 be 37 5d b3 bd
       -0.21586698 0.040051617 -0.14788873 -0.08758014
000150 bc d5 a1 bd cc f3 8f 3d 83 ef 86 3e 9f 79 b6 be
       -0.07902095 0.070289224 0.26354608 -0.35639665
000160 9f d7 b0 3e 6c 10 99 bd 28 d0 88 be 66 73 a9 be
       0.34539506 -0.07473835 -0.2672131 -0.33095855
000170 3d 1e b5 be df 4a ab bd be 89 ab bd 0e a5 8c 3c
       -0.35374632 -0.0836389 -0.083758816 0.017168548
000180 e6 23 c5 3e f8 42 f3 bd 7a 73 22 bd 14 78 39 be
       0.3850395 -0.11878008 -0.03966091 -0.18112212

hidden_layer2_u2.bias f4 [10]
000000 16 09 8b be dc 81 df 3d 07 6f 54 be 27 a7 07 be
       -0.2715537 0.109134406 -0.20745479 -0.13247357
000010 0c 8f 03 be 38 38 1a be d9 a5 86 3e 87 c5 4f 3e
       -0.12847537 -0.15060508 0.26298407 0.20290194
000020 ab 1e 8b bd 4a e8 28 3d
       -0.06792959 0.041237153

hidden_layer2_u2N.weight f4 [10]
000000 56 ee 80 3f f6 62 9e 3f 9a 10 57 3f d1 72 57 3f
       1.0072734 1.237395 0.84009707 0.8415957
000010 16 07 97 3f ad 81 99 3f 45 ae 98 3f 75 c6 f8 3f
       1.1799037 1.1992699 1.1928183 1.9435564
000020 14 0c 68 3f e7 85 97 3f
       0.9064343 1.1837739

hidden_layer2_u2N.bias f4 [10]
000000 da 92 15 3e 00 f1 28 be 74 b7 1a be 5e b0 14 3e
       0.146068 -0.16498184 -0.15109044 0.14520404
000010 5d 0d 16 be a4 0e 46 3e 50 8b 15 be d1 d5 1e c0
       -0.14653535 0.19341522 -0.14603925 -2.4818003
000020 20 ce 15 3e 9a 1c 16 3e
       0.14629412 0.14659348

hidden_layer2_u2N.running_mean f4 [10]
000000 67 6d e8 3e e6 73 fb 3e 1b 62 e6 3e 11 38 de 3e
       0.45395967 0.4911186 0.44996724 0.4340215
000010 bc 94 e7 3e 69 0d 01 3f 3d bb 06 3f 0b 6c 04 3f
       0.45230663 0.5041109 0.5262945 0.5172736
000020 a7 65 05 3f 52 32 06 3f
       0.52108234 0.5242053

hidden_layer2_u2N.running_var f4 [10]
000000 32 c5 01 3d aa 33 86 3d 48 e9 b7 3c fc 4c 90 3d
       0.0316822 0.06552823 0.022450104 0.070459336
000010 6f 9a 66 3d 2f cc 75 3d b0 19 36 3d 8e 05 8c 3d
       0.056299623 0.060009178 0.04445809 0.06836997
000020 97 37 8c 3d 43 35 ad 3d
       0.068465404 0.084574245

output_layer_u2.weight f4 [1, 10]
000000 b5 5e 22 bf 1f 33 09 3f 09 ad 13 3f df 0a 27 bf
       -0.6342576 0.5359363 0.57685906 -0.6525096
000010 d0 9b 1f 3f c9 e2 07 bf f5 4b 21 3f b8 af 36 40
       0.62347126 -0.5308042 0.63006526 2.854475
000020 29 db 21 bf a3 17 1e bf
       -0.63225037 -0.61754817

hidden_layer1_P.weight f4 [10, 3]
000000 af 77 a1 be 8b 7b 8a bd d7 4c 12 bf 6f 8f 19 3f
       -0.31536624 -0.06761845 -0.571485 0.5998449
000010 d8 24 eb 3c 04 86 1d 3f 5a 18 22 3f 01 37 55 3e
       0.028704092 0.61532617 0.6331841 0.20821764
000020 cc 5d 00 3f a8 89 d3 bd 33 cb ea bd 6a 50 b0 3e
       0.5014312 -0.1032899 -0.114645384 0.3443635
000030 3a dc a5 be c6 f8 2a 3e 5b 78 f8 be 6f 6a 65 bc
       -0.32394582 0.16696462 -0.48529324 -0.0140024265
000040 c9 7c 15 3f d9 5e 04 bf 81 b1 e3 3e 24 fb a3 3d
       0.5839353 -0.51707226 0.44471362 0.08006886
000050 d3 62 b4 3e 53 67 13 bf a9 fb 02 be c8 57 27 3f
       0.35231647 -0.57579535 -0.12791313 0.6536832
000060 67 2a 1c be 4d 27 b1 3e 9d 87 fe be 9f ac fa 3e
       -0.1525055 0.34600297 -0.4971284 0.48959824
000070 cb 96 1c be 4a 56 1e 3e
       -0.15291898 0.15462604

hidden_layer1_P.bias f4 [10]
000000 94 d7 98 3e 39 62 ac bd f7 8e b6 3e a8 57 8b 3e
       0.29851973 -0.08417172 0.3565595 0.27215314
000010 c3 38 a1 bd 5c 10 11 3f 9b 01 95 bd 14 e4 90 be
       -0.078721546 0.5666559 -0.07275697 -0.2829901
000020 60 49 99 3d 64 31 87 3e
       0.07484698 0.2640487

hidden_layer1_PN.weight f4 [10]
000000 53 a1 87 3f 1e 03 56 3f 31 ff 6c 3f 83 2b 9a 3f
       1.0596107 0.83598506 0.9257689 1.2044529
000010 59 7f 78 3f 5d e2 74 3f 8f 95 7d 3f 4a 1e 66 3f
       0.9706932 0.956579 0.99056333 0.8988997
000020 a0 c3 8e 3f 09 6a 58 3f
       1.115345 0.84536797

hidden_layer1_PN.bias f4 [10]
000000 ab 8b 36 bc 98 3e 01 bc aa 38 a4 3d d4 b9 a0 bd
       -0.011141698 -0.007888459 0.0801862 -0.07847944
000010 7b 64 06 3e 0b 7c 64 3b f9 eb db 3d 91 6b 3e be
       0.13124268 0.0034863974 0.107383676 -0.18595721
000020 52 23 f4 ba d4 21 b0 3d
       -0.0018626249 0.08600202

hidden_layer1_PN.running_mean f4 [10]
000000 87 35 03 3f e8 d4 10 3f 38 13 35 3f 40 20 08 3f
       0.5125355 0.5657487 0.7073245 0.5317421
000010 98 8a f3 3e c2 d1 3e 3f ed 31 0f 3f 34 a9 af 3e
       0.47566676 0.74538815 0.55935556 0.3430878
000020 c8 a8 13 3f 45 ad 16 3f
       0.57679415 0.5885814

hidden_layer1_PN.running_var f4 [10]
000000 29 09 29 3a a8 e8 ef 3a 9a 35 0c 3b 94 b6 bc 39
       0.00064482033 0.001830359 0.0021394254 0.00035994186
000010 d6 24 8f 3a a3 e9 86 3b 47 db 98 3a bc d0 e8 3a
       0.0010921012 0.004117207 0.001166203 0.0017762403
000020 e4 be 25 3b e2 00 cd 3a
       0.0025290782 0.0015640522

hidden_layer2_P.weight f4 [10, 10]
000000 22 a6 ca 3e b9 d0 99 3d b8 25 a0 3d b1 05 5f 3e
       0.39579874 0.07510514 0.07819694 0.21779515
000010 08 ea b3 bd 3d 66 93 be 82 44 c9 3d 8f 45 e6 bd
       -0.08784872 -0.2878894 0.0982752 -0.11243736
000020 37 f8 e5 be 80 de 8a bd 38 2e d1 3e 92 71 d8 3c
       -0.44915935 -0.0678072 0.40855575 0.026421342
000030 f9 0e 82 bc bc 86 ad bd b5 d5 03 3f ab 1d 6e 3e
       -0.01587628 -0.08472964 0.51497966 0.23253505
000040 28 3e 8c be 11 0c 24 be 6d be eb 3e 8d 66 59 3d
       -0.2739117 -0.16020228 0.4604372 0.053076316
000050 23 fb 90 3e 7e 61 a8 3e 3e 09 97 be 4c 3b be 3e
       0.28316602 0.3288688 -0.2949924 0.37154615
000060 66 28 4d be d3 03 26 be a0 dd 69 3d 6e be 72 3e
       -0.20034942 -0.16212396 0.057096124 0.23705456
000070 21 83 39 be 74 1d 69 be d5 9d 3a 3e ae 54 27 bd
       -0.18116428 -0.22765142 0.1822427 -0.04085224
000080 39 c4 32 bd 1f 2a 7c 3e 1a 29 ba 3d d6 7c 99 be
       -0.043644164 0.24625443 0.09089871 -0.29978055
000090 c3 de 9a be c7 97 51 be b7 f5 7c 3d df f3 2d 3e
       -0.3024808 -0.20468055 0.06175777 0.1698756
0000a0 76 c5 a7 3e 65 d6 fd 3d 13 b2 db be 02 ba 14 bc
       0.32767838 0.12394408 -0.42909297 -0.009077551
0000b0 53 26 ed 3d 08 42 e6 3d 6b 39 ab be 95 15 0a 3e
       0.115795754 0.11243063 -0.33442244 0.13484795
0000c0 84 23 29 bc 17 9e b2 bd 05 b9 07 3e 15 a2 ec 3d
       -0.010323409 -0.087215595 0.13254173 0.11554352
0000d0 f6 45 9d 3d 1a 4d 0a be a1 43 51 3e 05 41 7f 3e
       0.076793596 -0.13505974 0.20435955 0.24927147
0000e0 78 53 9a be 31 7d aa 3e 8d a3 88 3e a3 de 91 3e
       -0.30141807 0.33298638 0.2668728 0.2849017
0000f0 d1 a4 02 be 74 47 5b 3d aa 16 c6 3d da 36 a1 be
       -0.12758185 0.05353494 0.096722916 -0.3148716
000100 d6 23 5e be c7 ed 1c be 88 94 c0 3d 8b 7d 98 be
       -0.21693358 -0.1532508 0.0940333 -0.29783282
000110 4f e1 4a 3e be e0 ae 3e 09 cb 3a be 89 03 1a 3e
       0.19812511 0.3415584 -0.18241514 0.15040411
000120 18 3d 8e 3e 93 ac a6 be e3 ee 3c 3c 79 be 98 3e
       0.27780986 -0.3255354 0.011531564 0.2983282
000130 86 2e 44 3d 74 0c 52 be e6 1b 36 bd 31 05 3e 3e
       0.04789593 -0.20512563 -0.0444602 0.18556668
000140 a5 24 5e 3e a6 fa ba 3d 8c ce 0b 3e 6d b9 48 3d
       0.21693666 0.09129839 0.1365301 0.04900496
000150 d8 13 7f be 32 4b 16 3d 7c f5 9d be 6b 80 c6 3e
       -0.24909914 0.036692806 -0.30851352 0.3876985
000160 1c 91 69 bd 31 e6 36 be 72 95 42 3e 54 d0 d3 3d
       -0.057023153 -0.17861249 0.19002321 0.1034247
000170 a9 d0 d4 3d 04 d2 eb be 26 74 84 3e a6 75 9e bd
       0.10391361 -0.46058667 0.25869864 -0.077372834
000180 a1 38 98 3e 54 84 5f 3b 04 37 3d 3d fc a4 a4 3e
       0.29730704 0.0034105973 0.046195045 0.32157123

hidden_layer2_P.bias f4 [10]
000000 a9 89 0f bd ae 2a 9f 3e 86 28 47 bd ce 90 ec bd
       -0.035043392 0.3108725 -0.04862263 -0.11551057
000010 14 d0 df bc 5f 02 95 be 61 e7 99 3c cf 41 e4 3d
       -0.0273209 -0.29103372 0.018787088 0.111453645
000020 0e 28 4a 3e a3 3c 90 3e
       0.19741842 0.28171262

hidden_layer2_PN.weight f4 [10]
000000 fa 62 7d 3f 4a ce 86 3f 83 68 90 3f 20 1d 91 3f
       0.9897915 1.0531704 1.1281894 1.1337013
000010 b8 e1 71 3f 49 87 75 3f 69 7f 90 3f 36 46 72 3f
       0.94485044 0.95909554 1.1288882 0.94638383
000020 05 2e 85 3f bf 2f 62 3f
       1.0404669 0.88354105

hidden_layer2_PN.bias f4 [10]
000000 cc a3 bb 3a 96 3f f7 3a 47 75 17 3b ad c4 1e 3b
       0.0014315783 0.0018863555 0.0023110674 0.0024226115
000010 c6 b5 d9 ba 4f a5 b2 ba b3 36 45 bb 1c a9 67 3a
       -0.0016609959 -0.0013629588 -0.0030092418 0.000883715
000020 5a 8a 6a 3a dc 5b dc 3a
       0.00089470076 0.0016812044

hidden_layer2_PN.running_mean f4 [10]
000000 07 6e fc 3e 51 54 12 3f 1b 73 ed 3e d8 b3 f3 3e
       0.49302694 0.57159907 0.4637688 0.47598147
000010 18 06 f4 3e f6 eb da 3e 26 e7 05 3f 5b be 0a 3f
       0.476609 0.4275815 0.5230583 0.5419671
000020 26 bb 02 3f 7d f8 16 3f
       0.51066816 0.58972913

hidden_layer2_PN.running_var f4 [10]
000000 e8 4c 5e 3d 02 ce 78 3d 7c 77 7e 3d 00 82 f5 3c
       0.054272562 0.06074334 0.062125668 0.029969215
000010 93 ed 66 3d 8a 5e a5 3c cf ab 65 3d 72 4a 87 3d
       0.056378912 0.020186681 0.056072053 0.06605996
000020 a3 79 eb 3c e7 11 fa 3c
       0.028744524 0.030526115

output_layer_P.weight f4 [1, 10]
000000 4c 62 2f be aa 77 99 be 4b d3 a2 be 90 be 77 be
       -0.17127341 -0.2997411 -0.3180183 -0.24193788
000010 1d 51 fa 3b 4f 7e 53 3d 36 bc a5 3e ee 18 84 3d
       0.007639064 0.05163413 0.32370156 0.064500675
000020 c3 5b 38 be dc df 06 be
       -0.18003754 -0.13171333

hidden_layer1_rho.weight f4 [10, 3]
000000 8d d3 91 bd 94 e1 07 3f c4 c1 74 bd 2f dc d7 bc
       -0.07120428 0.5307858 -0.0597551 -0.026350109
000010 2a b0 2c be bb 97 bc 3d 4a 47 ed bd 49 11 9f be
       -0.16864076 0.09208628 -0.11585863 -0.31067875
000020 2c 33 d6 3d d2 75 9c bd 9d 70 96 be 18 b2 14 be
       0.10458979 -0.0763966 -0.29382792 -0.14521062
000030 e2 15 71 bd 41 ed b4 3d 6f 82 96 bd 06 68 20 be
       -0.05885876 0.08834315 -0.07349097 -0.15664682
000040 2b ec f0 be 01 43 47 be e2 03 b2 bc 5a 44 05 3f
       -0.47055182 -0.19459154 -0.021730367 0.5205742
000050 87 65 42 3e 73 92 c6 3e 55 21 21 3f 52 91 9b be
       0.18984042 0.38783607 0.62941486 -0.30384308
000060 b7 08 77 be bd 2c d3 3e c9 dd 4c 3d b7 f6 3c 3e
       -0.24124418 0.4124507 0.0500162 0.18453489
000070 5c 13 db be 90 c4 b0 bd
       -0.42788208 -0.08631241

hidden_layer1_rho.bias f4 [10]
000000 a7 04 9d 3e 78 e9 f9 be 55 7a 19 3e e3 be fb 3e
       0.30667612 -0.48810935 0.14988072 0.49169073
000010 77 63 d5 bd ed e0 2a be 4a 8a c1 be 55 5a 01 be
       -0.10419362 -0.16687365 -0.3780082 -0.12632115
000020 fb fb a7 be 0a 1d 70 3e
       -0.32809433 0.23448578

hidden_layer1_rhoN.weight f4 [10]
000000 03 60 86 3f d0 19 7f 3f 08 0e 85 3f 40 09 7c 3f
       1.049805 0.9964876 1.0394907 0.98451614
000010 2d 19 80 3f b3 43 81 3f db 03 86 3f 3d 51 78 3f
       1.0007683 1.0098785 1.0469927 0.9699896
000020 74 5c 75 3f 22 62 79 3f
       0.958442 0.97415364

hidden_layer1_rhoN.bias f4 [10]
000000 bc 86 2e 3d e3 f0 27 3d b5 ab 6d 3d 34 a6 8b 3d
       0.04260896 0.04100121 0.05802508 0.0681881
000010 1e cd bf bd 52 fb f2 3d 8a fa 9b 3d 98 a8 55 3d
       -0.09365295 0.11864342 0.07616146 0.052162737
000020 a0 38 be bd 6f 3e 85 bd
       -0.09288144 -0.06506049

hidden_layer1_rhoN.running_mean f4 [10]
000000 ab e4 2e 3f 78 8f ae 3e 3a 30 e6 3e d2 30 0a 3f
       0.6831767 0.34093833 0.4495867 0.53980744
000010 66 8d f9 3e a1 1b aa 3e e6 01 08 3f f4 71 27 3f
       0.4874069 0.33224204 0.53127897 0.65408254
000020 dd d2 fa 3e e8 ca f3 3e
       0.48989 0.47615743

hidden_layer1_rhoN.running_var f4 [10]
000000 cc c5 91 3b 14 fc 04 3a 4a ec 0c 3b 02 83 f9 3a
       0.004448628 0.0005072963 0.0021503144 0.0019036236
000010 ca fd 3f 39 b1 1e 7d 3b 0c 1c bb 3b c8 90 f7 3b
       0.00018309723 0.003862303 0.0057101306 0.007555101
000020 4e e9 7b 3b a0 0f 83 3b
       0.003843862 0.0039996654

hidden_layer2_rho.weight f4 [10, 10]
000000 dc d6 ae bd 92 5d 8c be 66 1d f4 3d 7f 6c 46 3e
       -0.08537075 -0.27415138 0.1191967 0.19377325
000010 8c 10 74 be 71 b3 80 3e 4a 4c 6a 3e 70 b6 d5 be
       -0.23834437 0.25136903 0.22880664 -0.4174075
000020 0e 49 84 be 9a 81 76 be 6b 4d 4b 3e 7a 30 4b be
       -0.25836986 -0.24072877 0.19853751 -0.19842711
000030 10 9c 29 3e 57 e2 7a bd 14 27 04 bc cc fd 2a 3d
       0.1656344 -0.06125101 -0.008065958 0.041745946
000040 07 78 6f 3d 92 cc 92 3d 26 71 82 3d 68 77 6f bd
       0.058464076 0.07167925 0.063692376 -0.058463484
000050 d7 d5 5e 3d 95 0f 16 be 2c a4 29 be af 50 c0 bd
       0.054403152 -0.14654382 -0.16566533 -0.09390389
000060 61 ef 52 3e 1e 13 a5 be 76 5f 5f be f8 64 34 3e
       0.20599128 -0.32241148 -0.21813759 0.17616642
000070 40 27 c5 3d 4e df 95 3e 19 10 26 3e 22 b9 71 be
       0.09626627 0.2927193 0.16217078 -0.23605779
000080 59 95 88 bd 8c 53 83 3e 89 f3 ed bd c5 20 96 bc
       -0.06669111 0.2564968 -0.11618716 -0.018326173
000090 ce aa 97 bd 5d b1 f4 3d a7 45 64 3e 79 95 15 be
       -0.07405625 0.11947892 0.22292195 -0.146078
0000a0 b3 f2 f8 bc 7f 05 0e be 75 34 b2 be d0 ab 6f be
       -0.030389166 -0.13869284 -0.34805647 -0.23405385
0000b0 91 57 14 be f7 75 6e 3e 12 0d a3 bd ba ec 7c 3e
       -0.14486529 0.23287188 -0.07961477 0.24699679
0000c0 9e fd 85 3d 7d 86 80 be b7 73 88 3d 0e 2a 95 3c
       0.06542514 -0.25102606 0.06662696 0.01820853
0000d0 25 4b a1 3e 6f 12 18 3e 3b 48 8a 3d aa f9 87 3e
       0.31502643 0.14850782 0.06752058 0.26557666
0000e0 01 91 2b be b0 48 93 be 1c aa 0c 3e c8 8b 87 be
       -0.16754533 -0.28766394 0.13736767 -0.26473832
0000f0 5e a9 8a be 74 15 6e 3d 9a 7d 64 be 9d b5 83 3e
       -0.27082342 0.058125928 -0.22313538 0.25724497
000100 47 6f e6 bc b8 40 8e be e3 5f be be c5 fd 7e be
       -0.028129233 -0.2778375 -0.3718253 -0.24901493
000110 ff 7c 25 3e 7c 38 a5 3d 51 c5 65 3e a6 e8 e4 bc
       0.16160963 0.08067414 0.22438551 -0.027942967
000120 f8 66 82 be 62 17 cc 3d a0 af b0 bd 05 91 d8 bd
       -0.25469184 0.099653974 -0.08627248 -0.10574535
000130 62 f6 da 3d 23 50 07 be bc c9 a3 3d 53 b6 22 bd
       0.10691525 -0.13214163 0.07997462 -0.03972466
000140 72 7e 6b 3e 69 9f 1d bd 45 80 06 be f5 2e bf 3c
       0.22997454 -0.038482103 -0.13134868 0.02333782
000150 c8 5d a5 bd 18 c3 72 3d 87 9f 12 be 92 c3 98 3e
       -0.08074528 0.059268087 -0.14318667 0.29836708
000160 62 87 33 3e b4 d1 ec bd b7 bc 4f be 25 df 0c be
       0.17532113 -0.11563435 -0.20286833 -0.13756998
000170 9d 38 53 bd 86 97 bb bd d0 fd b3 3e 45 55 90 be
       -0.051567663 -0.0915976 0.3515458 -0.28190055
000180 ad 9f 81 3e 05 14 6b bd 1c 3f 6f be b6 80 ac 3d
       0.25317135 -0.05739214 -0.23363918 0.08422987

hidden_layer2_rho.bias f4 [10]
000000 92 c2 77 3e 84 1d 83 bd d6 63 ae 3d fd 4f 91 bd
       0.24195316 -0.06402114 0.08515136 -0.07095335
000010 bc fa 31 3d 0f da 10 be 4e be 43 3e 95 b0 c0 bd
       0.04345201 -0.14145683 0.19115564 -0.0940868
000020 16 43 d3 bd f0 e4 37 3d
       -0.1031553 0.044896066

hidden_layer2_rhoN.weight f4 [10]
000000 ff c7 75 3f 00 ad 7f 3f 01 81 72 3f ca 3c 76 3f
       0.96008295 0.9987335 0.94728094 0.96186507
000010 1a 72 81 3f 8d ef 76 3f e8 9b 76 3f 2e 7d 74 3f
       1.0112946 0.96459275 0.96331644 0.9550351
000020 d3 5a 81 3f 69 f8 74 3f
       1.0105842 0.95691544

hidden_layer2_rhoN.bias f4 [10]
000000 c2 1b 05 bd 11 e0 f3 bc 3f 3d f6 3c 1e 03 f8 3c
       -0.032497175 -0.02976993 0.030058501 0.030274924
000010 a3 25 fa bc 95 08 8d 3d 68 b2 f6 bc 90 48 b1 bc
       -0.030535525 0.068864025 -0.030114368 -0.021641046
000020 90 eb f7 bc 66 33 d5 bc
       -0.030263692 -0.026025485

hidden_layer2_rhoN.running_mean f4 [10]
000000 f2 95 12 3f 95 61 fa 3e 71 fd fc 3e 38 93 f8 3e
       0.5726005 0.48902574 0.4941211 0.4854982
000010 29 2e 03 3f 31 9f f3 3e d5 7b 05 3f 9f e2 f3 3e
       0.5124231 0.4758239 0.5214208 0.47633836
000020 dd 9a f5 3e 40 6a fe 3e
       0.47969714 0.49690437

hidden_layer2_rhoN.running_var f4 [10]
000000 3b 37 f3 3c 3b 91 63 3c 0f dd ea 3c cf 84 76 3c
       0.029689422 0.013889606 0.028669862 0.0150463125
000010 55 53 02 3d 76 2c f0 3c ea ed c5 3c b7 49 8e 3c
       0.031817753 0.029318076 0.024161298 0.017369134
000020 f2 09 c3 3c a0 29 a1 3c
       0.023808453 0.019673169

output_layer_rho.weight f4 [1, 10]
000000 ff f8 e9 3c d0 10 c7 3d 11 c3 4c be 58 c3 fa bd
       0.028561113 0.097200036 -0.19996287 -0.1224429
000010 a5 e3 c9 3d 74 b7 40 bc df 0a 8b 3e c6 d3 52 3d
       0.09857873 -0.011762489 0.2715673 0.051471494
000020 e4 d0 88 3e 42 ab 8e 3d
       0.2672187 0.069662586
